classification/checkpoints/cora_gcn.pt (torch, 813202 bytes, 6 tensors)

weight f4 [128, 1433]
0.08487097 -0.15170826 0.11937988 0.14924172 -0.22298393 -0.17635451 0.093005165 0.031915866
-0.26432115 -0.07406269 0.19192523 0.22271204 -0.009491606 0.1924394 -0.19163512 0.17159513
0.17259982 -0.16545253 -0.17628886 0.17672472 0.06274601 0.20138472 -0.11997507 0.032449096
-0.16709614 0.12794884 0.071224175 -0.072721675 -0.15498675 0.16721056 -0.18690172 0.010143142
0.008860317 0.14165223 -0.12533586 -0.14434081 0.22607224 -0.09756799 0.03285998 0.1440139
-0.19107337 0.23760998 -0.002254699 -0.029591253 0.04800758 -0.124232635 -0.16197233 -0.14932893
-0.08725173 0.20356923 -0.18861537 0.20102584 0.18791936 0.17159884 -0.19034094 -0.10087188
0.1498695 0.13479972 0.24667859 0.06444221 -0.16074696 0.08748455 -0.073801994 0.14801303
-0.09390346 -0.009638088 -0.15866491 0.00976867 0.14563657 -0.123173065 -0.18991229 0.18093704
0.06964879 0.10746164 -0.2377158 0.13109098 -0.13443847 0.19429067 -0.18464392 0.17844981
0.17515668 0.10140528 -0.19408728 -0.12667958 -0.11369907 0.13131878 -0.20314449 0.10620905
0.14374498 0.22517164 -0.03758282 -0.2042985 -0.18410315 -0.19441137 -0.049644526 0.19871323
0.0936548 0.123328276 -0.085324585 -0.026336526 0.09829014 0.07507776 0.17939211 0.0920455
0.22307536 0.00035135553 -0.20837066 -0.10714555 -0.19122647 0.19730765 0.14433914 0.12165292
-0.18495798 -0.17461406 -0.22070815 -0.0477841 -0.18741606 -0.19743177 -0.13633145 -0.14214218
0.16328284 -0.14788447 -0.19557105 -0.10317807 0.18505815 0.19659187 -0.075581394 0.1787129
0.16152224 0.21747051 -0.17103006 0.1742904 0.17758517 0.18743308 -0.05341051 0.16991349
0.19581984 -0.07505905 0.20018336 -0.15327172 -0.24403134 -0.20938842 -0.16847627 0.19689997
0.18568711 0.16952692 0.14873406 -0.20922714 -0.15640835 -0.06729317 0.20714669 -0.07118141
0.18004428 0.21249758 -0.08149262 0.19730812 -0.18154578 -0.070435524 -0.09434293 -0.15996984
0.13414763 0.19984168 0.23957904 -0.1714823 -0.12341333 0.20422818 -0.049655832 -0.18151163
-0.074916385 0.13225861 -0.23571736 0.21000062 0.17681848 0.19072975 -0.16134135 -0.06346179
0.17326231 0.0035566988 -0.17539722 0.074208334 -0.2326472 0.07111365 -0.1738279 -0.04537201
0.16552646 -0.17306134 -0.12465051 -0.18080187 -0.16118833 -0.17939591 -0.21125714 -0.19534788
-0.007676909 -0.08899072 -0.13286026 0.22061615 -0.06100308 0.18679957 0.04588441 -0.09721259
-0.14388536 0.07186846 -0.17547889 -0.02619266 0.12054293 0.10605291 -0.16281372 0.11146114
0.1538984 0.042236585 -0.15806285 0.18459582 0.23430052 -0.14519083 0.20150286 0.08851318
0.192056 0.15555203 0.024685876 0.09672036 -0.020479048 -0.026167039 -0.049406115 0.07696276
-0.22323976 0.09877675 -0.18030159 -0.118104726 0.03501013 0.22490682 0.13627473 0.008728504
0.18910496 -0.040044274 -0.20330007 -0.15108319 -0.18167372 0.20904802 0.16939403 0.15147004
-0.019553138 0.07390399 -0.1820086 -0.1598706 -0.0339282 0.25528067 0.18271454 -0.01879901
-0.18400744 -0.17032354 0.12855044 -0.042635184 0.09524905 0.19598316 -0.07210681 0.2258102
00000000: d5d0 ad3d 6959 1bbe 707d f43d d2d2 183e
00000010: e655 64be 4796 34be 7e79 be3d 36ba 023d
00000020: 1a55 87be 2eae 97bd 0c88 443e a00e 643e
00000030: ae82 1bbc d60e 453e ff3b 44be a2b6 2f3e
00000040: 02be 303e 636c 29be 1185 34be 53f7 343e
00000050: fb80 803d cc37 4e3e 7db5 f5bd 58e9 043d
00000060: 401b 2bbe 0505 033e fbdd 913d 1aef 94bd
00000070: d9b4 1ebe 3f39 2b3e 2a63 3fbe 6c2f 263c
00000080: dd2a 113c 480d 113e 0b58 00be 14ce 13be
00000090: 7b7f 673e bad1 c7bd 3098 063d 6178 133e
000000a0: bda8 43be 0850 733e 92c3 13bb 5b69 f2bc
000000b0: 99a3 443d ae6d febd 13dc 25be afe9 18be
000000c0: 09b1 b2bd 7474 503e 6324 41be b8d9 4d3e
000000d0: ef6d 403e 9bb7 2f3e bce8 42be eb95 cebd
000000e0: 6477 193e f008 0a3e 5099 7c3e 47fa 833d
000000f0: da9a 24be 1a2b b33d 8025 97bd ba90 173e
00000100: 7550 c0bd 12e9 1dbc 0e79 22be c60c 203c
00000110: c121 153e 2942 fcbd 5e78 42be 8f47 393e
00000120: 06a4 8e3d d914 dc3d c56b 73be b73c 063e
00000130: 3daa 09be 22f4 463e 4c13 3dbe 8cbb 363e
00000140: 465c 333e 92ad cf3d d1be 46be 4bb8 01be
00000150: 0fdb e8bd 6e78 063e 1c05 50be 2184 d93d
00000160: e231 133e 6593 663e 71f0 19bd a033 51be
00000170: 8985 3cbe c613 47be 0f58 4bbd 7b7b 4b3e
00000180: 16ce bf3d 8993 fc3d a8be aebd b3bf d7bc
00000190: 574c c93d 5ec2 993d 91b2 373e 5a82 bc3d
000001a0: de6d 643e 2436 b839 1e5f 55be 206f dbbd
000001b0: dfd0 43be 040b 4a3e a4cd 133e 2b25 f93d
000001c0: a065 3dbe 07ce 32be 5101 62be 43b9 43bd
000001d0: ffe9 3fbe 8e2b 4abe 799a 0bbe b88d 11be
000001e0: 9e33 273e 076f 17be c743 48be 064f d3bd
000001f0: e27f 3d3e 614f 493e 6bca 9abd 8400 373e
00000200: 1666 253e 97b0 5e3e 8122 2fbe 2f79 323e
00000210: e3d8 353e 75ee 3f3e fbc4 5abd cdfd 2d3e
00000220: ff84 483e 8fb8 99bd defc 4c3e 43f3 1cbe
00000230: 5ae3 79be eb69 56be 0b85 2cbe 25a0 493e
00000240: c324 3e3e 7798 2d3e be4d 183e a43f 56be
00000250: 8329 20be 00d1 89bd 431e 543e 8fc7 91bd
00000260: 875d 383e f798 593e 9ae5 a6bd 240b 4a3e
00000270: 23e7 39be 8040 90bd de36 c1bd 22cf 23be
00000280: ff5d 093e 4ca3 4c3e 3554 753e 0e99 2fbe
00000290: 21c0 fcbd 3121 513e ea63 4bbd 2fde 39be
000002a0: c36d 99bd cd6e 073e e45f 71be 670a 573e
000002b0: e70f 353e a94e 433e ab36 25be 41f8 81bd
000002c0: ad6b 313e 8117 693b 549b 33be 8afa 973d
000002d0: 113b 6ebe 09a4 913d f1ff 31be 00d8 39bd
000002e0: c57f 293e fe36 31be c448 ffbd 2024 39be
000002f0: 8e0e 25be 90b3 37be cb53 58be 4609 48be
00000300: 958e fbbb c440 b6bd 850c 08be 33e9 613e
00000310: 5ede 79bd 6348 3f3e 4bf1 3b3d 6517 c7bd
00000320: af56 13be c52f 933d bdb0 33be fd91 d6bc
00000330: 36df f63d 4532 d93d a4b8 26be bd45 e43d
00000340: 8b97 1d3e 4500 2d3d 3adb 21be b006 3d3e
00000350: 7aec 6f3e e8ac 14be c456 4e3e 6646 b53d
00000360: 54aa 443e 0849 1f3e 093a ca3c 5315 c63d
00000370: adc3 a7bc 425c d6bc 115e 4abd a79e 9d3d
00000380: f798 64be 774b ca3d fba0 38be e4e0 f1bd
00000390: c866 0f3d f94d 663e 9a8b 0b3e 0002 0f3c
000003a0: bba4 413e 7705 24bd e52d 50be 8db5 1abe
000003b0: ad08 3abe af10 563e a175 2d3e f61a 1b3e
000003c0: e72d a0bc fa5a 973d 7660 3abe 1eb5 23be
000003d0: 4cf8 0abd 26b4 823e 8519 3b3e 6200 9abc
000003e0: 726c 3cbe 4b69 2ebe baa2 033e 3ba2 2ebd
000003f0: ef11 c33d cfaf 483e bcac 93bd ca3a 673e

bias f4 [128]
0.08206131 0.08527721 -0.020788036 -0.025942584 0.103696294 -0.017906407 0.08277117 -0.022587592
-0.021535262 -0.015885307 0.085072175 0.09736559 0.066215694 0.09858504 -0.013398141 0.09686157
0.0854421 -0.020009687 0.08315698 -0.022834696 0.10052461 0.10549245 -0.025492987 0.08411396
-0.024679186 0.12623198 0.14385359 -0.011480425 0.09795102 0.106954314 0.10422128 0.0852936
0.09296703 0.11917064 -0.018507851 0.087768205 0.076385275 -0.015647745 0.087723844 -0.020358508
0.09266636 0.087255 -0.017574603 0.06848617 0.09095836 0.0875542 0.07956317 0.07571051
0.10880942 0.09861004 -0.014486663 0.09037867 -0.021450583 0.10919122 0.09370913 0.10587874
-0.022814816 0.09554002 0.11608307 0.10094224 0.07918742 0.082205296 0.08562019 0.11557386
0.08701884 0.06553593 0.09261827 0.10195243 0.066462435 0.09089313 0.0658607 0.087306045
0.09337485 -0.020196654 0.09032543 -0.012801949 -0.020749763 0.11618283 0.08205359 0.1023926
0.11223699 0.09617904 0.07554984 -0.013167018 0.10157104 0.07961518 0.08415983 0.08795722
-0.014058476 -0.009196685 0.087935485 0.08808136 0.08597632 0.094429046 -0.014548023 0.08280323
0.09066363 0.060253948 -0.014335698 -0.018383548 0.070847824 -0.019236483 0.093041845 0.07793219
0.08312581 0.08237655 0.084066905 0.08362366 0.092274025 -0.015274436 -0.012867292 -0.012556051
0.09660831 -0.025426546 0.09549339 0.09835184 -0.011816773 0.13849853 0.106767334 0.12301591
-0.010851425 0.099632375 0.10903571 0.15677218 0.07438205 0.120204166 0.095524736 -0.01588987
00000000: c30f a83d d1a5 ae3d ac4b aabc 8b85 d4bc
00000010: b95e d43d 75b0 92bc ee83 a93d 9d09 b9bc
00000020: b86a b0bc e721 82bc 523a ae3d 9c67 c73d
00000030: 189c 873d f4e6 c93d e083 5bbc 5c5f c63d
00000040: 45fc ae3d 5beb a3bc 354e aa3d d40f bbbc
00000050: d9df cd3d 6d0c d83d abd6 d0bc f143 ac3d
00000060: 012c cabc f542 013e 5b4e 133e 6418 3cbc
00000070: 8b9a c83d dd0a db3d f771 d53d 69ae ae3d
00000080: 8065 be3d bd0f f43d c79d 97bc d1bf b33d
00000090: e26f 9c3d b32f 80bc 8fa8 b33d e3c6 a6bc
000000a0: dcc7 bd3d c0b2 b23d 9df8 8fbc 7a42 8c3d
000000b0: 6048 ba3d 9e4f b33d 04f2 a23d 1d0e 9b3d
000000c0: 79d7 de3d 10f4 c93d 7859 6dbc 7418 b93d
000000d0: 22b9 afbc a59f df3d 93ea bf3d f4d6 d83d
000000e0: 23e6 babc 7caa c33d f6bc ed3d ceba ce3d
000000f0: 042d a23d 405b a83d a359 af3d fdb1 ec3d
00000100: ef36 b23d b437 863d a6ae bd3d 70cc d03d
00000110: 751d 883d 2d26 ba3d fae1 863d 83cd b23d
00000120: 503b bf3d 7473 a5bc 8afc b83d 44bf 51bc
00000130: 68fb a9bc 43f1 ed3d b60b a83d 36b3 d13d
00000140: 82dc e53d 84f9 c43d e0b9 9a3d 7aba 57bc
00000150: 7a04 d03d 490d a33d fd5b ac3d ea22 b43d
00000160: 8655 66bc b1ad 16bc 8517 b43d 0064 b43d
00000170: 5a14 b03d 0464 c13d d55a 6ebc bd94 a93d
00000180: daad b93d d8cc 763d 47e0 6abc 1899 96bc
00000190: aa18 913d d495 9dbc b98c be3d e99a 9f3d
000001a0: dd3d aa3d 09b5 a83d 452b ac3d e242 ab3d
000001b0: 2afa bc3d a141 7abc 56d1 52bc e5b7 4dbc
000001c0: 94da c53d 554b d0bc 0a92 c33d b16c c93d
000001d0: 239b 41bc 8fd2 0d3e d5a8 da3d c4ef fb3d
000001e0: 2dca 31bc 0f0c cc3d 1d4e df3d e388 203e
000001f0: 9e55 983d 9a2d f63d 79a2 c33d 792b 82bc

weight f4 [128, 128]
0.21424986 0.087285675 -0.08163073 -0.051673446 -0.032366462 -0.0692074 0.07801905 0.007681052
-0.025677355 0.04438099 0.22646894 0.28534582 0.24745198 0.27573887 0.055260103 0.27920872
-0.20849438 -0.0071295816 0.14949821 0.03676896 -0.1654304 0.2219352 -0.06490634 0.10680057
-0.023092648 0.100603074 0.15361413 0.074733466 -0.25943863 0.13570155 0.07400667 0.1493665
0.28895146 -0.15030068 -0.035993576 0.19806932 -0.24475709 -0.02625169 0.027702311 0.081105
-0.08837867 0.20482652 0.08824964 0.025806764 0.117648415 -0.13827334 0.046946086 -0.06812303
0.2403229 0.0073253294 -0.071895234 0.14585732 -0.029561251 -0.2344304 0.18051177 0.25683558
-0.02989162 0.064496435 0.27202946 0.04515068 -0.11555539 -0.25739828 0.03320655 -0.1614745
0.24613716 -0.2789596 0.22541524 0.1633285 -0.13821918 -0.10638621 -0.09544559 0.25391996
0.26464716 -0.0879254 -0.154408 -0.078471094 0.011126177 0.18099564 0.25584203 -0.174281
0.09956112 -0.109614104 -0.23500523 -0.07440079 0.28227708 -0.053590495 -0.21315488 0.294146
-0.05359053 -0.011638104 0.28223675 0.25227162 -0.008640511 0.1682054 -0.0065041543 0.2280547
0.18802 -0.28889158 0.085598476 0.062753 -0.24500655 -0.01927309 0.22992982 0.12697321
-0.1738309 -0.14781795 0.23775846 0.26900414 -0.024998948 0.05726235 0.042999867 0.057750612
0.1559174 0.019584702 -0.17128685 0.16012684 -0.0042426023 0.25474507 -0.12802225 -0.17243303
-0.08170266 0.28156573 -0.22510587 0.18887365 -0.22880438 0.304697 0.26289195 0.020653462
-0.07526467 0.058948115 -0.04180907 0.07930514 0.027720992 -0.082931004 0.06393433 -0.030458547
0.025329981 0.056031127 0.031291828 0.05814994 0.057634257 -0.023589872 0.04272441 -0.009293921
-0.032072555 -0.032647148 0.06394717 0.027911782 -0.006004716 -0.059965968 0.08810037 -0.06939987
-0.06912438 -8.027667e-05 0.016836908 0.08324111 -0.03175726 -0.05651032 -0.041419942 0.048046608
-0.06411811 -0.025731146 -0.013104667 0.038037244 -0.096130595 -0.020748515 -0.06761747 -0.06554944
0.076548174 -0.0009898827 -0.026952825 -0.02424019 -0.00370532 0.043370713 -0.038715255 -0.051533476
0.07476975 -0.0036985711 -0.024699707 -0.070379294 -0.063563325 -0.051462736 -0.028949479 -0.054581914
0.0005018952 0.006123027 0.04110524 0.035413243 -0.06077303 0.018560406 -0.0924114 0.03235957
-0.013594834 0.063902065 0.024950689 -0.07893736 -0.067936815 -0.016294457 -0.018881764 -0.053886056
-0.07816693 0.07479598 -0.08312246 -0.0030155226 0.0035603761 0.05388328 -0.02960774 -0.00022271503
0.019664576 0.072441354 -0.047043603 -0.08650612 -0.014841867 0.07172452 -0.02794208 -0.06944714
0.04826186 0.033540778 -0.09725402 -0.009879485 -0.0036160967 0.04326576 0.008089002 0.038103472
0.021041896 0.034839947 0.017120913 -0.07640938 -0.0023668327 0.04725598 -0.054402374 -0.054286044
0.058157716 -0.044107474 0.056401704 -0.038807504 -0.02498107 -0.04842264 -0.082488485 0.0352936
0.053368464 -0.008246347 0.016901175 -0.07285671 0.055855826 -0.01160051 -0.021082854 -0.07000897
-0.0052126483 -0.003196609 -0.100524805 -0.042667653 0.050739076 0.013918138 -0.06512264 -0.048410542
00000000: 5164 5b3e d5c2 b23d 032e a7bd 89a7 53bd
00000010: b292 04bd 9cbc 8dbd 74c8 9f3d 56b1 fb3b
00000020: 5159 d2bc d7c8 353d 79e7 673e d918 923e
00000030: 0d64 7d3e a52d 8d3e 6b58 623d 72f4 8e3e
00000040: 8d7f 55be 449f e9bb 0f16 193e 0d9b 163d
00000050: 9666 29be fb42 633e 9ded 84bd 42ba da3d
00000060: cb2c bdbc fc08 ce3d 064d 1d3e dc0d 993d
00000070: 24d5 84be 59f5 0a3e cf90 973d 88f3 183e
00000080: 72f1 933e 6ce8 19be 006e 13bd afd2 4a3e
00000090: 9aa1 7abe c90d d7bc f5ef e23c 611a a63d
000000a0: e0ff b4bd 0bbe 513e 3abc b43d b568 d33c
000000b0: a7f1 f03d 8797 0dbe 8a4a 403d 1684 8bbd
000000c0: 3517 763e 5109 f03b cf3d 93bd 9f5b 153e
000000d0: 702a f2bc 860e 70be 14d8 383e f47f 833e
000000e0: 45df f4bc b516 843d 7247 8b3e ebef 383d
000000f0: 4ea8 ecbd b5c9 83be 9703 083d 9259 25be
00000100: 610b 7c3e cbd3 8ebe 41d3 663e 963f 273e
00000110: 5489 0dbe 03e1 d9bd fa78 c3bd cc01 823e
00000120: d57f 873e 3b12 b4bd 211d 1ebe 74b5 a0bd
00000130: 924a 363c ec56 393e bafd 823e b876 32be
00000140: b3e6 cb3d 5c7d e0bd 36a5 70be 715f 98bd
00000150: 9f86 903e b581 5bbd 4645 5abe 4e9a 963e
00000160: be81 5bbd bfad 3ebc 5681 903e bf29 813e
00000170: ee90 0dbc 093e 2c3e cd20 d5bb 2c87 693e
00000180: 5188 403e 99e9 93be 414e af3d a584 803d
00000190: ffe2 7abe 99e2 9dbc b972 6b3e 4405 023e
000001a0: ba00 32be 975d 17be f476 733e e9ba 893e
000001b0: 98ca ccbc ed8b 6a3d a120 303d e88b 6c3d
000001c0: d0a8 1f3e 1970 a03c d265 2fbe 4af8 233e
000001d0: 8705 8bbb f26d 823e 4418 03be 4992 30be
000001e0: b953 a7bd 6229 903e 2782 66be 1868 413e
000001f0: b24b 6abe 3f01 9c3e c699 863e 7331 a93c
00000200: 5d24 9abd 9473 713d fd3f 2bbd bc6a a23d
00000210: 2217 e33c bbd7 a9bd 01f0 823d 3484 f9bc
00000220: d280 cf3c e580 653d dc2b 003d a22e 6e3d
00000230: e611 6c3d 8c3f c1bc caff 2e3d 8845 18bc
00000240: 835e 03bd 04b9 05bd bcf6 823d 40a7 e43c
00000250: 35c3 c4bb e09e 75bd f76d b43d 8521 8ebd
00000260: 1591 8dbd 365a a8b8 8eed 893c 517a aa3d
00000270: e713 02bd 5e77 67bd f5a7 29bd 85cc 443d
00000280: 5b50 83bd 20ca d2bc f5b4 56bc f1cc 1b3d
00000290: 1ee0 c4bd caf8 a9bc 077b 8abd c93e 86bd
000002a0: 4ac5 9c3d f4be 81ba 2ccc dcbc 5d93 c6bc
000002b0: f4d4 72bb 7da5 313d e393 1ebd c414 53bd
000002c0: e220 993d ba63 72bb 0a57 cabc 0523 90bd
000002d0: 7d2d 82bd 97ca 52bd 7527 edbc 4991 5fbd
000002e0: 9e91 033a aca3 c83b f85d 283d 7a0d 113d
000002f0: 24ed 78bd fe0b 983c 3042 bdbd 788b 043d
00000300: debc 5ebc 16df 823d 6365 cc3c e9a9 a1bd
00000310: 7522 8bbd f47b 85bc eead 9abc a0b7 5cbd
00000320: fc15 a0bd a22e 993d 1c3c aabd 13a0 45bb
00000330: 3355 693b b7b4 5c3d ee8b f2bc 9c88 69b9
00000340: 9b17 a13c 225c 943d cbb0 40bd 1f2a b1bd
00000350: 4d2b 73bc 4ee4 923d cae6 e4bc 4d3a 8ebd
00000360: 3aae 453d 0e62 093d 1e2d c7bd 90dd 21bc
00000370: 09fc 6cbb 7037 313d bc87 043c 6312 1c3d
00000380: 0e60 ac3c 55b4 0e3d 2841 8c3c 857c 9cbd
00000390: dd1c 1bbb 7d8f 413d 06d5 5ebd 0b5b 5ebd
000003a0: c936 6e3d 0aaa 34bd 7905 673d 9ef4 1ebd
000003b0: 1aa5 ccbc d156 46bd b9ef a8bd 0690 103d
000003c0: e498 5a3d b01b 07bc 5574 8a3c e635 95bd
000003d0: 14c9 643d 1110 3ebc f3b5 acbc dd60 8fbd
000003e0: ddce aabb 337e 51bb f3df cdbd 47c4 2ebd
000003f0: c7d3 4f3d e708 643c 055f 85bd 224a 46bd

bias f4 [128]
0.054186285 -0.04852164 0.09891946 -0.01368365 0.11900459 0.003312969 0.054841552 0.17652968
0.16334149 -0.025625566 0.13347383 0.11493232 0.14348067 0.15191305 0.03879726 -0.018021641
-0.0893047 0.013461613 0.0871042 -0.00901774 -0.092119075 -0.05320281 0.16354333 0.09798515
0.03752936 0.030122984 0.16895041 0.0019107681 -0.09663136 -0.08036131 0.058762513 0.07690836
0.02813799 -0.073764116 -0.013088673 0.10948311 -0.04047847 -0.08785249 0.16611286 0.071926296
0.08852023 0.13584784 0.042853154 -0.06373604 0.13976 -0.073752075 0.045515656 0.15210974
0.14057672 -0.08421648 0.092970476 -0.058240343 0.07307754 0.051483076 0.03214682 0.10169023
0.14720541 0.09875689 -0.08676834 0.15700236 0.07344063 0.15773046 0.13698325 0.16465463
-0.02286759 0.11287502 0.11898212 -0.01964364 0.08142611 -0.086711094 -0.00073400687 0.114970475
0.09568629 0.02070995 0.012558819 0.1122987 0.12135407 0.12925556 0.09198099 -0.0024441557
0.108029954 0.113432795 0.14700589 0.13923189 0.083576165 0.052556973 0.0051222933 0.0715494
-0.05823816 0.08166476 0.13115226 0.113878705 -0.010515845 0.17966542 0.050582368 0.034942918
0.041180372 -0.012159982 0.05905956 0.08531325 0.11451845 0.13933194 0.11622158 0.14291547
-0.060199358 0.0033064303 0.06232657 -0.0824697 0.13620174 -0.017388508 0.16613533 -0.08084053
-0.09191038 0.1781766 -0.052856993 0.14888662 0.049125176 0.1278794 0.10157525 -0.046624642
0.13594066 -0.031695712 -0.0029819107 0.12281734 -0.07345137 0.07131002 0.19270232 0.184336
00000000: 70f2 5d3d a1be 46bd 4996 ca3d 6331 60bc
00000010: aeb8 f33d 661e 593b 89a1 603d 32c4 343e
00000020: fe42 273e b5ec d1bc 5dad 083e a361 eb3d
00000030: 99ec 123e 188f 1b3e e0e9 1e3d 1fa2 93bc
00000040: 62e5 b6bd 198e 5c3c b063 b23d 25bf 13bc
00000050: eda8 bcbd 31eb 59bd e777 273e 70ac c83d
00000060: 63b8 193d 7ac4 f63c 5601 2d3e bd72 fa3a
00000070: aae6 c5bd 7894 a4bd f6b0 703d 2182 9d3d
00000080: a481 e63c a411 97bd e071 56bc ae38 e03d
00000090: c1cc 25bd 02ec b3bd 7d19 2a3e 184e 933d
000000a0: 184a b53d b21b 0b3e ca86 2f3d 0a88 82bd
000000b0: 3f1d 0f3e 540b 97bd a06e 3a3d a8c2 1b3e
000000c0: 58f3 0f3e b179 acbd 4e67 be3d 6d8d 6ebd
000000d0: ada9 953d ebdf 523d 62ac 033d f842 d03d
000000e0: 04bd 163e 0d41 ca3d 99b3 b1bd 3ac5 203e
000000f0: 0b68 963d 1884 213e 5645 0c3e 399b 283e
00000100: d054 bbbc 052b e73d e6ac f33d b3eb a0bc
00000110: bbc2 a63d 9695 b1bd 5e6a 40ba a475 eb3d
00000120: 2cf7 c33d eaa7 a93c 81c3 4d3c dcfc e53d
00000130: 7c88 f83d 925b 043e 8760 bc3d 212e 20bb
00000140: cf3e dd3d 744f e83d b688 163e ce92 0e3e
00000150: fb29 ab3d fb45 573d e9d8 a73b 7e88 923d
00000160: 238b 6ebd db3f a73d c74c 063e 3d39 e93d
00000170: a74a 2cbc 36fa 373e 752f 4f3d 4e20 0f3d
00000180: c0ac 283d a93a 47bc 70e8 713d b7b8 ae3d
00000190: a688 ea3d 08ad 0e3e 9405 ee3d 6f58 123e
000001a0: 9a93 76bd b2b0 583b 254a 7f3d e0e5 a8bd
000001b0: 7878 0b3e 5872 8ebc 611f 2a3e b88f a5bd
000001c0: 823b bcbd ed73 363e 9380 58bd bc75 183e
000001d0: 7b37 493d d1f2 023e af06 d03d 7bf9 3ebd
000001e0: 0734 0b3e 5dd3 01bd 296c 43bb a887 fb3d
000001f0: ac6d 96bd fd0a 923d c253 453e 94c2 3c3e

weight f4 [7, 128]
-0.28056166 0.013012437 -0.0050158016 0.0339429 -0.17690377 0.17179573 0.07353813 0.101600245
-0.23921312 0.0016051976 -0.10384641 -0.118396 0.127397 -0.25705492 0.036273967 0.034084328
0.05171475 -0.0036252954 0.017474553 0.25244382 -0.02753332 -0.07273362 0.083577864 -0.19957694
0.21781129 0.1523713 -0.21918109 0.19776112 -0.05749786 -0.015475482 0.23368578 0.20985325
0.15844427 -0.09674303 0.18674605 0.25261933 -0.07578388 -0.08295875 -0.23085497 -0.21837446
-0.18808317 -0.29642954 0.27964532 0.20952821 -0.09530796 -0.0005585406 0.19856651 -0.23445588
-0.22083206 0.07312067 0.183769 0.06812434 0.23163222 0.22852947 0.2534334 0.27875197
0.19856502 0.20897543 0.059787232 -0.08332628 0.21516024 0.02827283 -0.29111126 -0.2235724
0.17685515 -0.035716135 -0.2977286 -0.23761082 0.20014657 0.050651997 -0.14601779 -0.0021555412
0.25292015 0.07855968 0.07292696 -0.24802297 -0.22856976 0.2318666 -0.17545159 0.03268549
-0.27446955 0.14985368 -0.2282857 0.1385575 -0.07702337 -0.09215723 0.25604826 0.2470693
0.07971024 0.23275848 0.20394883 -0.13524492 -0.3022834 -0.19092023 0.06261048 -0.16851304
0.058543365 -0.17324236 0.17923118 0.019807639 0.21455523 0.15814531 0.08353959 0.02759423
-0.072140016 -0.15456045 0.24951437 -0.064107314 0.0933699 0.01682313 -0.26101324 0.0045929844
-0.051617693 -0.057045717 0.007243821 -0.07078584 -0.12750842 -0.12015523 -0.11273619 0.017050797
0.08269504 -0.10578884 -0.19382662 0.09635604 0.016551176 -0.16200735 0.21555175 -0.07783024
0.23831469 -0.025125574 0.058889236 -0.0030431992 -0.16273291 0.1214696 0.1541332 -0.27338368
-0.24220152 -0.093280785 0.2329756 0.2435922 0.172125 -0.1306286 -0.15505506 0.08481371
-0.044343244 -0.27070144 0.16092922 -0.15109135 -0.049364384 0.05084285 -0.2990493 -0.09169403
0.26834095 -0.30141228 -0.0457037 -0.22098699 0.03721421 -0.008698425 0.22691995 0.204674
-0.1724663 -0.0477569 -0.23190434 0.2359439 0.04459727 -0.056548152 0.1563491 0.20184621
-0.099762574 0.25667745 -0.25293517 -0.23833728 0.25523353 0.021598836 0.21722429 -0.23674998
-0.28263164 -0.0033574053 -0.24372175 0.00083643105 -0.2765149 -0.2779327 0.13246313 -0.20199962
0.083223894 0.22635022 -0.070910186 -0.08026395 0.09104399 -0.24908888 0.14861965 -0.2428495
0.16841565 -0.17694074 0.12317671 0.21899195 -0.20722102 -0.0732266 -0.24595661 0.2864944
-0.32523638 0.123578995 -0.27290973 -0.20611559 -0.2054975 0.106611975 0.11092653 0.14730509
0.27309874 -0.27780852 0.05578927 0.15827249 0.1350765 -0.18416402 -0.10894948 0.14047158
0.045914643 0.23233163 -0.1252901 0.22699068 -0.17805508 -0.15283984 0.08011126 -0.026525715
0.18817924 0.25305936 -0.21984209 -0.24135761 -0.21035558 -0.23010284 0.15326004 0.090083934
-0.0910225 0.04924796 -0.21959475 0.06040289 -0.268776 0.025387233 -0.11762232 -0.012305594
0.051622927 0.23446125 0.02057626 -0.10961345 0.18107009 -0.26502207 0.22235511 -0.01519128
0.14302924 0.2439492 -0.16048367 0.19535187 -0.032019984 0.15618819 -0.027504768 0.20898119
00000000: c7a5 8fbe 1e32 553c 985b a4bb b607 0b3d
00000010: 4326 35be 38eb 2f3e 299b 963d ca13 d03d
00000020: 49f4 74be 7e65 d23a 6dad d4bd 9a79 f2bd
00000030: 5c74 023e b49c 83be 0394 143d 029c 0b3d
00000040: d8d2 533d 5d96 6dbb cb26 8f3c 5140 813e
00000050: 8f8d e1bc 5df5 94bd df2a ab3d e65d 4cbe
00000060: ec09 5f3e 3907 1c3e 0271 60be e481 4a3e
00000070: e082 6bbd e08c 7dbc 534b 6f3e c5e3 563e
00000080: 373f 223e 3621 c6bd 5b3a 3f3e 5257 813e
00000090: 9434 9bbd 47e6 a9bd 3f65 6cbe 8e9d 5fbe
000000a0: e098 40be 9dc5 97be ac2d 8f3e 908e 563e
000000b0: d230 c3bd 066b 12ba 0555 4b3e 3415 70be
000000c0: cd21 62be 4ac0 953d f12d 3c3e c684 8b3d
000000d0: ff30 6d3e a103 6a3e 06c2 813e 94b8 8e3e
000000e0: a154 4b3e a8fd 553e 75e3 743d f8a6 aabd
000000f0: f752 5c3e 6c9c e73c 890c 95be 2af0 64be
00000100: 8419 353e 154b 12bd e26f 98be 4050 73be
00000110: 39f3 4c3e 7878 4f3d b085 15be fb43 0dbb
00000120: c07e 813e e6e3 a03d bb5a 953d bcf9 7dbe
00000130: 310e 6abe 706e 6d3e 95a9 33be 38e1 053d
00000140: 4687 8cbe 3e73 193e bac3 69be 04e2 0d3e
00000150: 6ebe 9dbd eebc bcbd c218 833e bcff 7c3e
00000160: 1f3f a33d 3d58 6e3e f6d7 503e a57d 0abe
00000170: e4c4 9abe 9880 43be ec39 803d af8e 2cbe
00000180: 2bcb 6f3d 7266 31be 6188 373e a143 a23c
00000190: 5eb4 5b3e d8f0 213e ce16 ab3d 4b0d e23c
000001a0: 25be 93bd 1845 1ebe b280 7f3e b24a 83bd
000001b0: b838 bf3d a9d0 893c 87a3 85be bf80 963b
000001c0: 136d 53bd c5a8 69bd 935d ed3b 2bf8 90bd
000001d0: 9191 02be f213 f6bd 3be2 e6bd 1dae 8b3c
000001e0: 045c a93d d2a7 d8bd 7c7a 46be 5156 c53d
000001f0: 5596 873c 41e5 25be 99b9 5c3e 7665 9fbd
00000200: c408 743e 26d4 cdbc d735 713d 6970 47bb
00000210: 75a3 26be 0ec5 f83d 18d5 1d3e f2f8 8bbe
00000220: ad03 78be ff09 bfbd 2891 6e3e 3c70 793e
00000230: 8941 303e 81c3 05be c1c6 1ebe cfb2 ad3d
00000240: 43a1 35bd 6199 8abe a1ca 243e b1b7 1abe
00000250: 4f32 4abd 9840 503d fd1c 99be 14ca bbbd
00000260: fc63 893e b652 9abe ce33 3bbd 6a4a 62be
00000270: ed6d 183d d783 0ebc b45d 683e 1096 513e
00000280: 019b 30be bd9c 43bd 5578 6dbe 479b 713e
00000290: a1ab 363d 099f 67bd fa19 203e c6b0 4e3e
000002a0: 5250 ccbd 3a6b 833e b880 81be b00e 74be
000002b0: f8ad 823e 0bf0 b03c 0b70 5e3e 966e 72be
000002c0: 18b5 90be ea07 5cbb 3292 79be f043 5b3a
000002d0: 5c93 8dbe 324d 8ebe 6aa4 073e fdd8 4ebe
000002e0: 4a71 aa3d 5ac8 673e 5c39 91bd 6d61 a4bd
000002f0: 4575 ba3d 2811 7fbe c02f 183e 8aad 78be
00000300: 2775 2c3e f42f 35be 1244 fc3d 6d3f 603e
00000310: bf31 54be d4f7 95bd 0ddc 7bbe 65af 923e
00000320: 6285 a6be fc16 fd3d d3ba 8bbe f70f 53be
00000330: f06d 52be 6157 da3d 732d e33d 25d7 163e
00000340: 99d3 8b3e eb3c 8ebe 4a83 643d 2f12 223e
00000350: 7e51 0a3e 7e95 3cbe e820 dfbd c8d7 0f3e
00000360: fe10 3c3d 58e8 6d3e 0c4c 00be 3f70 683e
00000370: 1254 36be 0c82 1cbe 5f11 a43d 754c d9bc
00000380: 0fb2 403e ff90 813e 491e 61be 7326 77be
00000390: 7467 57be 14a0 6bbe 33f0 1c3e ed7d b83d
000003a0: 016a babd 3bb8 493d 72dd 60be 0569 773d
000003b0: 029d 89be e3f8 cf3c f9e3 f0bd 679d 49bc
000003c0: 9072 533d 9c16 703e 8b8f a83c 047d e0bd
000003d0: 706a 393e f9b0 87be 0fb1 633e d9e4 78bc
000003e0: 4276 123e d2cd 793e d555 24be 520a 483e
000003f0: 6327 03bd ccef 1f3e ae51 e1bc 2aff 553e

bias f4 [7]
-0.060603626 0.08278146 0.046670035 -0.22153883 -0.031307 0.10411061 -0.12501831
00000000: 823b 78bd 5389 a93d 1429 3f3d 13db 62be
00000010: c53b 00bd f237 d53d cd04 00be
