classification/checkpoints/cora_graphSAGE_pool.pt (torch, 398528 bytes, 6 tensors)

weight f4 [128, 500]
0.23402019 0.1650324 0.17767335 0.18878183 0.20249717 0.21354234 0.22302337 0.20069665
0.17020243 0.21022168 0.1553333 0.17400052 0.21546559 0.17994495 0.20725317 0.15329309
0.16975944 0.13330068 0.19447121 0.16911203 0.14953232 0.15795927 0.1781649 0.17939876
0.16385688 0.20010442 0.15643477 0.13858892 0.20651758 0.20347698 0.13377413 0.16783705
0.19771565 0.22689542 0.25721788 0.1689513 0.1459457 0.15399237 0.20208594 0.15843505
0.1469578 0.18788053 0.16289267 0.20905201 0.13060616 0.14772238 0.1564427 0.16329414
0.17643988 0.20762792 0.1639246 0.21921247 0.17903571 0.20897579 0.18203628 0.18323782
0.13923624 0.17820466 0.20046021 0.18858857 0.1594395 0.140257 0.1715448 0.17941462
0.1517211 0.22187479 0.14835176 0.12845136 0.19383256 0.12339294 0.19068941 0.18115546
0.18578516 0.20059372 0.17047708 0.18649498 0.21514101 0.19367643 0.172652 0.1536655
0.14147313 0.21806437 0.21999513 0.2044049 0.16057314 0.16053553 0.15179007 0.16510838
0.18135776 0.13609701 0.12686479 0.14261235 0.16355473 0.22125773 0.1854872 0.15502386
0.19950697 0.21710528 0.17588876 0.20418149 0.15729596 0.18915227 0.12946256 0.13755375
0.20676558 0.14687134 0.20572126 0.2140086 0.13634545 0.13330773 0.16597399 0.14846048
0.13651524 0.19803616 0.16589095 0.15705845 0.14454241 0.19262439 0.13960077 0.22087117
0.21088238 0.19206235 0.17766777 0.13480791 0.16712183 0.1402843 0.1748118 0.14948454
0.12631685 0.20212659 0.14939542 0.19466434 0.19340903 0.16713433 0.15173832 0.1308312
0.16044423 0.13121442 0.20426887 0.1926861 0.13648088 0.1802201 0.13742086 0.15414524
0.12761429 0.2047906 0.1641357 0.21596374 0.184868 0.14522755 0.18747607 0.18429534
0.1380402 0.20482706 0.21131298 0.1353046 0.16934204 0.1951471 0.13831104 0.1983751
0.1736268 0.13201271 0.21665338 0.19367023 0.19192544 0.14387318 0.13892265 0.19836621
0.20939688 0.21310821 0.16888249 0.20826139 0.16651002 0.18119515 0.20142794 0.161755
0.18157765 0.1803699 0.21741822 0.18854827 0.16306186 0.2073047 0.17859443 0.25019172
0.20424725 0.1426084 0.15252478 0.1908644 0.16862017 0.123882525 0.18587351 0.13687862
0.21003097 0.19019392 0.18830535 0.14256027 0.17600171 0.17641331 0.18005925 0.19240685
0.19176982 0.20331165 0.14921704 0.12302053 0.23095301 0.14838159 0.12770541 0.18724751
0.20420209 0.21312653 0.19910073 0.15586585 0.16562806 0.15362586 0.13328002 0.18776563
0.14087884 0.13520159 0.14677963 0.17154875 0.18349601 0.11401804 0.16580467 0.15568005
0.16085744 0.19674216 0.17909017 0.12456314 0.15354726 0.19376384 0.21771163 0.16154243
0.21749245 0.14070183 0.19372109 0.20472687 0.18147641 0.14931946 0.21803293 0.21281336
0.15111108 0.1545344 0.15917133 0.20026214 0.21870813 0.14337564 0.18893223 0.1580106
0.20820881 0.14606318 0.13299118 0.18632588 0.1426454 0.1554528 0.16046277 0.20101611
00000000: fda2 6f3e 41fe 283e 01f0 353e 0650 413e
00000010: 6b5b 4f3e d8aa 5a3e 3d60 643e 6c83 4d3e
00000020: 8c49 2e3e 5a44 573e b10f 1f3e 312d 323e
00000030: 03a3 5c3e 7d43 383e 2d3a 543e ddf8 1c3e
00000040: 6bd5 2d3e f97f 083e 7623 473e b42b 2d3e
00000050: 001f 193e 13c0 213e dc70 363e 4fb4 373e
00000060: 19ca 273e 2ce8 4c3e 7030 203e 41ea 0d3e
00000070: 5879 533e 455c 503e 16fc 083e 7add 2b3e
00000080: f975 4a3e 4657 683e 10b2 833e 9201 2d3e
00000090: ca72 153e 2db0 1d3e 9eef 4e3e cc3c 223e
000000a0: 1b7c 163e c163 403e 56cd 263e bb11 563e
000000b0: 9fbd 053e 8944 173e 8432 203e 9436 273e
000000c0: a8ac 343e 6a9c 543e dadb 273e 3c79 603e
000000d0: 2355 373e c0fd 553e b867 3a3e b2a2 3b3e
000000e0: f293 0e3e 487b 363e 7145 4d3e 5d1d 413e
000000f0: 1c44 233e 889f 0f3e 71a9 2f3e 77b8 373e
00000100: c75c 1b3e 2533 633e 86e9 173e c188 033e
00000110: 0b7c 463e 70b5 fc3d 1644 433e d180 393e
00000120: 773e 3e3e 7168 4d3e 8b91 2e3e 8af8 3e3e
00000130: ed4d 5c3e 1d53 463e b0cb 303e 7d5a 1d3e
00000140: 55de 103e 444c 5f3e 6746 613e 854f 513e
00000150: 496d 243e 6d63 243e db6e 1b3e 2c12 293e
00000160: d9b5 393e 045d 0b3e d8e8 013e f908 123e
00000170: e47a 273e 6391 623e 5bf0 3d3e 93be 1e3e
00000180: 8e4b 4c3e d950 5e3e 2f1c 343e f414 513e
00000190: 3112 213e 22b1 413e d591 043e e4da 0c3e
000001a0: 5bba 533e 7165 163e 98a8 523e 1225 5b3e
000001b0: 249e 0b3e d281 083e 16f5 293e 0606 183e
000001c0: a7ca 0b3e fec9 4a3e 51df 293e eed3 203e
000001d0: ed02 143e 543f 453e 81f3 0e3e 0d2c 623e
000001e0: 8df1 573e feab 443e 8aee 353e 160b 0a3e
000001f0: fc21 2b3e b0a6 0f3e dd01 333e 7a12 193e
00000200: 3459 013e 46fa 4e3e 1dfb 183e 1756 473e
00000210: 040d 463e 4325 2b3e 4a61 1b3e 9df8 053e
00000220: 7e4b 243e 135d 063e dc2b 513e 814f 453e
00000230: a5c1 0b3e 9e8b 383e 0eb8 0c3e 40d8 1d3e
00000240: 52ad 023e a1b4 513e 3013 283e 9925 5d3e
00000250: 094e 3d3e 88b6 143e baf9 3f3e ebb7 3c3e
00000260: 695a 0d3e 2fbe 513e 6e62 583e 4a8d 0a3e
00000270: 0068 2d3e a4d4 473e 69a1 0d3e d822 4b3e
00000280: 39cb 313e 572e 073e 62da 5d3e 7d51 463e
00000290: 1a88 443e 7e53 133e bd41 0e3e 8320 4b3e
000002a0: 236c 563e 0a39 5a3e 88ef 2c3e 7942 553e
000002b0: 9a81 2a3e 398b 393e 2043 4e3e 1aa3 253e
000002c0: 7eef 393e e3b2 383e e2a2 5e3e cc12 413e
000002d0: b0f9 263e af47 543e 75e1 363e 2119 803e
000002e0: 3126 513e f007 123e 752f 1c3e f571 433e
000002f0: c4aa 2c3e 1fb6 fd3d a055 3e3e e929 0c3e
00000300: 5c12 573e 32c2 423e 1ed3 403e 52fb 113e
00000310: cb39 343e b1a5 343e 7461 383e 4d06 453e
00000320: 4f5f 443e ee30 503e 5acc 183e 30f2 fb3d
00000330: f27e 6c3e 58f1 173e 35c5 023e d0bd 3f3e
00000340: 5a1a 513e d73d 5a3e 10e1 4b3e 4c9b 1f3e
00000350: 679a 293e 1950 1d3e 8f7a 083e a245 403e
00000360: 8b42 103e 4972 0a3e 664d 163e 7aaa 2f3e
00000370: 61e6 3b3e 4a82 e93d b3c8 293e 976a 1f3e
00000380: d0b7 243e c776 493e 6a63 373e f61a ff3d
00000390: 7e3b 1d3e 076a 463e ccef 5e3e 616b 253e
000003a0: 57b6 5e3e 2414 103e d25e 463e eca3 513e
000003b0: f4d4 393e 33e7 183e 0644 5f3e bfeb 593e
000003c0: ddbc 1a3e 443e 1e3e cffd 223e 8511 4d3e
000003d0: 06f5 5f3e 10d1 123e 7377 413e 88cd 213e
000003e0: b134 553e 9691 153e d72e 083e 36cc 3e3e
000003f0: a311 123e 052f 1f3e 5a50 243e 2bd7 4d3e

bias f4 [128]
0.17910057 -0.044518057 0.21939212 -0.044106845 -0.07348677 0.18381332 0.17100528 -0.028658893
0.19013457 0.21460795 0.23398398 -0.036739267 -0.026856344 0.18839912 0.16828373 0.18269324
-0.052980036 0.22102521 0.23298968 -0.053103235 0.11365475 -0.08270515 -0.051235177 0.16320512
-0.01927448 0.24097982 -0.055402987 -0.07131667 -0.04241029 -0.044240147 0.16431853 -0.0446192
0.15254377 -0.04414044 0.22874044 0.2171129 -0.029027492 0.19187343 0.18219 0.1797958
0.061062563 -0.024147838 0.18494612 -0.039375957 0.047688715 -0.029521849 -0.029436897 -0.042617578
0.22642814 -0.080669746 -0.05981996 -0.040351734 0.049470853 0.08517063 0.22006421 0.086256765
0.047968686 -0.033304118 0.17087139 -0.03081988 -0.023954347 0.13678056 0.112586 -0.030699309
0.11623049 0.2299142 0.086588174 -0.047392137 -0.05647513 0.2370806 0.21476495 -0.037964314
0.21901767 -0.06584636 0.14879005 -0.03214863 0.18457334 -0.035186764 0.14042577 -0.046542913
-0.017768303 0.21111228 0.11535144 -0.07392783 -0.037018504 0.18926181 -0.018050896 -0.03360217
-0.03568378 0.20284763 -0.073728375 -0.022764696 -0.057488862 0.22323914 -0.08957777 0.05041239
-0.047758345 0.15386602 -0.025777671 0.15782969 -0.027610006 -0.044170737 0.21598287 0.18320778
0.17135951 0.24430872 -0.032812513 -0.042645525 -0.058998328 -0.07821669 -0.02955838 -0.03249708
0.07873656 0.22068182 0.2306964 -0.040171534 -0.076380335 -0.0606902 0.21727736 0.14860293
-0.03898462 0.11354976 0.16337326 -0.02357119 0.21051729 -0.037689235 0.24143815 0.20515156
00000000: 2466 373e 9158 36bd 54a8 603e 61a9 34bd
00000010: 3b80 96bd 8f39 3c3e 021c 2f3e 0ec6 eabc
00000020: a3b2 423e 30c2 5b3e 7f99 6f3e ea7b 16bd
00000030: d601 dcbc b3eb 403e 9252 2c3e f013 3b3e
00000040: 9801 59bd 6f54 623e d994 6e3e c782 59bd
00000050: d2c3 e83d 5161 a9bd fadb 51bd 3e1f 273e
00000060: 84e5 9dbc 6ac3 763e 3eee 62bd 790e 92bd
00000070: 6ab6 2dbd 2835 35bd 1e43 283e 9fc2 36bd
00000080: 6f34 1c3e 9bcc 34bd ef3a 6a3e d852 5e3e
00000090: 10cb edbc 787a 443e 0490 3a3e 641c 383e
000000a0: bd1c 7a3d b0d1 c5bc 8462 3d3e af48 21bd
000000b0: 3e55 433d ced7 f1bc a625 f1bc c58f 2ebd
000000c0: c7dc 673e 2e36 a5bd c605 75bd dc47 25bd
000000d0: f3a1 4a3d f06d ae3d 8358 613e 63a7 b03d
000000e0: d07a 443d e669 08bd e9f8 2e3e f979 fcbc
000000f0: e83b c4bc 3410 0c3e 7d93 e63d 1e7d fbbc
00000100: 400a ee3d a16e 6b3e 2455 b13d 421e 42bd
00000110: 7752 67bd 42c5 723e 58eb 5b3e 7880 1bbd
00000120: 2b46 603e 75da 86bd 6b5c 183e 48ae 03bd
00000130: cb00 3d3e ff1f 10bd c6cb 0f3e c8a3 3ebd
00000140: d58e 91bc d12d 583e 603d ec3d 7967 97bd
00000150: b7a0 17bd d9cd 413e 79df 93bc 6ea2 09bd
00000160: 2829 12bd 4ab7 4f3e e7fe 96bd 077d babc
00000170: 7179 6bbd cd98 643e 8d74 b7bd 397d 4e3d
00000180: 419e 43bd 0e8f 1d3e b22b d3bc 1b9e 213e
00000190: 612e e2bc 60ec 34bd 9d2a 5d3e d29a 3b3e
000001a0: de78 2f3e 112c 7a3e 6a66 06bd 13ad 2ebd
000001b0: 3ba8 71bd 1230 a0bd 6a24 f2bc a81b 05bd
000001c0: a240 a13d 6afa 613e ad3b 6c3e e88a 24bd
000001d0: 4b6d 9cbd 4a96 78bd f57d 5e3e 5e2b 183e
000001e0: 56ae 1fbd c78c e83d 524b 273e 5e18 c1bc
000001f0: d891 573e 0760 1abd 903b 773e 4013 523e

weight f4 [128, 128]
0.0075281872 -0.05927896 -0.10682044 -0.029711157 0.02854897 0.011208152 0.18855993 -0.04206441
-0.08473827 0.12567149 0.07179784 0.002008274 -0.060881563 0.12457586 0.12258572 0.15799308
0.06422246 0.106709085 -0.014633941 -0.04408601 0.06415792 -0.021291321 -0.13488655 0.16814072
0.018747034 -0.14701082 0.116268955 -0.01086976 -0.020211436 -0.058151595 0.054246306 0.018266411
0.07241535 -0.07361637 0.14930727 -0.103418 -0.081181556 0.10995696 -0.0647341 0.041019913
-0.31370735 0.08691379 -0.07125273 -0.044475105 -0.517488 -0.116657466 0.07578625 0.052067246
-0.12973337 0.09800281 -0.03701272 0.06000353 -0.2438284 0.0331296 -0.018545186 -0.016445115
-0.24394855 -0.05191439 0.029607339 -0.032194175 0.038145784 -0.0030958906 -0.01163522 -0.009193861
-0.056127306 0.031218493 -0.06861296 -0.1038422 -0.008203129 0.05673042 0.09944263 0.15531915
0.043223273 0.1387003 -0.12196851 -0.07357541 -0.08924686 -0.00029462753 0.04928365 -0.11695534
0.02766713 -0.011915263 0.14029138 -0.12291536 0.00535069 -0.13367182 -0.111963436 0.016529372
-0.041654162 0.033363126 0.013983311 0.0350293 -0.04128777 -0.096858665 -0.15146069 -0.29848045
-0.048018016 -0.06441151 0.07527041 0.018469404 -0.008489513 -0.061608735 -0.051451184 -0.016805893
-0.030694094 -0.07064482 0.02316945 0.046082184 0.010377815 0.044316877 -0.06386074 -0.11221704
-0.061593976 -0.10551733 -0.10469699 0.021439575 0.07562448 -0.01968172 0.006810077 0.16294678
-0.06617007 -0.049240377 0.021369452 0.0745033 -0.06893548 0.3769339 -0.103428945 0.11853453
0.07228118 0.074291795 -0.053913236 0.06887439 -0.025131749 0.065970674 -0.03234955 0.045549415
0.0035585286 -0.025285961 0.036945634 -0.089912124 -0.07500277 0.06416359 0.034737144 -0.093272194
0.07423088 -0.059433546 0.07922232 0.002837716 0.1022655 0.005844473 -0.026248531 0.06372653
-0.04903732 -0.010500666 0.074351475 -0.07909504 0.08176606 0.084799595 0.0545553 -0.035416745
0.004210584 -0.048993953 -0.003251174 -0.0717263 -0.12867883 0.048670918 0.101358056 -0.045358796
-0.15097228 -0.06152385 -0.056290936 0.0025650782 -0.114064984 0.009615318 0.035617817 0.051206682
-0.10309258 0.1410606 -0.077101976 0.06846635 -0.081723385 -0.08626312 -0.095260285 -0.08375625
-0.026901087 -0.06493455 0.0070287175 -0.03852444 0.05771724 -0.09909175 -0.015029098 -0.023625469
-0.111235954 0.0870836 -0.09994063 -0.05193054 -0.11044322 0.028833108 -0.11481329 0.3161955
-0.07601124 0.08899185 -0.04897301 0.07227134 0.07592042 -0.05783653 -0.07164503 0.017370034
0.07938717 -0.07157615 0.10287423 0.025404762 0.037966438 -0.113814555 -0.046142604 -0.031808354
-0.037577443 0.020735597 0.13525116 0.06276951 -0.0026020007 0.063015565 0.1145624 -0.18904091
-0.11452017 -0.03860782 0.03207121 -0.0015445199 0.05705563 0.031112919 -0.013466287 -0.05189319
0.074508525 0.030154536 0.06799669 0.06297009 -0.059333522 0.030647282 0.011997859 0.014855462
0.02431932 0.03135715 0.09024866 -0.07191543 0.048198555 -0.02644829 0.040433407 -0.07211962
0.06531788 0.006184326 -0.041095268 0.07571487 0.10991058 0.41539177 0.013022269 0.117321916
00000000: 03af f63b 7fce 72bd adc4 dabd d064 f3bc
00000010: 88df e93c 66a2 373c db15 413e bb4b 2cbd
00000020: 428b adbd 07b0 003e bf0a 933d 3f9d 033b
00000030: f25e 79bd a121 ff3d 390e fb3d f0c8 213e
00000040: 1187 833d 4b8a da3d 33c3 6fbc 8893 34bd
00000050: 3a65 833d 236b aebc b31f 0abe 152d 2c3e
00000060: 6193 993c 018a 16be 6b1e ee3d 1417 32bc
00000070: 7492 a5bc 5e30 6ebd 6031 5e3d 71a3 953c
00000080: 804e 943d 2ec4 96bd 01e4 183e d1cc d3bd
00000090: 8442 a6bd 1d31 e13d 5093 84bd 7f04 283d
000000a0: 409e a0be dbff b13d f4ec 91bd 872b 36bd
000000b0: 187a 04bf 1cea eebd d235 9b3d 7744 553d
000000c0: d3d8 04be b2b5 c83d a69a 17bd 43c6 753d
000000d0: 27ae 79be e7b2 073d 13ec 97bc e8b7 86bc
000000e0: a6cd 79be 2fa4 54bd 178b f23c 0ade 03bd
000000f0: c13e 1c3d 6de4 4abb a6a1 3ebc d9a1 16bc
00000100: bfe5 65bd edbd ff3c f484 8cbd 38ab d4bd
00000110: 6b66 06bc 285e 683d 94a8 cb3d fc0b 1f3e
00000120: e30a 313d 7407 0e3e a0ca f9bd b4ae 96bd
00000130: 0fc7 b6bd 3d78 9ab9 a7dd 493d 4886 efbd
00000140: 2da6 e23c 3c38 43bc 8ba8 0f3e 0cbb fbbd
00000150: d754 af3b 44e1 08be 164d e5bd 9b68 873c
00000160: 8e9d 2abd c6a7 083d 421a 653c e27a 0f3d
00000170: 5d1d 29bd d65d c6bd 8318 1bbe 6ed2 98be
00000180: 8aae 44bd 2fea 83bd 5f27 9a3d 264d 973c
00000190: 9917 0bbc 7159 7cbd 7abe 52bd 83ac 89bc
000001a0: 2e72 fbbc 3bae 90bd dccd bd3c acc0 3c3d
000001b0: b607 2a3c 9d85 353d 6bc9 82bd 0cd2 e5bd
000001c0: f749 7cbd 7819 d8bd 606b d6bd 0ca2 af3c
000001d0: 02e1 9a3d 8f3b a1bc 1127 df3b 85db 263e
000001e0: 2c84 87bd 47b0 49bd fd0e af3c 3095 983d
000001f0: 0c2e 8dbd 7bfd c03e 8ed2 d3bd 3bc2 f23d
00000200: 2808 943d 4c26 983d 20d4 5cbd 040e 8d3d
00000210: 19e1 cdbc a21b 873d f680 04bd 0692 3a3d
00000220: 3436 693b 8124 cfbc 4e54 173d d923 b8bd
00000230: 0d9b 99bd 3368 833d 8948 0e3d 7e05 bfbd
00000240: 5c06 983d 9770 73bd 503f a23d f9f8 393b
00000250: 9370 d13d fe82 bf3b 2907 d7bc 0e83 823d
00000260: 5bdb 48bd fc0a 2cbc 9645 983d 95fc a1bd
00000270: f774 a73d 69ab ad3d 6175 5f3d 2611 11bd
00000280: f0f8 893b e2ad 48bd a611 55bb 3de5 92bd
00000290: 62c4 03be 285b 473d d094 cf3d 25ca 39bd
000002a0: 7a98 1abe 6f00 7cbd 5391 66bd df1a 283b
000002b0: e79a e9bd 9189 1d3c fde3 113d 19be 513d
000002c0: 3422 d3bd 3172 103e a4e7 9dbd 1638 8c3d
000002d0: 975e a7bd b8aa b0bd d317 c3bd 6688 abbd
000002e0: ab5f dcbc 68fc 84bd 2851 e63b cecb 1dbd
000002f0: ea68 6c3d 9ef0 cabd 9b3c 76bc 338a c1bc
00000300: adcf e3bd e358 b23d acad ccbd 1eb5 54bd
00000310: 0e30 e2bd 6933 ec3c 3b23 ebbd 60e4 a13e
00000320: c8ab 9bbd 5c41 b63d ec97 48bd ff02 943d
00000330: 2a7c 9b3d ffe5 6cbd a1ba 92bd 9a4b 8e3c
00000340: be95 a23d 8496 92bd b9af d23d a61d d03c
00000350: b282 1b3d 9b17 e9bd 0700 3dbd 7a49 02bd
00000360: ceea 19bd b3dd a93c 487f 0a3e 4d8d 803d
00000370: 5486 2abb 4e0e 813d b19f ea3d f193 41be
00000380: 8d89 eabd 3c23 1ebd 1a5d 033d 7d71 caba
00000390: 2ab3 693d 85e0 fe3c b4a1 5cbc f48d 54bd
000003a0: ed97 983d a506 f73c d941 8b3d 76f6 803d
000003b0: b507 73bd 0210 fb3c ab92 443c 5364 733c
000003c0: 5039 c73c 5b70 003d 4ad4 b83d 6648 93bd
000003d0: d96b 453d 16aa d8bc 809d 253d 74b3 93bd
000003e0: 61c5 853d e3a5 ca3b 8353 28bd 6610 9b3d
000003f0: cc18 e13d 3bae d43e 5b5b 553c 7946 f03d

bias f4 [128]
-0.0014886578 -0.007105372 -0.021288892 0.029248526 0.0026436378 0.01126131 0.021350108 -0.017542375
-0.022580002 -0.032688692 -0.011868819 -0.011546604 0.02487611 0.041874617 -0.04387624 -0.05589998
-0.014278231 0.02750858 -0.01583338 -0.0207751 0.035642363 0.0034982027 0.022980833 0.03491347
0.01866621 0.013075874 0.016830256 0.10139274 0.00011708881 -0.019775558 0.004570915 -0.006096822
0.023528865 0.038961235 -0.023862658 0.019101933 -0.02798012 -0.010337154 0.0047901715 0.013096997
-0.0039245747 -0.013281927 -0.03793385 -0.046708077 -0.04106538 0.021986505 -0.018544756 -0.03231371
0.015696913 0.030496968 0.017040022 0.039747696 0.0022916934 0.030818336 0.012524169 -0.017230736
0.018828923 -0.009324013 0.010142336 0.025573703 -0.038187932 0.023757657 0.014609066 0.032704424
0.012173367 0.02106467 -0.01625905 0.044498295 -0.0037062806 0.012816907 -0.021523368 0.008618272
-0.00918827 -0.04022209 -0.0043066484 0.03444429 -0.015446633 -0.029827781 0.0070295227 -0.011465825
0.0132941855 0.020141812 -0.028054662 0.030640652 0.03757614 0.01236568 -0.010979748 0.024696209
-0.0020724218 0.0364141 -0.012628851 0.005905914 0.019985795 0.0023860938 -0.0053713624 -0.0021995374
0.014381531 -0.008007721 0.03259351 -0.022740602 -0.002268104 -0.0023851139 0.0031213462 -0.00800106
0.024653953 0.024813462 0.025871705 -0.03844965 0.011488269 0.030939948 0.024980444 0.00880437
0.006489075 -0.025824636 -0.008178038 0.020145029 0.008403478 -0.006285835 0.027072594 0.012567926
-0.0011222183 0.00849037 0.019280707 0.041666877 0.047115307 0.010988718 0.013269181 -0.026824253
00000000: 111f c3ba 2ed4 e8bb 0b66 aebc 9b9a ef3c
00000010: e240 2d3b 5c81 383c 6ce6 ae3c 07b5 8fbc
00000020: b2f9 b8bc 94e4 05bd 6f75 42bc f82d 3dbc
00000030: fcc8 cb3c b884 2b3d 92b7 33bd 61f7 64bd
00000040: 3eef 69bc ac59 e13c 01b5 81bc 8b30 aabc
00000050: bafd 113d 1a42 653b 4d42 bc3c 6d01 0f3d
00000060: e1e9 983c 313c 563c 9bdf 893c ffa6 cf3d
00000070: 948d f538 5a00 a2bc 9dc7 953b dac7 c7bb
00000080: 9bbf c03c d195 1f3d 9f7b c3bc a87b 9c3c
00000090: 9136 e5bc 2b5d 29bc dff6 9c3b c994 563c
000000a0: b899 80bb 719c 59bc 8660 1bbd f850 3fbd
000000b0: 2c34 28bd 0b1d b43c 2ceb 97bc 615b 04bd
000000c0: d096 803c c7d4 f93c 8497 8b3c 7bce 223d
000000d0: 3c30 163b bc76 fc3c 2c32 4d3c 7927 8dbc
000000e0: 1d3f 9a3c bfc3 18bc 0a2c 263c f17f d13c
000000f0: f36a 1cbd 6b9f c23c dd5a 6f3c 13f5 053d
00000100: cd72 473c d18f ac3c b331 85bc d843 363d
00000110: 12e5 72bb 01fe 513c c651 b0bc a733 0d3c
00000120: 668a 16bc ebbf 24bd c91e 8dbb 7515 0d3d
00000130: e013 7dbc 6459 f4bc e957 e63b 28db 3bbc
00000140: dbcf 593c 7100 a53c e4d2 e5bc 1b02 fb3c
00000150: 70e9 193d 6c99 4a3c 67e4 33bc b44f ca3c
00000160: 78d1 07bb f426 153d 3ee9 4ebc 6686 c13b
00000170: 40b9 a33c 0360 1c3b 4102 b0bb 1d26 10bb
00000180: 83a0 6b3c d132 03bc c680 053d 804a babc
00000190: 79a4 14bb 924f 1cbb 808f 4c3b e116 03bc
000001a0: 16f7 c93c 9a45 cb3c e6f0 d33c 617d 1dbd
000001b0: 4b39 3c3c c675 fd3c caa3 cc3c 3440 103c
000001c0: 4ea2 d43b 308e d3bc 2dfd 05bc 3007 a53c
000001d0: beae 093c 68f9 cdbb 58c7 dd3c b4e9 4d3c
000001e0: 6617 93ba 311b 0b3c 93f2 9d3c e3aa 2a3d
000001f0: fbfb 403d 060a 343c fb66 593c 89be dbbc

weight f4 [128, 128]
-0.20275389 0.045527656 -0.12979206 0.08823996 0.02515915 -0.17366447 -0.25118586 -0.051545206
-0.14512771 -0.2254136 -0.15125956 -0.09555559 -0.088159606 -0.11750166 -0.24181512 -0.20429093
-0.06937844 -0.11315973 -0.17924657 -0.0064816205 -0.120065704 -0.05697159 0.0030986168 -0.18830465
0.0023268643 -0.1125509 -0.09844767 -0.054908596 0.06732021 -0.05772038 -0.28075957 0.023113564
-0.14780955 0.0044052713 -0.16737933 -0.2141319 0.003959835 -0.28234026 -0.21250938 -0.22758162
-0.169997 -0.03697755 -0.25038534 0.0689031 -0.05529757 -0.08858224 0.039221097 -0.046009522
-0.2815878 -0.10255358 -0.031281717 0.009576586 -0.15452361 -0.21493186 -0.12342691 -0.23233338
-0.18391609 -0.02996822 -0.116801314 0.055254485 0.04620131 -0.28305155 -0.23476343 0.08042576
-0.25169605 -0.26969555 -0.13590865 -0.06219723 -0.06909798 -0.26088658 -0.22890244 -0.048843715
-0.21899393 -0.042771265 -0.26164305 -0.0051484695 -0.121358015 -0.05656189 -0.23237674 -0.037286565
0.01880039 -0.15250966 -0.2587376 -0.121842444 -0.07688813 -0.17355953 -0.13168032 -0.004020588
0.06775657 -0.12894416 -0.06437415 -0.06763951 -0.109918155 -0.14287631 0.01081359 -0.21427391
-0.003934541 -0.106770806 0.054436646 -0.19850305 0.059804764 0.07577029 -0.2758113 -0.18309094
-0.17948365 -0.20371592 -0.01829485 -0.030624753 -0.032890603 0.053506523 0.0849985 -0.011365433
-0.22264268 -0.24365574 -0.21507204 -0.026401008 0.056147564 0.019429883 -0.11210254 -0.12901413
-0.016267398 -0.14646563 -0.24229285 0.01638169 -0.20819499 -0.043480877 -0.18424854 -0.18533157
-0.270981 -0.0748541 -0.18808396 -0.072629616 -0.094497055 -0.27018747 -0.118100025 0.06483181
-0.2196358 -0.21193604 -0.102646336 -0.10589751 0.031373482 -0.19173236 -0.22572754 -0.16873339
-0.15049128 -0.22755727 -0.18749954 -0.012643386 -0.23881495 0.028731214 -0.120745525 -0.16319011
-0.0048862947 -0.25887415 -0.04124403 -0.0053360364 -0.052135155 0.0658825 -0.19147037 -0.08100187
-0.09749135 0.016600532 -0.20638667 -0.20285656 -0.022188354 -0.09911154 -0.18964092 -0.26197752
-0.10451566 -0.038561024 -0.25984824 0.041939802 -0.11071132 -0.061085474 -0.019205634 -0.00571113
-0.26662922 -0.094601534 -0.10279235 -0.0768268 -0.24053608 -0.16933922 -0.2046384 -0.10654969
-0.12205177 -0.03469717 -0.2093183 0.006366745 0.06754893 -0.19567046 -0.23031716 0.016369773
-0.15554908 -0.18350998 -0.12470825 0.011410307 -0.12980762 -0.26110497 -0.15723902 0.26387778
-0.2405047 -0.0042319233 -0.24327187 0.07255739 -0.1980407 0.08066452 -0.21680507 -0.14716974
0.034341693 -0.2634253 -0.19095868 0.01145389 -0.08779816 -0.19215035 -0.10439474 -0.010619098
-0.02679295 -0.26208228 -0.016107969 0.08048282 -0.07647311 -0.23377416 -0.04357021 -0.12897713
-0.04209879 -0.23612487 0.056949716 -0.27801967 -0.040278308 -0.0018473596 -0.22409837 -0.16580273
-0.15758863 -0.21546666 -0.014105075 -0.025065195 -0.0057475152 -0.04915888 -0.029253073 -0.08951779
-0.15610006 -0.12385385 -0.16336064 -0.056660485 0.05034645 -0.09815146 -0.20718743 -0.228153
0.04981078 -0.13594256 -0.26071712 0.06415707 -0.22421445 0.27955562 -0.1465478 -0.19721743
00000000: b79e 4fbe 357b 3a3d 36e8 04be 27b7 b43d
00000010: 901a ce3c 19d5 31be 6f9b 80be 1121 53bd
00000020: 5c9c 14be d3d2 66be c9e3 1abe a6b2 c3bd
00000030: 068d b4bd b6a4 f0bd 629e 77be a431 51be
00000040: 4916 8ebd 4ac0 e7bd 6a8c 37be c663 d4bb
00000050: 02e5 f5bd 0b5b 69bd 2a12 4b3b efd2 40be
00000060: 4e7e 183b 1681 e6bd ef9e c9bd d6e7 60bd
00000070: 2edf 893d 356c 6cbd b8bf 8fbe a858 bd3c
00000080: 635b 17be 185a 903b 7d65 2bbe 6545 5bbe
00000090: 81c1 813b e78e 90be 0f9c 59be 280b 69be
000000a0: b213 2ebe c575 17bd 8232 80be 121d 8d3d
000000b0: b47f 62bd 9b6a b5bd 4da6 203d 7b74 3cbd
000000c0: 472c 90be 9d07 d2bd 4221 00bd 1de7 1c3c
000000d0: 703b 1ebe 1917 5cbe 3fc7 fcbd cde8 6dbe
000000e0: 8054 3cbe ea7f f5bc 8735 efbd 8752 623d
000000f0: 963d 3d3d 22ec 90be d365 70be 43b6 a43d
00000100: 4ede 80be 8915 8abe a32b 0bbe 86c2 7ebd
00000110: 3e83 8dbd ed92 85be 6765 6abe 5910 48bd
00000120: f23f 60be ec30 2fbd 14f6 85be 7eb4 a8bb
00000130: 8d8a f8bd 71ad 67bd 2bf4 6dbe ccb9 18bd
00000140: 4703 9a3c 7e2b 1cbe 4179 84be 8888 f9bd
00000150: 8677 9dbd 97b9 31be 35d7 06be 23bf 83bb
00000160: f5c3 8a3d f009 04be 98d6 83bd 9586 8abd
00000170: c51c e1bd 2b4e 12be 7c2b 313c 9f6a 5bbe
00000180: 52ed 80bb a7aa dabd f6f8 5e3d 6244 4bbe
00000190: d7f5 743d 742d 9b3d 2437 8dbe 317c 3bbe
000001a0: 90ca 37be e89a 50be 15df 95bc c3e0 fabc
000001b0: 4cb8 06bd a829 5b3d b213 ae3d 1536 3abc
000001c0: 71fc 63be e480 79be d83b 5cbe ed46 d8bc
000001d0: fdfa 653d 6b2b 9f3c 0496 e5bd 481c 04be
000001e0: 3543 85bc 16fb 15be 9e1b 78be e532 863c
000001f0: 1131 55be 0119 32bd a6ab 3cbe 8fc7 3dbe
00000200: 06be 8abe 1b4d 99bd 1599 40be d6be 94bd
00000210: ac87 c1bd 0356 8abe 6dde f1bd 8ac6 843d
00000220: 35e8 60be c305 59be 3e38 d2bd cbe0 d8bd
00000230: 7b81 003d 7d55 44be 1f25 67be 72c8 2cbe
00000240: 631a 1abe c604 69be e1ff 3fbe 3426 4fbc
00000250: e88b 74be b95d eb3c 6e49 f7bd 4f1b 27be
00000260: 361d a0bb 278b 84be 80ef 28bd ebd9 aebb
00000270: ac8b 55bd 67ed 863d cf10 44be 4fe4 a5bd
00000280: 8ba9 c7bd d7fd 873c 0757 53be a1b9 4fbe
00000290: 5ac4 b5bc fefa cabd 3b31 42be eb21 86be
000002a0: 4e0c d6bd 2af2 1dbd d40a 85be 12c9 2b3d
000002b0: 9ebc e2bd c334 7abd 2255 9dbc 6e24 bbbb
000002c0: a083 88be 73be c1bd cc84 d2bd 5f57 9dbd
000002d0: 174f 76be 4367 2dbe bb8c 51be b936 dabd
000002e0: 47f6 f9bd 9f1e 0ebd 8957 56be 21a0 d03b
000002f0: 1857 8a3d d65d 48be 43d8 6bbe e719 863c
00000300: 4248 1fbe 0aea 3bbe 0a67 ffbd 4cf2 3a3c
00000310: 4aec 04be 8daf 85be 4403 21be fd1a 873e
00000320: dd46 76be f2ab 8abb 431c 79be f898 943d
00000330: 2ecb 4abe 7133 a53d 2602 5ebe aab3 16be
00000340: e0a9 0c3d aedf 86be ac8a 43be 19a9 3b3c
00000350: 86cf b3bd 10c3 44be e9cc d5bd bafb 2dbc
00000360: e47c dbbc a62f 86be dcf4 83bc 2dd4 a43d
00000370: ef9d 9cbd 7e62 6fbe ad76 32bd 9512 04be
00000380: c86f 2cbd b8ca 71be 1b44 693d 9858 8ebe
00000390: defa 24bd 1a23 f2ba 0b7a 65be 31c8 29be
000003a0: ea5e 21be 4ba3 5cbe f918 67bc 8655 cdbc
000003b0: a755 bcbb d25a 49bd 24a4 efbc 1a55 b7bd
000003c0: b2d8 1fbe 16a7 fdbd 0348 27be d314 68bd
000003d0: 1438 4e3d a203 c9bd f128 54be f1a0 69be
000003e0: 6306 4c3d 8734 0bbe b77c 85be c864 833d
000003f0: 7998 65be ea21 8f3e a010 16be 5ef3 49be

bias f4 [128]
-0.1605499 -0.11128521 -0.24757499 -0.18629736 -0.16176371 -0.13645549 -0.25211528 -0.23349515
-0.10785226 -0.08982009 -0.12736262 -0.18992534 -0.1627326 -0.2294422 -0.22582473 -0.21883795
-0.24525738 -0.09339875 -0.1785117 -0.11963715 -0.124003984 -0.07604806 -0.18951786 -0.13697518
-0.15974596 -0.17284863 -0.2479102 -0.0839264 -0.09406675 -0.10069126 -0.15627111 -0.20538752
-0.15700369 -0.21614978 -0.1892721 -0.2394132 -0.21163665 -0.16831249 -0.09337755 -0.14100057
-0.07966727 -0.19448459 -0.22407897 -0.22292763 -0.092165954 -0.24126416 -0.2482951 -0.2212321
-0.13224015 -0.22611016 -0.14589933 -0.11746731 -0.15821517 -0.14065012 -0.16764905 -0.22761449
-0.22335215 -0.18978295 -0.2365767 -0.13797769 -0.14829957 -0.16573568 -0.23482375 -0.091317065
-0.20654601 -0.2438931 -0.16210736 -0.17679183 -0.19016676 -0.2011339 -0.17206956 -0.24635912
-0.09706068 -0.08890738 -0.13928047 -0.07284279 -0.23467766 -0.110083304 -0.1291631 -0.15247858
-0.18159646 -0.12598456 -0.09015824 -0.20061614 -0.11249797 -0.16511475 -0.10988592 -0.20507896
-0.073770545 -0.13085407 -0.07986737 -0.12925954 -0.23389022 -0.19262779 -0.20547414 -0.18908773
-0.18942164 -0.12481513 -0.19421655 -0.13956301 -0.2115437 -0.12902337 -0.12776789 -0.24935198
-0.1869153 -0.14748442 -0.23734602 -0.18954748 -0.07585797 -0.123029396 -0.1789583 -0.07164532
-0.18271208 -0.09103938 -0.08403615 -0.18389823 -0.09491446 -0.2485909 -0.07782664 -0.09133464
-0.13553248 -0.102591716 -0.13348868 -0.1747593 -0.22606196 -0.15949507 -0.2419641 -0.12396718
00000000: 3167 24be 80e9 e3bd 4c84 7dbe bcc4 3ebe
00000010: 63a5 25be fdba 0bbe 4115 81be 5a19 6fbe
00000020: a5e1 dcbd 98f3 b7bd 596b 02be ca7b 42be
00000030: 60a3 26be e5f2 6abe 993e 67be 0e17 60be
00000040: c024 7bbe d847 bfbd c5cb 36be 5204 f5bd
00000050: cdf5 fdbd 16bf 9bbd f810 42be 3943 0cbe
00000060: 7294 23be 3bff 30be 2cdc 7dbe 9be1 abbd
00000070: 11a6 c0bd 3837 cebd 8905 20be 1b51 52be
00000080: 93c5 20be 5e56 5dbe 8cd0 41be bc28 75be
00000090: 47b7 58be 1c5a 2cbe bb3c bfbd 7462 10be
000000a0: 9828 a3bd f826 47be f574 65be 2447 64be
000000b0: 81c1 bcbd f40d 77be 1241 7ebe ab8a 62be
000000c0: f669 07be 6c89 67be a266 15be b392 f0bd
000000d0: 2803 22be 9606 10be 31ac 2bbe c613 69be
000000e0: 6db6 64be 7656 42be 2a41 72be 064a 0dbe
000000f0: d8db 17be 9db6 29be a375 70be 7104 bbbd
00000100: cc80 53be 1dbf 79be 79ff 25be eb08 35be
00000110: 13bb 42be 0cf6 4dbe 0133 30be 9145 7cbe
00000120: c0c7 c6bd 1315 b6bd 8a9f 0ebe 9a2e 95bd
00000130: 574f 70be 5b73 e1bd 5543 04be 5823 1cbe
00000140: 6cf4 39be 1902 01be e2a4 b8bd 516e 4dbe
00000150: 5665 e6bd d713 29be df0b e1bd 3800 52be
00000160: 0315 97bd 9cfe 05be 8191 a3bd 9d5c 04be
00000170: eb80 6fbe 3840 45be d067 52be 37a0 41be
00000180: bff7 41be 139f ffbd b4e0 46be 9be9 0ebe
00000190: e99e 58be b41e 04be 96d5 02be 2056 7fbe
000001a0: b966 3fbe 2806 17be d60a 73be bc18 42be
000001b0: 6c5b 9bbd d6f6 fbbd d840 37be c8ba 92bd
000001c0: e018 3bbe db72 babd 251b acbd d14f 3cbe
000001d0: 8362 c2bd 9d8e 7ebe 9363 9fbd a80d bbbd
000001e0: 07c9 0abe 9b1b d2bd 42b1 08be 1af4 32be
000001f0: c97c 67be ad52 23be 70c5 77be 81e2 fdbd
