classification/checkpoints/stargazer_8_layers.pt (torch, 126418 bytes, 9 tensors)

weight f4 [64, 1]
000000 25 2d 7b be 7e 30 88 be 3e 85 bd be 1a 4e f3 3e
       -0.2452894 -0.26599497 -0.37015718 0.47520524
000010 8d a8 18 3f 23 5d d8 3e 9a fb 23 3f a9 cb 46 3f
       0.5963219 0.42258558 0.6405579 0.7765451
000020 37 7b b4 be 98 22 13 3f ea 65 2e 3f e3 ae 1d 3f
       -0.35250255 0.5747466 0.6812426 0.6159498
000030 5a d7 68 3f 22 e7 8d be a3 db 7e 3f 69 4a 58 3f
       0.909536 -0.27715403 0.9955389 0.8448854
000040 bd 5a df 3d 67 52 7d 3e 99 d9 17 3f ae b8 2b 3f
       0.10905979 0.24738465 0.593164 0.67078674
000050 11 b6 47 bd 16 ce 57 bf 00 19 7d bd 84 35 8b 3e
       -0.048757616 -0.8429884 -0.06179142 0.27189267
000060 40 eb af 3e 19 8b fe be bb f8 e0 3e 05 71 3d 3f
       0.3435917 -0.49715498 0.43939766 0.7400058
000070 1a e7 13 3f 9d 5a 8b 3e 4a 0e 6e be 12 7c 01 3f
       0.5777451 0.2721757 -0.23247638 0.5057994
000080 57 12 43 be bf 02 46 3f 31 29 89 3f a1 ea 40 bf
       -0.19049965 0.7734794 1.0715696 -0.75358015
000090 08 5c 2e bf a2 93 21 bf c6 c0 3d 3f 99 6b d3 3e
       -0.6810918 -0.63115895 0.74122274 0.41293028
0000a0 09 37 65 be 9a 49 48 3f bf 8c ab be 83 8f 13 3d
       -0.22384275 0.7823731 -0.33505818 0.036025535
0000b0 a2 b3 a6 bd 56 a4 ae be 54 db 12 bf 13 49 88 bc
       -0.08139731 -0.34109753 -0.5736592 -0.016636407
0000c0 78 c3 48 bf 47 09 4a bf 98 13 e9 be 44 41 90 be
       -0.7842326 -0.78920406 -0.4552276 -0.28174794
0000d0 83 9b 70 3f 91 6a 1e bf 93 42 cb be 33 fe fa be
       0.9398729 -0.6188136 -0.3969923 -0.49022064
0000e0 5c 57 6e 3f b5 0a e4 be 8d 50 3c be be d7 f8 3e
       0.9310205 -0.4453942 -0.18390103 0.48602098
0000f0 59 f6 50 3e fa b4 4c 3e 4a 40 2b 3f a7 bb 4c 3e
       0.20406474 0.19990912 0.6689497 0.19993459

bias f4 [64]
000000 23 94 89 bf 60 83 ca be bc b2 18 3f 1e 5f c7 be
       -1.0748333 -0.39553356 0.59647727 -0.38939756
000010 c0 61 2e 3f 9e ca 80 3f 12 d3 f4 be ea dd 97 be
       0.68117905 1.0061834 -0.47817284 -0.29661494
000020 e7 02 ab be 58 9c ed be d8 da 57 3d 02 5b 06 bf
       -0.33400652 -0.46408343 0.05269894 -0.52482617
000030 77 ca 0c bf cb ea 40 bf 6f 1f 3c 3f 2f de 53 3f
       -0.54996437 -0.75358266 0.73485464 0.827609
000040 4a 98 d5 3e ee 26 1c bf 77 c3 f1 be 49 d1 6d 3f
       0.4171775 -0.609969 -0.4721944 0.9289747
000050 14 54 e1 3e 65 f5 54 bf 94 0f d1 be 43 2e 6d bf
       0.4400946 -0.8318694 -0.40832198 -0.92648715
000060 76 54 7f bf a5 15 e4 3c 22 05 66 3f d9 8f 84 be
       -0.9973825 0.027842352 0.8985158 -0.25890997
000070 d0 4c 37 3e 6b 96 db 3e f5 21 57 bf d8 79 31 3f
       0.17900395 0.42888197 -0.8403619 0.69326544
000080 6d af 3c 3f 1d 20 8d 3d 07 60 3e 3f af de ef bb
       0.7370518 0.06890891 0.74365276 -0.007320247
000090 c3 51 dc bd 0d 00 41 3f 5b 27 5e 3f 5e ce 75 bf
       -0.10757782 0.753907 0.867788 -0.96018016
0000a0 0f 98 71 3f db b9 4e bf 2a d2 05 3f 71 4e 8a be
       0.9437265 -0.8075234 0.5227381 -0.2701297
0000b0 82 88 5d 3f f9 e0 52 bf 34 04 68 3d 47 85 f1 3e
       0.8653642 -0.8237453 0.056644633 0.47171995
0000c0 ac fd 56 3f 34 42 32 3e c0 27 58 bf ac 45 9a 3e
       0.8398082 0.17408067 -0.84435654 0.3013128
0000d0 46 4f 99 be cb f5 37 bf 31 ea af 3e c8 12 75 3f
       -0.29943293 -0.71859425 0.3435836 0.9573178
0000e0 76 48 06 bf 55 07 b3 be 45 24 56 bf ab 03 a7 3e
       -0.52454317 -0.3496653 -0.8364909 0.32619986
0000f0 92 ef 29 3f d1 e9 9d bb dc 80 48 3f 20 fb 00 3f
       0.6638118 -0.004819133 0.78321624 0.50383186

weight_ih f4 [192, 64]
000000 b7 96 aa bd 0d d6 d2 3c cf 26 62 bd af 48 d3 3c
       -0.08329528 0.025736833 -0.055212792 0.025791494
000010 15 25 0e bd ca 91 09 3d 80 4f 8c 3d 98 44 86 3d
       -0.034703333 0.0335863 0.06851101 0.06556052
000020 92 d0 25 3d 96 70 b9 bd 5a 89 8e 3d cc 15 21 3e
       0.04048211 -0.09054677 0.069597915 0.15730971
000030 98 8e 1c 3d 66 d0 5a bd 22 94 96 3d 67 50 88 3d
       0.038221925 -0.0534214 0.07352473 0.066559605
000040 aa 61 d7 bd dc 56 88 3d 4c a3 09 be f1 e4 5b 3d
       -0.10516675 0.06657192 -0.13441199 0.053685132
000050 f7 bd 86 3d 63 3e fc 3c f7 06 0c be f0 54 20 3c
       0.06579202 0.030791467 -0.13674532 0.009785876
000060 e6 28 1a be 75 d5 d7 bc 05 2e ff bc 2c 31 35 bd
       -0.15054664 -0.026346901 -0.031149874 -0.044236347
000070 bd 65 28 3d 95 d3 21 be 64 b2 06 3c 92 67 1d 3d
       0.04111265 -0.15803368 0.008221243 0.03842885
000080 3e 69 ab bc 7e a3 bd bd f2 6b 0d 3e 9c 54 3b 3d
       -0.020924207 -0.09259699 0.13810709 0.045734987
000090 50 3f 04 be 2d 41 a7 bd cb 68 81 bd 4c 46 87 3a
       -0.12914777 -0.08166728 -0.06318816 0.0010320633
0000a0 ba d9 7b 3b 39 74 d5 3c b0 17 eb 3d 00 f7 93 3d
       0.0038429336 0.026056396 0.114791274 0.07224846
0000b0 5a f0 65 3b 6f 45 aa bd 1b 04 87 bd b6 a5 41 3c
       0.0035085888 -0.08314025 -0.0659258 0.011819294
0000c0 d6 d6 c2 bd c3 ae ab 3c 3f c2 5a bc 62 21 05 3d
       -0.09513633 0.020957356 -0.013351976 0.03250254
0000d0 76 6b 70 3c ba f0 8d 3d 14 7e b0 bd ca c4 ed bc
       0.014674058 0.069306806 -0.086177975 -0.0290245
0000e0 0b 49 29 3e 8f 86 da bd 2d d2 0c 3e 7b ab d0 bd
       0.1653177 -0.10670196 0.1375205 -0.10188957
0000f0 4b c4 68 bd db 1d 1c 3d 07 b3 8e 3b 1c 28 27 bd
       -0.056827825 0.03811441 0.004354838 -0.040809736
000100 fc 33 b2 3c 30 3c 47 3d a6 cf 05 be 45 bb 68 3d
       0.021753304 0.048641384 -0.13067493 0.05681922
000110 67 98 6c 3d 5f f2 cf bd fa 1d e1 39 18 b1 ae 3c
       0.05776253 -0.101536505 0.00042937679 0.02132468
000120 6d c1 d6 3c f5 99 06 3e 63 3c 9c bc 5d 57 00 3e
       0.02621528 0.13144667 -0.019071763 0.12533326
000130 a7 e3 1e be 84 69 05 be 8c 6c 56 bd 53 9b 8d bd
       -0.1551653 -0.13028532 -0.052349612 -0.06914391
000140 e7 ff 90 3d 10 aa b3 3d 5e 81 d2 bd f6 a3 e7 bc
       0.070800595 0.08772671 -0.10278581 -0.028276425
000150 b4 1b bf bd 37 a8 ac 3d 40 51 ac bd 1c ad 5e 3d
       -0.09331456 0.08430522 -0.08413935 0.05436431
000160 f8 1f 98 3d 28 2e 9a bc ef 5b b6 bd ab af 20 3d
       0.074279726 -0.018820837 -0.08904254 0.03923003
000170 60 47 61 3c 0e 5b 24 be 0a 7e f4 3c 04 cb f9 bd
       0.013749927 -0.1605036 0.029845256 -0.12196925
000180 2f 26 9f bd 00 ad ba 3b ef 32 91 3d f8 85 dc 3d
       -0.07770955 0.0056968927 0.07089793 0.1076774
000190 87 49 d5 3d 6a 83 52 3d 0a 01 19 be cb d8 4f 3d
       0.10414415 0.051394857 -0.14941803 0.05074386
0001a0 02 47 ee bd 4f 27 14 3e 7d 95 a6 bd 57 22 31 be
       -0.116346374 0.1446812 -0.081339814 -0.17298256
0001b0 5c 6b bc bd 85 ca 0d 3d 17 06 08 3e c5 7b 95 bd
       -0.09200165 0.034616966 0.13283573 -0.07298998
0001c0 63 bf d0 3c ae 1a a6 3d b3 ff ad bd 5c 90 2b 3c
       0.025481885 0.081105575 -0.084960364 0.01047143
0001d0 b4 29 ff bd 7a 47 9c bd 2d 34 33 3d fa 5e 75 bd
       -0.12459126 -0.076308206 0.04375093 -0.05990503
0001e0 8e 72 89 3c c3 fa 4c 3e f4 fe 04 3e f1 e7 21 be
       0.016778257 0.20017533 0.12987882 -0.15811135
0001f0 af c5 62 3c 0d d3 a2 bd bf a6 00 bd a2 07 80 3c
       0.013841077 -0.07950411 -0.03140902 0.01562864
000200 b4 62 1f 3e d0 2b 89 3d 2d f3 41 bd 69 7d c3 3c
       0.15564996 0.0669781 -0.04735105 0.023863511
000210 f1 f2 02 3e d8 7b c0 3d 7f 65 da 3d 17 e6 29 3e
       0.12787987 0.09398621 0.1066389 0.16591679
000220 6b 02 14 be 39 46 65 3e c4 5a 6b bd 3f 51 f5 3d
       -0.14454047 0.22390069 -0.057459608 0.11978387
000230 7d 35 fd 3b c3 ba 4c 3d 76 dc 93 bd 85 4f fb bd
       0.0077273236 0.049982797 -0.07219784 -0.122710265
000240 54 2d cc 3d 33 48 fd 3d 2d 7d 06 3d ab 61 4a bd
       0.09969583 0.123672865 0.03283422 -0.04940955
000250 20 a0 9c bd 21 3f 97 bd 8e 93 f9 bd 94 e7 2a be
       -0.07647729 -0.07385088 -0.12186347 -0.16689903
000260 ee 63 ab bd e5 48 b6 bd 88 f5 76 3d 93 01 3f be
       -0.083686695 -0.08900622 0.06029275 -0.18652944
000270 8b 83 35 be 12 9a 8e 3d 29 56 a3 3c 76 ed 97 3d
       -0.17725961 0.0696298 0.019938545 0.07418339
000280 27 7b 58 be 79 16 ef 3c 88 75 50 bd dd 4c 95 3e
       -0.21140729 0.02918552 -0.050893337 0.29160205
000290 5b 87 41 bd 3c 97 f6 3d a1 03 9c 3c a6 a1 9d bb
       -0.047248226 0.120405644 0.0190447 -0.0048105298
0002a0 b7 42 01 bd 84 f5 ad 3d 47 54 d5 bb f4 cb 93 3c
       -0.031557765 0.08494094 -0.006510291 0.018041588
0002b0 8f 50 1f be c2 69 9f 3c e8 bf 6f 3e 21 85 80 bc
       -0.15558074 0.019459609 0.2341305 -0.01568848
0002c0 4c 50 8c 3c 38 02 7c 3d e8 b2 4e 3c a2 20 ce 3b
       0.017128132 0.061525553 0.012615897 0.006290511
0002d0 b5 f5 8c bc 41 ec 1a 3d 92 d9 03 3d 2d 49 9d be
       -0.017207006 0.037822966 0.032189913 -0.3071989
0002e0 15 0c f3 bd 6d fa 1c 3c 32 8d b2 bd 68 43 15 3d
       -0.11867539 0.0095811905 -0.08718337 0.036441237
0002f0 6e 0f b7 bc ff 2f 6c bd a1 83 01 3e 31 9f 23 3e
       -0.022346225 -0.05766296 0.12647869 0.15978695
000300 72 13 d6 bb fe 36 50 3d 7e 21 12 3e 94 25 6d bd
       -0.00653308 0.050833695 0.14270589 -0.057897165
000310 83 63 66 bd 69 2d 83 bd c3 2b b3 3c b3 bd b9 bd
       -0.056247246 -0.06405146 0.021871453 -0.090693854
000320 01 d6 0b bc 34 17 a2 3d 94 9f 64 bb 8b 2f a6 bd
       -0.008534909 0.07914582 -0.0034885155 -0.08114537
000330 20 17 a2 bc cb 7b b6 3d 42 d2 78 bd 50 e1 fd 3b
       -0.019786417 0.089103304 -0.060747392 0.0077478066
000340 e8 e8 1d ba dc 9a 83 3d 64 e2 fa 3d e3 52 52 3b
       -0.00060237804 0.064260215 0.12250212 0.0032092861
000350 56 a6 fc 3d 24 eb b7 bd b3 50 b9 3d 91 f5 20 be
       0.123364136 -0.089803964 0.09048595 -0.15718676
000360 23 d8 18 3e f7 35 a4 bd 1a 74 09 be 66 16 45 3d
       0.149262 -0.080181055 -0.13423195 0.048117064
000370 a2 92 be bd 23 53 cc 3d 5d b0 ea 3c 8d d3 ba 3d
       -0.09305312 0.099767946 0.02864855 0.09122381
000380 51 91 5e bd 16 f4 17 bc 48 da 7b 3d 48 7c 00 bd
       -0.054337803 -0.009274503 0.061487466 -0.031368524
000390 59 a6 61 bd fc 57 20 bd f0 2e 84 bd be 8b 1a 3e
       -0.055090282 -0.03914641 -0.06454265 0.1509237
0003a0 11 f2 98 bd 46 bf ef 3b 7f d4 31 bd 06 22 9b bd
       -0.074680455 0.0073165027 -0.043415543 -0.07574849
0003b0 ed 78 34 bd 2b d6 bc bd c2 21 fc 3a 33 f6 99 bc
       -0.044060636 -0.09220537 0.0019236135 -0.018794155
0003c0 13 c4 a5 bd 87 bf 68 bd da 3f 0a bb b0 68 bf bc
       -0.08094039 -0.05682328 -0.0021095187 -0.023365349
0003d0 f3 ea f1 3c 29 a5 4a bd 03 64 5c bd c4 bd 8e bc
       0.029530978 -0.049473915 -0.053806316 -0.017424472
0003e0 0f 06 af bd 38 f2 21 be a7 4f 6a 3d 03 d3 32 3d
       -0.085460775 -0.15815055 0.05720487 0.043658268
0003f0 81 16 88 bd f0 3f 24 3e 41 3b 27 be 1c 90 d1 ba
       -0.06644917 0.16040015 -0.16331197 -0.0015988383

weight_hh f4 [192, 64]
000000 98 21 b2 bd 7c d4 63 bc a0 34 b9 3d 09 3a 1e 3d
       -0.08697814 -0.013905641 0.090432405 0.038629565
000010 66 a2 19 bd 36 09 23 be 77 a2 24 3e 23 d3 cd bd
       -0.03750839 -0.15921482 0.160776 -0.10050037
000020 3b a9 fd 3d 48 76 ef 3c 18 68 7c 3c 15 fb 06 3c
       0.12385794 0.029231206 0.015405677 0.008238574
000030 4d 78 03 3e 9f 29 f3 3c a4 3b d4 3d 35 75 dd 3c
       0.1283886 0.029682932 0.10362938 0.027033428
000040 6c ea ca bd d8 39 7e 3d ee 0b 5e bd f1 72 fa bc
       -0.09907994 0.062066883 -0.054210596 -0.030572386
000050 c7 f2 44 bd 54 82 1f 3e a4 16 30 be 55 8c 7e bd
       -0.048083093 0.1557706 -0.17196137 -0.06214555
000060 10 bd e0 bd 7a fd 93 bd a9 2c 7e bd 63 d1 81 bd
       -0.10973561 -0.07226081 -0.06205431 -0.063387655
000070 cb 5f e0 bd 53 04 f4 bc a8 1b c6 3d 8e 76 a9 bd
       -0.10955771 -0.029787218 0.09673244 -0.08274566
000080 c6 f9 43 bd 6e ab 8d bc 1c 40 ae bd 24 ab bf bc
       -0.047845624 -0.017293658 -0.08508322 -0.023397036
000090 2d bd a4 bd 35 41 52 3d 1e ba 52 bd 89 b4 0f be
       -0.08043895 0.051331718 -0.051447026 -0.14033712
0000a0 0e dc a8 3c 60 f4 0b bd 2e 97 8e bc a5 dd 08 3e
       0.020612743 -0.0341686 -0.017406072 0.133658
0000b0 6e d2 f6 bc 82 23 b2 3c 28 19 11 3b bd d6 1b be
       -0.030129638 0.021745447 0.0022140238 -0.15218635
0000c0 97 4e c1 3c 6a 3b 83 3d a4 17 f4 3d b9 94 af bd
       0.023597045 0.06407817 0.119185716 -0.085732885
0000d0 01 7d 83 bd 77 1b 09 3d 73 d3 d3 3b 06 95 21 3c
       -0.06420327 0.03347346 0.0064644157 0.00986219
0000e0 37 09 3b 3e c7 f9 75 3d 4d 18 1c bd fc ab fd bd
       0.18265234 0.06005266 -0.038109113 -0.12386319
0000f0 ec 9c 06 3e 5c b7 d1 bd f1 b1 38 bd 09 5d 81 bd
       0.13145798 -0.10240051 -0.045091573 -0.06316573
000100 b2 c9 82 3d 9d e6 08 be 06 03 7d bd b4 a0 4a bd
       0.063861266 -0.13369222 -0.06177046 -0.049469665
000110 4b 03 aa 3d 40 6c 14 3e c9 5a 1f bd 41 3c c4 3d
       0.08301409 0.14494419 -0.03890494 0.09581805
000120 9a 87 76 3c cb 4d 2e 3d 83 6a 61 bd 7f a5 b4 bd
       0.015046978 0.042554658 -0.055033218 -0.088206284
000130 c8 20 74 3d 8f 9d 66 bd f2 53 fb 3d 90 48 3e 3c
       0.059601575 -0.056302603 0.12271871 0.01161398
000140 86 9c bd bd b7 36 fa bc 40 75 a1 bc 4c 01 04 3e
       -0.0925837 -0.030543668 -0.01970923 0.1289112
000150 f5 32 10 3d fe 33 55 bc 79 4e 10 bd b4 34 aa bd
       0.035204846 -0.013012884 -0.035231087 -0.083108336
000160 0c dd 25 bc 3b d0 2a bd 6e 5c 50 bb 1f ab 09 be
       -0.010123502 -0.04170249 -0.0031793374 -0.13444184
000170 0f 96 cb 3d 3a 0e fa 3d 6d 0c 75 bd 08 8f 05 3e
       0.09940731 0.12209745 -0.059826303 0.13042843
000180 8e 92 ae 3d bb 3f 24 be 59 e1 04 3e 86 0d dd 3d
       0.08524047 -0.16039936 0.12976588 0.10793595
000190 34 1b 7a bd 0b a4 a6 bd 14 3d 2b ba a8 7c 5e bd
       -0.0610611 -0.081367575 -0.00065322337 -0.0543181
0001a0 2a 4b af bd cd 35 13 bd 2e d8 26 3c 53 c9 92 bd
       -0.08559258 -0.03593998 0.010183377 -0.07167306
0001b0 3a 81 18 3e 75 80 8a 3d 6d 65 9d bd ab 45 4a be
       0.14893046 0.067627825 -0.07685361 -0.19753139
0001c0 e9 da 57 3d 7f 29 89 3c cf f4 0c 3d 63 51 fa bd
       0.052699003 0.01674342 0.034413155 -0.122225545
0001d0 2c 68 ce 3d 63 af a7 bd 0d 52 92 3c e1 21 42 bc
       0.10078463 -0.08187749 0.01786139 -0.011848898
0001e0 2c 0a 2e 3d bf 64 58 bd 2a 2a 17 bd aa 41 f5 3c
       0.04249017 -0.052830454 -0.036905445 0.029938538
0001f0 2e db 12 3e a0 0a 4c 3d 03 cd d3 bc 46 c3 70 3c
       0.14341423 0.04981482 -0.025854593 0.014694994
000200 35 59 b9 bc e7 3b 23 3d 90 4d 05 3e 0b dd 11 bd
       -0.022625545 0.03985205 0.13017869 -0.035611194
000210 f7 42 b2 3d 58 65 c9 3d 34 5a 8f 3d 89 26 b7 3d
       0.08704179 0.09833783 0.06999627 0.08942897
000220 d2 95 6f 3d c0 60 63 3d 94 5b 5e bd 2a 0b d8 3b
       0.05849249 0.05551219 -0.054286554 0.0065931277
000230 d6 cd 91 3d dc d5 0c 3d f2 e7 c9 3d 1a a3 c3 bc
       0.07119338 0.03438364 0.09858693 -0.023881484
000240 22 d1 09 be 3d 7d 12 3d 2a ca 3a 3e 51 48 80 bd
       -0.13458684 0.035763968 0.18241182 -0.06263793
000250 70 33 ba 3d 53 df ba 3d ca 40 e5 ba 35 b9 a7 3d
       0.09091842 0.09124627 -0.0017490622 0.08189622
000260 5b e7 25 bd b4 01 11 be e6 f9 3b 3d 3b 01 9d 3c
       -0.04050384 -0.14160806 0.04589262 0.019165626
000270 e5 41 f6 3d e1 2c 16 3e 8b 72 70 bd f3 2b ad 3d
       0.12024287 0.14665557 -0.058702987 0.08455648
000280 29 72 b7 bd 94 96 25 be 40 24 0c 3a bd df 9a 3d
       -0.08957321 -0.16170722 0.0005345978 0.07562206
000290 55 93 e1 bd 48 1e 68 3d 14 4b 9e 3d 09 38 f7 bd
       -0.110144295 0.056669503 0.07729164 -0.12071235
0002a0 5e a3 5a bd 5d 66 2e 3e 92 54 ed 3c d1 0c 11 bd
       -0.053378455 0.17031236 0.02897099 -0.035412613
0002b0 df 63 75 3d 9f 87 17 be 4b 09 b6 3d 9f d0 ab bd
       0.059909698 -0.14797829 0.08888491 -0.08389401
0002c0 05 a3 bf 3a 35 80 10 be 8f b6 d5 3a b1 06 e9 ba
       0.0014620727 -0.14111407 0.0016305017 -0.0017778483
0002d0 0f ee 24 3e 5a 6a 82 3d 0a e7 98 bd fb 2e bc 3d
       0.16106437 0.06367941 -0.07465942 0.09188648
0002e0 33 33 b2 3c 08 e8 df 3c 10 36 e4 bd c3 86 82 bd
       0.02175293 0.02733232 -0.11143124 -0.0637336
0002f0 25 56 e3 3d 5f e9 02 be 0d 3e 91 3d 48 c6 f5 3c
       0.11100415 -0.12784337 0.07091913 0.030001774
000300 26 29 8a bd c6 b2 e0 bd 08 bc 40 b7 75 ec 12 be
       -0.0674613 -0.10971598 -1.1487871e-05 -0.14348014
000310 6e a5 3a 3d 62 d9 37 3a d2 66 18 be b8 36 16 bd
       0.045567922 0.00070132886 -0.14882973 -0.036673278
000320 c7 51 40 3c 0c 1b a2 3c b3 50 20 bd 7c 25 d5 bd
       0.011738247 0.019788288 -0.03913946 -0.1040754
000330 31 76 8f bd 03 57 1c bd ca ed 30 3d 55 7a f1 bb
       -0.07004965 -0.03816892 0.043195523 -0.0073693194
000340 10 60 2f 3d c8 34 49 3b f4 de 4a 3e dc a1 18 3e
       0.04281622 0.0030701626 0.19811612 0.14905494
000350 d6 c4 27 3d 9d 70 47 3d 49 48 4b 3e e3 1f 5d bc
       0.0409592 0.04869138 0.19851793 -0.013496372
000360 25 10 9b 3c ec 0c 6e bb 27 87 27 3c 84 03 2c 3d
       0.018928597 -0.003632362 0.010225094 0.04199554
000370 81 eb 93 3d a9 86 0f 3d e7 7a 1d bd ce d3 06 bc
       0.07222653 0.03504053 -0.038447287 -0.008229209
000380 5f 4f c8 3c 80 e9 a6 bc 3c a4 70 bb fe 03 94 bd
       0.02445191 -0.020375013 -0.0036718985 -0.07227324
000390 cf 03 4e be 74 4b 4a 3d 0b 54 e4 3d 9c 5f 92 3c
       -0.2011864 0.049388364 0.111488424 0.017867856
0003a0 d6 9b f2 3d 31 bf e6 bd c7 de 02 be c4 60 c2 bd
       0.118461296 -0.112669356 -0.12780295 -0.09491113
0003b0 22 c4 84 bc a7 29 26 be be da 68 3d 4c e1 9d 3d
       -0.016206805 -0.16226827 0.056849234 0.077089876
0003c0 e0 32 ff 3c 7e 0d 41 be d5 dc 9d 3d 2d 08 7b 3d
       0.031152189 -0.18852803 0.07708136 0.061287094
0003d0 e6 7f 2d bd 28 23 d6 ba 16 8e a5 bd aa 3b 1b bd
       -0.0423583 -0.0016337382 -0.08083741 -0.037898697
0003e0 67 4c 55 3d 4a bc 7d bd 36 e9 30 be 05 ea 01 bc
       0.052074816 -0.061947145 -0.17276463 -0.00792933
0003f0 30 40 d4 3d f8 7e e2 3d c4 12 da 3c 26 92 c5 3d
       0.10363805 0.110593736 0.026620276 0.09647016

bias_ih f4 [192]
000000 24 8a c6 bd ad e5 3f 3e 61 ac 8b 3d 08 f3 1d 3d
       -0.09694317 0.18739958 0.06819988 0.03856185
000010 d8 5c 2f bd fa 09 bb 3d 12 dc 62 bc 95 c0 c7 3d
       -0.042813152 0.09132762 -0.013846414 0.09753529
000020 68 5a 95 3c 00 a1 cd bd 9c d7 e6 3d 9a 23 0f 3e
       0.018231586 -0.10040474 0.11271593 0.13978425
000030 85 69 a6 3c a4 ae 23 3e 30 28 15 bd ea 82 be 3d
       0.020313988 0.15984589 -0.03641528 0.093023136
000040 a6 23 be bd f5 87 1f 3e b4 42 02 3d 28 37 9f 3d
       -0.09284143 0.15579207 0.031801894 0.07774192
000050 24 86 33 3e e3 f9 17 3e a8 1e c2 bb 33 12 1f 3e
       0.1753164 0.14841418 -0.0059240647 0.15534286
000060 3e 98 2e 3d d1 fb 6d bd 50 20 73 bc 92 25 be bc
       0.04262566 -0.05810148 -0.014839247 -0.023211274
000070 57 e8 92 3c 72 e1 fe bc 4d 5b 83 bd 17 4f b7 bd
       0.017933054 -0.03111336 -0.064138986 -0.08950632
000080 a1 00 aa 3d c8 aa a0 bd 76 d1 e4 bb 8b 5b 53 bd
       0.08300901 -0.07845074 -0.0069829775 -0.051600974
000090 7a 0d 0b bc ba 77 94 bc fb 4b 2f 3e c7 a7 c2 3c
       -0.0084871 -0.018123496 0.17118828 0.023761643
0000a0 61 7a 30 3d 55 71 c4 bc f0 62 f4 3d e7 54 8f 3d
       0.04308546 -0.023979822 0.11932933 0.06998616
0000b0 ab c7 13 be 96 a9 15 bd 58 b7 70 bc 06 79 b0 3d
       -0.14431636 -0.036538683 -0.01469215 0.086168334
0000c0 c7 9b 3d 3d 19 68 50 bd 8a c1 c9 3d d0 fe a3 bc
       0.04629114 -0.050880525 0.09851368 -0.020018965
0000d0 9a 73 1a 3e 17 a1 3a 3e ac 5c 62 bc 2d a7 1c bd
       0.15083161 0.18225513 -0.01381604 -0.03824537
0000e0 ae d5 dd bd 96 66 66 3c 1b cf 1f 3e 6f 96 f9 3c
       -0.10831772 0.014062544 0.15606348 0.03046724
0000f0 09 f3 00 be 5d cd 76 3d d5 dc cb bd 0d 85 fc 3c
       -0.1259271 0.060254443 -0.0995423 0.030825162
000100 00 84 23 3d b2 78 11 bd dd ff eb 3c 22 fd 93 bd
       0.039920807 -0.035515495 0.028808529 -0.072260156
000110 5f ae 03 3d 67 dd 32 bd c8 0a 4b bb b5 72 09 bc
       0.032148715 -0.043668177 -0.0030981768 -0.008389165
000120 fa de b3 bd 69 92 66 bc 93 29 bb bd 0f bc 11 3d
       -0.08782764 -0.014072993 -0.09138789 0.035579737
000130 d1 70 f0 3c 2a 60 be bc 7c 58 83 3d f8 80 00 3b
       0.02935067 -0.023239214 0.064133614 0.0019608121
000140 8b 23 eb 3d 40 c6 fa bd a2 6e 00 be 70 69 c0 bc
       0.11481389 -0.122448444 -0.12542203 -0.023487777
000150 93 58 50 3c e3 72 c4 bc 03 da 03 be d9 2e e8 bd
       0.01271643 -0.023980564 -0.12876134 -0.113370605
000160 29 7b 85 3d 82 59 c3 bd a3 c2 0d 3c f7 3d ab 3d
       0.065176316 -0.09538557 0.008652362 0.08361428
000170 94 da 7e bd ca 7a 10 3d 25 75 94 3c 38 d8 d8 3d
       -0.06222017 0.03527335 0.018122265 0.105881155
000180 fc b0 d3 bd b0 67 07 bd 49 f0 2d 3c 0d 7c 0a 3d
       -0.103364915 -0.03305787 0.0106163705 0.03380971
000190 ec 4e 08 be 63 02 6d 3d 67 8b 18 3e d2 52 b7 3c
       -0.13311356 0.057863604 0.14896928 0.022378359
0001a0 02 99 7e 3d 75 1d fa bd ca 4a 32 be ba c8 48 bd
       0.06215764 -0.1221265 -0.17411342 -0.049019553
0001b0 15 9e c9 bd ba 08 5a 3d 4b cc 95 bd f8 b1 0d be
       -0.09844605 0.05323098 -0.073143564 -0.13837421
0001c0 c3 53 09 3d 17 36 0c bd 70 0e a5 bc 9e 6a 21 be
       0.033527147 -0.03423127 -0.020148486 -0.15763327
0001d0 39 02 f9 bc cb 1f 25 3d a2 53 91 bc d0 a3 70 be
       -0.030396568 0.040313523 -0.017740075 -0.2349999
0001e0 7d 5f 1c 3b db bc ff bd f8 d5 91 bd e0 af b2 bd
       0.0023860626 -0.12487193 -0.071208894 -0.08724952
0001f0 ed 58 1c be 95 e9 44 be a9 23 3e be 52 2f b8 bc
       -0.15268297 -0.1922973 -0.18568291 -0.022483502
000200 08 00 0b bd e8 fa d8 bb 15 31 5d bd 0d 6f bf bd
       -0.033935577 -0.006621707 -0.054001886 -0.09347353
000210 d3 c5 25 3e 31 ab 25 3d b4 62 60 bd c8 45 e2 bd
       0.16188745 0.040446464 -0.05478163 -0.11048466
000220 22 d7 dd bc cb a3 f1 3c c6 2c 76 bd 15 04 df 3d
       -0.027080122 0.029497048 -0.060101293 0.108894505
000230 ac 03 9e bd c4 bc 30 3c 47 e0 d5 3d 60 de 8a bd
       -0.07715544 0.010787193 0.10443168 -0.06780696
000240 c9 c4 d4 bd c1 d7 86 bd 4a b7 17 3e 0c 3b 06 bd
       -0.10389096 -0.065841205 0.14816013 -0.032771155
000250 53 fb a2 3d 66 cf 55 bd de 4d 13 3e d1 80 9e bd
       0.079580925 -0.052199744 0.14385173 -0.077394135
000260 67 be 83 3d d4 21 14 be e1 5e dd 3d fc dc a9 bd
       0.06432801 -0.1446603 0.10809112 -0.082941025
000270 d9 fb f4 3c 2e bc b2 3c e5 34 00 be cc ec cb bc
       0.029905247 0.021818247 -0.12520178 -0.024893187
000280 ca 6c 1e be af a2 54 bd 92 bc b7 3c 6d 68 06 3e
       -0.15471187 -0.05191296 0.022428785 0.13125773
000290 6c d2 04 be 40 f6 08 3e 26 dd 39 b9 4a 62 6b 3b
       -0.12970895 0.13375187 -0.00017725359 0.003591674
0002a0 e4 50 69 3d 96 da 76 3d a6 f0 2d be 6b 8a a0 bd
       0.05696191 0.060267054 -0.16986331 -0.07838901
0002b0 10 13 0b bd 41 84 0a bd 2e 16 93 bc a6 d7 54 bc
       -0.033953726 -0.033817533 -0.017954912 -0.012990868
0002c0 65 a8 a4 3d 60 0c a0 bd f4 f6 d4 bb d3 c0 81 bd
       0.08039931 -0.0781486 -0.0064991657 -0.063356064
0002d0 54 24 ee bc 87 f7 ca bd ef 33 05 be 26 73 a0 3d
       -0.029070057 -0.09910493 -0.13008092 0.07834463
0002e0 c7 03 fb 3c 0d 54 c8 bd c7 2e 3f bd c9 b2 1e bd
       0.03064145 -0.097816564 -0.04667547 -0.03874472
0002f0 44 25 c7 bd 09 fe b7 3d 2f 95 ae 3d 15 94 fb 3d
       -0.09723905 0.08984 0.08524548 0.12284104

bias_hh f4 [192]
000000 e2 ee c2 3b 95 bb 20 3e 6e 72 82 bd 6a 73 39 bd
       0.005948887 0.15696557 -0.06369482 -0.045276083
000010 f5 9f 87 bd 92 b9 15 3e 62 60 71 3c 55 74 85 3d
       -0.06622306 0.1462157 0.014732452 0.06516329
000020 68 1b 54 bd ea e9 dc bd b8 65 b3 bd 31 32 af bd
       -0.05178395 -0.10786803 -0.08759636 -0.08554495
000030 50 90 36 3d d1 a9 06 bd 39 c3 d3 3b 6e e8 ef 3d
       0.04457122 -0.032876793 0.0064624813 0.11714254
000040 5d 99 f2 bb 60 3c 88 3d 70 b3 3c 3d c8 98 a7 3c
       -0.0074035362 0.066521406 0.046069562 0.020458594
000050 f2 66 45 3d 35 de b6 3c 5f 43 fb 3d 6d f0 15 3e
       0.04819388 0.022322753 0.122687094 0.14642496
000060 f1 a7 2f bd a7 00 f5 3d ec a5 96 3d 08 e1 00 3e
       -0.04288477 0.11963015 0.07355866 0.12585843
000070 35 18 86 3d 06 36 e4 bd 09 0a ec bd 8d 98 88 3d
       0.06547586 -0.11143117 -0.115253516 0.06669722
000080 e7 f2 6b bd ad af 44 bd d1 0e 20 3e ce 5d 4a bc
       -0.057604697 -0.0480191 0.15630652 -0.012351466
000090 23 9a d8 3d 73 ea 94 bd 69 42 db 3d b2 9d f4 bd
       0.10576274 -0.0727128 0.10706026 -0.119441405
0000a0 ba 7b c0 3d 18 dd 0f 3d be d1 89 3c 22 1e 14 3e
       0.09398599 0.03512296 0.016823646 0.1446462
0000b0 fd 44 2d be 92 b7 57 3d 80 99 8b bc bb 6c ee 3d
       -0.16920848 0.0526653 -0.017040968 0.116418324
0000c0 11 7b f3 3d 6e cf de 3d 28 4f 23 bd e9 33 69 bd
       0.118887074 0.10879408 -0.03987041 -0.05693427
0000d0 05 03 02 3e bc 45 e4 3d e1 d2 af bc 3d bc c1 bc
       0.12696464 0.11146113 -0.02146286 -0.02364933
0000e0 76 91 11 be 05 29 ab 3d 14 5c 50 3e 2c ae 1c 3e
       -0.14215645 0.08357433 0.20347625 0.15300816
0000f0 29 6c f2 bc f7 9f 2c bc ea b0 e3 3d 99 e9 35 bd
       -0.02959259 -0.0105361855 0.11117728 -0.04441223
000100 e8 74 3f bc fa 51 2f bc 4a 5f 56 bd 6a d4 19 bd
       -0.0116855875 -0.010700697 -0.05233697 -0.03755609
000110 56 ad c8 bd c1 a1 d0 3b 4f d5 3c bc 58 41 91 3d
       -0.09798686 0.006366939 -0.011525466 0.070925415
000120 a6 3d 95 bd d8 a4 db 3c 14 b9 51 bd 7d 39 da bc
       -0.07287149 0.026812002 -0.051201895 -0.02663874
000130 fd 80 70 3d b6 f0 d5 3d 6e 13 fc 3c 1d fd 92 bd
       0.058716763 0.104463026 0.030770984 -0.07177184
000140 17 84 cc bd 81 68 59 3d a3 d9 cc bc 08 95 11 3d
       -0.09986132 0.05307818 -0.025006121 0.035542518
000150 77 68 88 bd 9e 9d 56 3d e6 91 27 be 63 92 0f 3d
       -0.0666055 0.05239641 -0.1636425 0.035051715
000160 a3 d5 81 3d e7 86 31 3d af 78 8a 3d f2 21 72 3d
       0.06339576 0.043341544 0.067613 0.059114404
000170 62 1d 88 bd 27 a2 69 bc 05 f2 cb bc 89 11 11 3e
       -0.06646229 -0.014259852 -0.024895677 0.14166845
000180 52 5c 00 bd 51 56 02 be d7 5a 10 3e c4 4f b9 bd
       -0.031338044 -0.1272824 0.14097153 -0.09048417
000190 06 ef b1 bc 4a cd 05 3e 51 64 13 3d 1b 4f a6 bd
       -0.02172042 0.13066593 0.03598434 -0.08120557
0001a0 ed cf e8 bd 0b 1d d3 bd a3 b3 42 3d d2 5d 71 3c
       -0.11367784 -0.10308274 0.047534596 0.014731841
0001b0 c0 51 00 be 83 d5 a0 3d c5 92 c6 bc 84 d3 4c 3d
       -0.12531185 0.07853224 -0.024239907 0.050006405
0001c0 20 2b 01 be 69 b8 3b bd a8 c6 1c 3d 8e a8 cb bd
       -0.12614107 -0.045830164 0.03827539 -0.09944259
0001d0 85 a9 b2 bd 7d 3d 2e 3c 9e 00 b7 3d 94 86 25 be
       -0.087237395 0.010634777 0.089356646 -0.16164619
0001e0 0b 6f fb 3c b1 95 bc 3c dd 85 a0 bc f2 6c a2 3c
       0.030692598 0.023020597 -0.019595081 0.01982734
0001f0 80 d9 98 bd bd 4f 52 be 51 c5 dd bd 79 7e 43 bd
       -0.0746336 -0.2053823 -0.10828651 -0.047728036
000200 e2 54 57 3d fb f7 c9 bd dd 2d 25 3e 0a 8f 6e bc
       0.052571185 -0.09861752 0.16130777 -0.01456047
000210 48 62 ed 3d 70 aa ec 3d 8d 63 e0 bd b6 40 ba 3d
       0.11591011 0.11555946 -0.10956488 0.09094374
000220 1f 23 c4 bb 89 45 81 bc 54 3d 51 3c 02 49 2a bd
       -0.005985632 -0.015780227 0.012770969 -0.041573532
000230 bc bb dd 38 a6 4a 17 be 0d 89 b3 3d 72 ed c4 3d
       0.000105730694 -0.1477457 0.08766375 0.096156016
000240 a5 b9 06 3d 03 b2 ef 3d 7c 85 55 bd 6a 05 e5 3d
       0.03289189 0.11703875 -0.052129254 0.11182673
000250 ad a8 98 3c ba 5e 81 bd a0 0b dc 3d 78 74 2e bd
       0.018635118 -0.06316896 0.10744405 -0.042591542
000260 eb be f9 bd 02 92 dc bd 70 c2 30 bd ea b2 10 3d
       -0.12194618 -0.10770036 -0.04315418 0.035326876
000270 17 2e 18 be 21 03 21 bd 0b 50 b1 3d 30 0d d4 3d
       -0.14861332 -0.039309625 0.08657845 0.10354078
000280 af bf 7c bd e5 c6 08 be 12 55 7f 3d 6e 02 9a 3d
       -0.06170624 -0.13357122 0.06233699 0.07519995
000290 9e 02 a9 bd 38 9d 04 bc 48 c3 1a 3d 5a f8 97 bd
       -0.08252452 -0.0080941245 0.03778389 -0.07420416
0002a0 29 8d d6 bd 35 d1 bf 3d c6 5e a7 3c ff ee 17 be
       -0.10476143 0.09366075 0.020430934 -0.14837264
0002b0 8e 4d aa bc a3 e5 85 3d 00 f6 37 bc 3d 6a 52 3d
       -0.020788934 0.0653794 -0.011228085 0.051370848
0002c0 a6 ea c6 bd d2 61 cf 3c f2 e5 ec 3d b6 62 21 bd
       -0.097127244 0.025315199 0.11567296 -0.03940078
0002d0 a7 7c cd 3d c6 5a d9 3d 55 55 00 be e9 c6 09 bc
       0.10033541 0.10613017 -0.12532552 -0.00840924
0002e0 1a 74 be bd 2e 7f a8 3c 03 ff 45 bd db 47 7d bd
       -0.09299488 0.020568457 -0.0483389 -0.061836105
0002f0 08 e4 a9 bd 92 9c a6 bd d4 d7 ff bd f1 8f 06 3e
       -0.08295447 -0.08135332 -0.12492338 0.13140847

weight f4 [64, 64]
000000 34 d2 07 3e 36 5a ac be b4 b5 9b bc e6 28 76 bc
       0.1326378 -0.33662575 -0.019007541 -0.015024399
000010 f4 02 51 3e 48 ad 09 3e 41 25 b7 3c 1d fd 2b 3e
       0.20411283 0.13445008 0.022356631 0.16795774
000020 eb f1 24 be e6 c6 7e 3e 52 dc e8 bd 81 10 24 3e
       -0.1610791 0.24880561 -0.11370148 0.1602192
000030 5f 03 6f be 3c 21 90 3c b5 fb 65 be 07 eb 05 3e
       -0.2334113 0.017593972 -0.224593 0.13077937
000040 cd e2 67 3e 50 7c 53 3d da c4 35 3c c8 8c 84 3d
       0.22645111 0.051632226 0.011094296 0.064721644
000050 b6 23 1a 3d ff 62 38 3e 7e bf fe 3c c2 32 32 be
       0.037631713 0.18006514 0.03109717 -0.17402175
000060 a6 18 59 3d 4b 76 20 3d 09 d7 21 3e c8 a2 ae bb
       0.053002022 0.039175313 0.15804686 -0.0053294636
000070 07 c3 ee 3d 9f 74 ab bd 76 6a 49 3d 50 c0 ce 3d
       0.11658292 -0.08371853 0.049173795 0.100952744
000080 73 9f 9e bd 32 9c 2c 3e 32 41 45 be 3f 8e 30 3d
       -0.07745256 0.16856459 -0.19263151 0.043104406
000090 93 5c 09 3e 4b 42 e9 3d c0 90 db bc b1 2b 97 3e
       0.1341422 0.113895975 -0.02680242 0.2952552
0000a0 16 e3 16 be e1 16 40 3d 98 c8 71 3a a7 94 57 be
       -0.14735064 0.04689682 0.0009223311 -0.210528
0000b0 df bb 49 be 18 db f8 bd f1 7c 29 3e 13 8e 2a 3e
       -0.19700573 -0.12151164 0.16551568 0.1665576
0000c0 18 97 9e bd 0d ac cd bc 04 4a 53 be 4b 5f 52 bd
       -0.077436626 -0.025106454 -0.20633703 -0.05136041
0000d0 0e dc f4 bc 38 a9 2c 3d 2d 5b 92 bc 82 c7 24 bd
       -0.029890087 0.042153567 -0.017865742 -0.040229328
0000e0 5a 8e 88 bd cf a7 e7 bc ed 30 e4 bc d8 fd 2b be
       -0.066677764 -0.02827826 -0.02785536 -0.16796052
0000f0 87 b2 a4 be d4 de 1e bd 18 ba 81 3d d8 04 d2 3b
       -0.32167456 -0.038786724 0.06334323 0.006409269
000100 54 de 2a 3d bb 9d f5 bc f0 a4 16 3e 30 a4 43 be
       0.041715935 -0.029982438 0.14711356 -0.19105601
000110 ba c2 c0 bd 4a be 2f bd 74 ad d3 bd 47 f3 0d 3e
       -0.09412141 -0.042906083 -0.10335818 0.13862334
000120 a6 4b fe bd 23 3b 81 bc 11 f6 d6 bd f2 9a fd 3c
       -0.124167725 -0.015775269 -0.10496152 0.030957673
000130 89 50 89 bd 29 2b 28 bd 32 42 93 3d 22 08 0d 3e
       -0.06704814 -0.041056786 0.0719036 0.13772634
000140 a1 ae ae bd 86 89 04 3e 95 f1 49 3e 63 73 1d 3d
       -0.085294016 0.12943086 0.19721062 0.03844012
000150 a0 51 37 3e 99 a1 75 3d cf 42 cf 3d e9 13 09 be
       0.17902231 0.059968565 0.101201646 -0.13386501
000160 57 1a 9b bc ff 38 06 be c1 80 a5 bb da e5 87 bb
       -0.018933458 -0.1310768 -0.005050749 -0.0041472735
000170 4e 0e e1 3d 64 0c f3 bc c8 ab 11 bd 3e 9b 7b bd
       0.109890565 -0.029668994 -0.035564214 -0.061427347
000180 50 c0 1d be 40 91 f4 3c 28 4a 50 bd bc e6 82 3c
       -0.15405393 0.029854417 -0.05085197 0.015979163
000190 c4 bb 1a bd 71 d1 1b 3c e7 87 53 bd e9 7c d4 3d
       -0.037776724 0.009510384 -0.05164328 0.10375387
0001a0 88 0e 42 3b d1 7b 81 3d 02 03 fa 3b 90 62 7c be
       0.0029610712 0.06322444 0.007629753 -0.24646974
0001b0 0a 0b c4 3d 3e e9 19 bd ac af 18 3c a1 9e 92 3d
       0.09572418 -0.037575953 0.009319227 0.07159162
0001c0 6c b8 0d be 68 c8 0b be 70 bc fd bc b9 be 32 be
       -0.13839883 -0.13650668 -0.030973643 -0.17455567
0001d0 12 f9 22 3e 57 ec a6 bc fb 16 8c bc 0d a6 20 3e
       0.15915325 -0.020376367 -0.017100802 0.15688343
0001e0 24 37 fc bd 34 48 0c be 80 da df 37 e6 2a ed 3d
       -0.12315205 -0.13699418 2.6685419e-05 0.11580448
0001f0 88 f7 a2 3d a5 09 32 3e a3 d2 9c bd 14 c0 16 3d
       0.07957369 0.17386492 -0.07657363 0.036804274
000200 36 b4 4e bd cd 98 8e bd 89 d4 02 3e 75 ba f7 bb
       -0.05046483 -0.06962738 0.12776388 -0.007560069
000210 9d 73 10 be 78 50 09 3e 6e 13 ca bc 1e 76 40 bd
       -0.14106603 0.13409603 -0.024667468 -0.046987645
000220 f1 34 cf 3c 18 43 08 3e 3c b9 18 be ce 53 e3 bd
       0.0252938 0.13306844 -0.14914411 -0.11099969
000230 fe 9b be 3c 8d 51 4b 3d 0a 72 fe 3d 3d 94 0c 3e
       0.023267742 0.04963832 0.12424095 0.13728423
000240 60 42 de bd d6 ee 54 3d 66 f3 bc 3d 29 80 cc bd
       -0.10852504 0.051985584 0.09226112 -0.09985382
000250 21 eb 55 3e d6 3f b2 3c 25 6c 23 3e 69 c3 a0 bc
       0.20890476 0.021758955 0.15959223 -0.019624429
000260 24 ec 09 3e 07 79 02 be d1 ee 10 3e 81 e7 b0 3c
       0.13468987 -0.12741481 0.14153601 0.021594765
000270 0b 1f c0 3d d2 f9 35 3d ad 5f 85 3b 8a 48 3f bd
       0.09380921 0.0444277 0.0040702433 -0.046700038
000280 c5 9e d5 bd 3a 5c 65 bd 78 32 b5 3d 7a 4e ce bd
       -0.104306735 -0.055996157 0.08847517 -0.10073562
000290 da 63 c1 bd 6a ae 97 bd 8b 2d dd bc d8 1a 21 bd
       -0.09442873 -0.07406314 -0.026999256 -0.03933224
0002a0 b7 70 9d bd 67 7b 42 3c 45 07 b2 bd 1d 9b 87 be
       -0.07687514 0.011870242 -0.08692793 -0.2648553
0002b0 cf 7d ae 3d e2 98 52 ba 8f 78 12 3d c3 b9 83 bc
       0.0852009 -0.00080336456 0.035759505 -0.016079789
0002c0 17 5c 5c bd c1 56 07 be dd 62 91 bb d3 a3 75 be
       -0.05379876 -0.13216688 -0.0044368342 -0.23988275
0002d0 29 37 51 3e 73 c0 43 be c8 ff 5c 3d 22 ba d2 bc
       0.20431198 -0.19116382 0.05395487 -0.02572352
0002e0 21 69 a3 3c 99 6f 2d be 50 34 1b be 39 c9 84 bd
       0.01994759 -0.16937102 -0.15156674 -0.06483693
0002f0 22 5e ba bd 5e 54 8d 3d 02 8a 23 be 9b c7 9e 3d
       -0.09099986 0.069008574 -0.15970615 0.077529155
000300 91 3a 20 bb 48 f9 18 3d 51 77 91 bc 0b 49 da bd
       -0.002444897 0.037347108 -0.01775709 -0.10658463
000310 cb bd 8b be 63 1f 2d bd 18 b4 13 be 73 ff 1d be
       -0.27293238 -0.04226626 -0.14424169 -0.15429477
000320 fc 73 0f 3e c9 0a aa 3d f1 34 42 3d 0f 21 38 bc
       0.14009088 0.08302838 0.04741377 -0.0112383505
000330 d4 f4 26 3e 61 bf af bc 8f 8e bf bd 06 04 92 3d
       0.16304332 -0.021453561 -0.09353363 0.07129674
000340 c6 23 f1 bd 56 eb 5c 3d 13 39 a1 bd 76 d5 65 bd
       -0.11774401 0.05393537 -0.07872214 -0.056111775
000350 ab 85 9f bc 95 cd 81 bd 7c f7 d0 bc 01 b0 1e 3e
       -0.019472918 -0.0633804 -0.025508635 0.15496828
000360 d7 70 fb 3c a0 14 90 bd f7 28 07 be 03 c4 70 3c
       0.030693455 -0.07035184 -0.1319922 0.01469517
000370 af db 87 bd 25 fc 8c 3d 5d 09 ed bd 39 97 75 bd
       -0.06633698 0.0688403 -0.115740515 -0.05995867
000380 73 4a 0c 3d 59 05 1b be 06 f8 ee 3d d3 0d c8 bc
       0.034250688 -0.15138759 0.116684005 -0.024420654
000390 37 5e 92 bd 37 c2 bf bb 45 53 1e 3d f7 11 9d bd
       -0.07146876 -0.0058520096 0.03865363 -0.07669442
0003a0 95 de ca 3d a8 8e 86 bd 5a b8 11 3d d9 4a b1 3d
       0.099057354 -0.06570178 0.035576202 0.08656854
0003b0 6e 37 b1 3d 22 ef 52 3e 0b aa 7b bb c5 ae ff bd
       0.086531505 0.20599034 -0.0038400914 -0.124845065
0003c0 60 3c e2 3d b6 5e 2c 3c fc e4 1d 3e d3 cb b2 bd
       0.11046672 0.010520628 0.15419382 -0.08730283
0003d0 28 ed 54 3d 56 ca fa 3d f9 88 08 bd 3f 41 06 3e
       0.051983982 0.12245624 -0.033333752 0.13110827
0003e0 10 b7 67 bd f3 1d 0c be 40 bc e4 bd b4 ee 4b 3d
       -0.056571066 -0.136833 -0.11168718 0.049788192
0003f0 61 7c 57 3e 18 c7 e7 3d fa d7 73 3c c6 e3 e5 bd
       0.2104354 0.11317271 0.014883036 -0.11225085

bias f4 [64]
000000 ee 2a 1a bc 17 ef e7 bc 8c 6c f2 3d 47 a2 fc 3d
       -0.009409649 -0.02831225 0.1183711 0.123356394
000010 f2 6e 4f 3b ee 87 b6 3d 19 03 0d bc 93 ae fc bd
       0.0031651822 0.08912645 -0.008606696 -0.12337985
000020 38 c2 f6 bd 3e 1e 00 3e a7 d1 00 bd 5a 14 d8 3c
       -0.12048763 0.12511536 -0.03144994 0.026376892
000030 6d 4b ca bd 63 38 d9 bd 19 0a 63 3d 61 01 55 3d
       -0.098776676 -0.10606458 0.05542955 0.05200327
000040 9e b7 08 be 43 f3 a9 3d 3e c1 22 be d6 0f 91 b9
       -0.13351294 0.082983516 -0.15894029 -0.00027668354
000050 ff 35 b9 bb b4 61 db 3d 01 d6 ce 3d 9c 1c 2a 3d
       -0.005652189 0.10711995 0.10099412 0.04153119
000060 88 73 10 3e 8f 78 46 3d bb 75 07 be 68 f9 d5 3c
       0.14106572 0.048454817 -0.13228504 0.026119903
000070 13 1e 78 bd 73 ca f4 ba 59 53 ac 3c 98 c3 01 bd
       -0.060575556 -0.0018676057 0.021035837 -0.031680673
000080 2a 04 1a bd eb f7 d3 bc f6 e1 bc bc 5d d3 00 3e
       -0.037601627 -0.025875052 -0.023056965 0.12580629
000090 d1 66 07 3e c2 80 b3 3d b6 ef c2 3c 70 a1 43 bd
       0.13222815 0.08764793 0.023795944 -0.04776138
0000a0 d8 a2 36 3b 35 1a 8b 3d 01 8d d5 bd 13 50 f6 3d
       0.0027868059 0.06792108 -0.10427285 0.12026992
0000b0 89 b6 d9 3d 3d 4d 06 bd e1 89 af bd 34 51 97 3d
       0.10630519 -0.032788504 -0.0857122 0.07388535
0000c0 8f 47 2b bc 96 ed de bc 3f 2f 35 bd 6f 1e c3 bd
       -0.010454073 -0.0272129 -0.04423451 -0.09527289
0000d0 b6 f3 be 3d c2 b4 27 be 9b ca be 3c a7 ba 6b 3d
       0.09323828 -0.16377547 0.02328997 0.057551052
0000e0 b3 de ed 3b 62 fe 05 be 90 f8 18 bd 1f bc 48 bd
       0.007259214 -0.1308532 -0.037346423 -0.04900753
0000f0 9f c1 d4 bd 61 12 73 bc 2a a4 0d be 62 fc e7 3d
       -0.10388493 -0.014835925 -0.13832155 0.11327435

weight f4 [1, 64]
000000 9b 89 8f be 01 2b 0c be 30 8e 36 be 4b f9 15 be
       -0.28034672 -0.1368828 -0.17827678 -0.14645879
000010 8e ec 6c be ff 8f bc 3d a4 bc bc 3d de 27 05 bb
       -0.23137113 0.092071526 0.09215668 -0.0020317952
000020 8a a9 bc 3c a2 8e fb 3d e5 ac 7f be db e4 a1 be
       0.023030061 0.122830644 -0.24968298 -0.31619915
000030 56 5e 24 be ab 7a 12 be ef bf 06 3e 43 d1 25 be
       -0.16051611 -0.14304607 0.13159154 -0.16193108
000040 e3 be 90 be fd b6 d2 3d b7 99 ea 3d e3 db 90 be
       -0.28270635 0.102888085 0.114551 -0.2829276
000050 ab b4 0a 3e 24 15 b0 3d a0 ef 81 be 9a f2 86 be
       0.13545482 0.08597782 -0.25378132 -0.26356965
000060 fa 1b d9 bd 88 64 d7 3d cb 4c 72 3e c1 2d 54 be
       -0.10601039 0.10517222 0.23662107 -0.20720579
000070 d3 11 75 be 4b 2f 78 3d 43 1e 44 be 5f ce 09 be
       -0.2393258 0.060591977 -0.19152169 -0.1345763
000080 30 30 73 3e 89 aa 6f be 19 4e b8 bd c5 f2 26 3e
       0.23748851 -0.23404898 -0.08999271 0.16303547
000090 2f b0 29 3e 4f 4d c2 3d 85 8e 06 be e4 71 8b 3c
       0.16571115 0.09487402 -0.13140304 0.01702208
0000a0 71 d2 66 3c e0 dc 23 be 2c f3 28 be a4 fd 70 bd
       0.014088259 -0.16002226 -0.16499013 -0.05883564
0000b0 35 43 a3 bd e2 f3 12 bd d6 3b 5e be ea 5a 9f be
       -0.07971803 -0.035877116 -0.21702513 -0.3112405
0000c0 1d 54 1e 3d eb d5 56 be e8 6a 2a be 6f ab 9c be
       0.038654435 -0.2098004 -0.16642344 -0.30599543
0000d0 72 79 2c 3e 56 bc 15 3e e9 5a d0 3d 01 e2 b7 3d
       0.16843203 0.14622626 0.1017359 0.08978654
0000e0 aa 04 a2 be 7c b4 76 3e 64 60 cc bd f2 90 56 3e
       -0.31644183 0.24092287 -0.099793226 0.2095373
0000f0 32 5d 55 3c 1d 00 1e 3e ad 7b e9 3c 28 a0 11 3e
       0.013022708 0.1542973 0.028501356 0.14221251
