classification/checkpoints/stargazer.pt (torch, 126292 bytes, 9 tensors)

weight f4 [64, 1]
000000 d6 44 8e bf bc 5d d8 3e 5b 04 12 3f 5b 07 56 3e
       -1.1114757 0.42259014 0.57037896 0.20901243
000010 b1 6e fa 3e df f6 eb 3e 86 03 6a bf 1b 53 4f 3f
       0.48912576 0.46086785 -0.91411626 0.80986184
000020 be 0b fb 3e 50 1d 2f 3e e4 68 86 bd f7 d8 3e bf
       0.49032396 0.17101026 -0.06562975 -0.7454981
000030 b8 72 ac 3e 1e ce 56 bf 4d b5 76 3f 5b 6e 27 3f
       0.33681273 -0.8390826 0.96370393 0.65402764
000040 88 ad 00 3e 37 ac 35 bf 8b b4 48 bf 37 f7 ac bc
       0.12566197 -0.70965904 -0.78400487 -0.021113975
000050 2c 2d 20 3f b3 13 5b 3c c6 d7 87 3f b4 4c 88 3f
       0.62568927 0.013371396 1.0612724 1.0648408
000060 83 fc f6 3d 80 87 d1 3e 17 29 83 bf 9a 25 04 3f
       0.120598815 0.4092369 -1.0246915 0.51619875
000070 a4 7d 97 bd aa 00 72 be 5f ff 54 3f 55 97 6f bf
       -0.07397011 -0.23633066 0.83202165 -0.9359029
000080 d8 85 71 3d e6 e5 0d 3e ae db 4c 3c 59 75 5f bd
       0.058965534 0.1385723 0.012503548 -0.05455527
000090 46 db fb be 87 a6 2a 3f 83 f4 86 bf 79 d5 72 bf
       -0.4919073 0.6666035 -1.0543369 -0.94856983
0000a0 37 82 3a bf a8 0d 08 3f f1 7c 19 3d 05 41 08 ba
       -0.7285494 0.5314584 0.03747267 -0.0005197677
0000b0 da f0 32 bf 36 64 73 3f 03 32 cf bd 4b b6 73 3d
       -0.6989876 0.95074785 -0.10116961 0.05950002
0000c0 08 03 e8 be 4f 97 14 bf ce fb 80 bf a2 1f 45 3f
       -0.45314813 -0.5804338 -1.0076845 0.7700139
0000d0 b8 28 53 3f 63 32 8a bf 47 78 1d bf 84 cf 1f bf
       0.82484007 -1.0796627 -0.61511654 -0.6242602
0000e0 53 f4 5e 3f af b8 24 3f c6 0e 7b bf 63 0e 5e 3e
       0.8709156 0.64344305 -0.9806942 0.21685176
0000f0 2e 27 30 3f 10 cc 00 3f 35 86 5e 3f cb b2 ec be
       0.68809783 0.50311375 0.86923534 -0.46230158

bias f4 [64]
000000 9e cc 8c bf 83 ee 52 3c c8 af b5 3e 4e 2b 65 3f
       -1.0999944 0.012874248 0.35485673 0.895192
000010 ed 03 5d 3f 0d 46 ac bd ad 55 3d 3f 4b 22 a7 3e
       0.86334115 -0.084117986 0.73958856 0.3264335
000020 cd 57 dc 3d b0 1c cf be 6e c2 90 be 84 8b 59 bf
       0.10758934 -0.40451574 -0.28273338 -0.8497851
000030 57 71 46 3f 66 71 03 bf c0 15 82 bf 24 ca 4e be
       0.7751669 -0.5134491 -1.0162888 -0.20194298
000040 aa 7d 44 3f 1a 0a 00 3f bb 3d 61 bf dd c9 82 3f
       0.7675425 0.50015414 -0.8798482 1.0217854
000050 11 49 db be 2d 77 da be 4b e7 10 3f de 4f 0b bf
       -0.42829183 -0.4266905 0.56602925 -0.5441874
000060 18 e0 15 3f 3e b5 8c bf ca 98 2e bf 65 b0 34 be
       0.58545065 -1.0992811 -0.6820189 -0.17645414
000070 01 5a 5a 3f 19 61 e0 be df 40 0f bf 1b 98 d5 3e
       0.85293585 -0.4382408 -0.5595836 0.4171761
000080 33 a7 ce be 37 c5 cf be a5 59 af 3e 49 93 3b 3f
       -0.40361938 -0.4058015 0.3424808 0.73271614
000090 da b4 86 3f 3d e7 5e bf 5d 02 a7 3e 20 0f 44 3e
       1.0523942 -0.8707159 0.3261899 0.19146395
0000a0 c1 07 2d bf 53 2f 2e 3f ad a6 24 bc e3 bf 36 3f
       -0.67589957 0.6804096 -0.010049504 0.71386546
0000b0 2e 43 0b bf 5a 63 50 3f 9d 62 34 bf db 1f 80 3d
       -0.54399383 0.814016 -0.7046297 0.06256076
0000c0 70 5f 95 3e 1d fc 8a bd 43 e9 4b be a7 a0 f0 be
       0.29174376 -0.06786368 -0.19913201 -0.46997568
0000d0 91 a7 af be 31 46 1c bf 07 a0 aa 3e 20 00 f0 3e
       -0.3430753 -0.61044604 0.33325216 0.46875095
0000e0 3f a2 39 3f cd e6 d5 3e 4f c8 81 bf 74 a9 ba 3e
       0.7251319 0.4177765 -1.0139254 0.36457407
0000f0 f7 0e 00 be 39 74 9e 3e 29 42 66 be f1 f4 a7 be
       -0.12505709 0.30948046 -0.22486176 -0.32804063

weight_ih f4 [192, 64]
000000 f8 e7 f9 3c 6c 7d 37 3d e6 c0 70 bd 08 ca 51 bd
       0.03050612 0.044797346 -0.058777712 -0.051218063
000010 5c 41 14 be cb 67 18 be c0 80 1b 3d d7 a6 d0 bd
       -0.14478058 -0.14883344 0.037964582 -0.10188072
000020 77 cc 88 bd dd 7e 32 3e 66 d8 20 bd 91 13 42 3d
       -0.066796236 0.17431207 -0.039268874 0.04738194
000030 a6 7a b7 bd 84 5e b2 3d b0 3c 0d bd 8b 65 2b be
       -0.0895894 0.08709434 -0.034481704 -0.16737954
000040 f5 a9 84 bd 8d 54 06 3e 9e 51 be 3d 3f 2f b2 bd
       -0.06477729 0.13118191 0.09292911 -0.08700418
000050 47 2c a4 bd cd d8 10 3c 35 f9 17 3d 72 5e 89 bd
       -0.08016258 0.008840752 0.037102897 -0.06707467
000060 29 2f af bd 9f d0 6b 3d a5 2f 35 3d a8 d8 41 be
       -0.08553917 0.057572003 0.04423489 -0.18930304
000070 80 d2 b8 bd a4 f0 85 3c b3 94 2d bd 5c 62 19 3e
       -0.09024525 0.016350098 -0.04237814 0.14978927
000080 d1 98 3f 3e 92 aa 5d 3c 31 e1 0b be 58 1d 55 bd
       0.18710639 0.013529437 -0.13660122 -0.052029938
000090 b4 a4 80 bd 32 59 ee bd 32 48 f0 bd 1d 9a a1 bc
       -0.06281415 -0.116381064 -0.1173252 -0.019726807
0000a0 13 29 59 3e 46 e7 c9 bd 38 30 d3 3d 87 d0 47 be
       0.21207075 -0.09858565 0.10311931 -0.1951314
0000b0 cb fc bf bd 42 a6 09 be 17 ca 80 3d 6c 83 f6 bd
       -0.09374388 -0.13442329 0.062885456 -0.120367855
0000c0 d1 62 34 3d 39 b9 93 bc 7d d7 d8 3d cf 22 12 bd
       0.04403955 -0.018032657 0.10587976 -0.035677727
0000d0 c9 dc 9c bd a7 9c bf 3d c1 84 13 3d 78 5e bd 3d
       -0.07659299 0.09356051 0.036015276 0.09246534
0000e0 b1 7a 4a bd 15 ce fe bd c0 0d 8b 3d 44 28 4b be
       -0.049433414 -0.12441651 0.06789732 -0.19839579
0000f0 51 70 9a 3d 56 52 0e bd a2 21 8d bd 2f be 48 bd
       0.07540954 -0.03474649 -0.068911806 -0.0490095
000100 14 92 bb 3c 54 3a f7 bd aa 8c 98 3d ef 30 a8 bd
       0.022896804 -0.12071672 0.074487045 -0.08212458
000110 08 cd 22 bd 5d ff 1c be 4f d6 ee 3c f9 e2 ab 3d
       -0.039746314 -0.15331788 0.029154925 0.08392901
000120 fe f5 f4 bd 4e 4c 23 3e 05 7a 18 3d f3 f2 a1 bd
       -0.11960982 0.15947077 0.037225742 -0.07907667
000130 e4 48 1d 3d 9d 76 47 bd 57 36 1a bd f5 ac 00 bd
       0.038399592 -0.048697103 -0.03764948 -0.031414945
000140 dc 13 8c 3d 58 6a ab bc 7a f3 8e 3d 60 d2 07 3e
       0.068397254 -0.020924732 0.06980033 0.13263845
000150 e7 64 c2 bd 80 12 80 bd 29 7b ea bc 0b a6 70 bd
       -0.09491902 -0.062535286 -0.02862318 -0.0587521
000160 60 35 21 3c ca 56 82 bd 8d 08 aa bd 9c 01 45 bd
       0.009839386 -0.0636421 -0.08302412 -0.048097238
000170 79 d2 ad bd a4 a2 c4 3d 41 87 0d 3e ac 8c fc 3d
       -0.0848741 0.09601334 0.13821127 0.123315185
000180 30 f9 3d 3e a1 73 ed 3d dc f3 0c 3d 4e 56 e4 bc
       0.18552089 0.1159432 0.03441225 -0.027873185
000190 e2 5b 3b bc f7 88 81 3c 53 35 5e 3d cb 7b 17 3e
       -0.011435481 0.01581238 0.054250073 0.14793317
0001a0 47 c2 a2 bd 6a 92 fc bd 69 f8 08 3e 8b da e5 bd
       -0.07947212 -0.12332614 0.13376011 -0.112233244
0001b0 8e ab e4 3d 8e 5a e1 bd b8 b4 54 bd 1a ab 75 3e
       0.11165534 -0.110036 -0.05193016 0.23991051
0001c0 54 50 94 be fc 51 59 3d 85 1b 91 bd ac 8e c4 bd
       -0.28967535 0.053056702 -0.07085327 -0.09597525
0001d0 c3 8c 7a bc c5 d3 1b 3e 4c f4 80 3d 5f 13 90 3c
       -0.015292349 0.15217502 0.06296596 0.017587362
0001e0 67 22 a3 3d 71 e3 b5 3d ee 9d a4 bd 64 00 bb 3c
       0.07965546 0.08881272 -0.08037935 0.022827335
0001f0 8c 14 a1 3c a7 10 bf 3c 67 33 06 be 12 54 9a 3d
       0.019663118 0.02332337 -0.13105546 0.075355664
000200 60 8a ba bc a2 8e 76 3d 66 8a 09 bc b3 bf a0 3d
       -0.02277106 0.06019462 -0.008394813 0.07849064
000210 7d 38 be 3c 2a 83 7a 3d 1b b0 b4 3c 8f 30 b5 bd
       0.023220295 0.061160244 0.02205663 -0.088471524
000220 cc 41 00 bd 5c f4 7f bc 28 01 66 3d e2 7d 31 be
       -0.03131275 -0.015622225 0.056153446 -0.17333177
000230 e8 6d 2d 3e 2e 07 0d be 6d ed 00 3d aa 68 e0 3b
       0.16936457 -0.1377227 0.031476427 0.0068484144
000240 00 fa eb bd f7 df d2 3d 19 d9 aa be 4e 13 24 3e
       -0.11522293 0.10296624 -0.33368757 0.16022989
000250 3e 74 f2 bd 6e 6e 89 3e 51 57 9c 3e 28 df 7b 3d
       -0.11838578 0.26842064 0.30535367 0.061492115
000260 96 e6 8b 3d 5a b3 d0 b9 03 b3 05 be d6 bd 18 be
       0.0683109 -0.0003980648 -0.13056569 -0.14916167
000270 52 67 dd 3d 46 df 11 bc a3 cd 6c 3e f1 83 7d bc
       0.108107224 -0.00890333 0.23125319 -0.015473352
000280 24 c3 26 3e 58 95 32 3e 6c d3 42 bd a0 08 88 bd
       0.16285378 0.17439783 -0.04756491 -0.0664227
000290 26 f1 25 bc d3 29 41 be 4c e8 18 be b4 dd eb 3d
       -0.010128295 -0.18863611 -0.14932364 0.11516896
0002a0 fc cf 67 bd e2 70 07 be fe d6 cd 3b b6 38 4c 3d
       -0.056594834 -0.13226655 0.0062817326 0.04985877
0002b0 16 c7 30 be bd 14 05 be 50 30 0f 3c cb 45 80 3d
       -0.17263445 -0.12996192 0.008739546 0.06263312
0002c0 82 cd 9a bd a1 09 c6 bd 0c 69 53 be 5b c0 12 3d
       -0.07558729 -0.09669805 -0.20645541 0.035827976
0002d0 5e 9b c0 3d b6 a7 80 bd ba 55 6c be 63 bd 69 bd
       0.09404634 -0.06281988 -0.23079577 -0.05706538
0002e0 fa 61 f3 3d 21 f1 c3 bc 4f 24 bc bd 68 c9 08 3d
       0.11883922 -0.02391869 -0.09186613 0.0333952
0002f0 47 6b 80 3e 09 25 5a 3e 9d 5f 32 bd 59 f3 ba bb
       0.25081846 0.2130319 -0.043548215 -0.005705279
000300 d9 c3 4d bd 55 7c 3f be d9 a9 b3 bc 5e ea 39 be
       -0.050235603 -0.18699773 -0.021931576 -0.1815581
000310 81 4b 8d bb 38 c2 a8 bd ae dd bd bc 1e 31 1d be
       -0.0043119793 -0.08240169 -0.023176994 -0.15350768
000320 8b 6d dc bd 1d 84 77 3d 0e f8 27 3e af 87 03 bd
       -0.10763081 0.060428727 0.16403219 -0.03211182
000330 6a cb 4b bd 3a da 06 3e cf ae 5f 3e d0 8e 20 3d
       -0.049754538 0.13169184 0.21844028 0.039198697
000340 e5 28 ba 3b eb 45 8b 3c de ce 0d 3e 26 18 01 be
       0.0056811445 0.017001113 0.13848445 -0.12606868
000350 da e9 aa 3d ec 04 95 3d cb 13 1a be bf 66 b6 bd
       0.08345385 0.072763294 -0.15046613 -0.08906316
000360 86 28 2d be d6 de 84 3b 18 2a a7 3d a4 88 ef bd
       -0.1690999 0.0040548844 0.081623256 -0.11695984
000370 56 a9 3b bd 51 bf 1d 3d 62 38 16 3d c2 69 ef 3d
       -0.04581579 0.03851253 0.036674865 0.116900936
000380 fd b2 50 3e 23 38 82 3d 32 58 f5 bd 71 41 ab bd
       0.20380779 0.063583635 -0.119797125 -0.08362091
000390 4c b8 b2 bd 31 a1 1b bd 17 1f 59 3d b5 ea 0b bd
       -0.08726558 -0.03799552 0.053008165 -0.03415938
0003a0 44 88 ed 3d d2 4b 52 bb f4 6e 45 3e 57 92 00 be
       0.11598256 -0.003208865 0.19280607 -0.12555824
0003b0 60 f8 a9 3d 6b 6d 10 3d 17 ac 32 3e 9d 39 fc 3d
       0.08299327 0.0352606 0.1744846 0.12315676
0003c0 0e 4c 6f 3d 5f 2d a8 3d ac 0a bd 3d e6 d6 0c bd
       0.05842214 0.08211779 0.09230551 -0.03438463
0003d0 57 77 a1 bd b1 41 0d 3e 12 f8 27 3d b2 6a 3f 3b
       -0.078840904 0.1379459 0.041008063 0.0029207882
0003e0 cc c8 35 be 7e 2e 1e bd c5 4a b9 3d 1d bb e8 3a
       -0.17752379 -0.038618557 0.09047464 0.0017755959
0003f0 ec 79 86 3c e8 b2 21 be 1d c1 d7 bb 70 e5 0e 3e
       0.016415559 -0.15790904 -0.0065843 0.13954711

weight_hh f4 [192, 64]
000000 3c a8 87 bc 46 86 91 bd 09 ac 8c 3d df 02 f4 3c
       -0.016559713 -0.07105689 0.068687506 0.029786525
000010 6f 4f 8a bd 22 74 2c 3d 3d 2b 19 be ec 80 7d 3d
       -0.06753432 0.04210294 -0.149579 0.061890528
000020 6c f0 0d 3e 99 01 8e 3d c7 8b d7 3d 53 e6 18 be
       0.13861245 0.069338985 0.10524707 -0.14931612
000030 de 9e a9 3d 55 3e ee bb 1e 65 86 3c e4 1d d6 bc
       0.08282255 -0.007270614 0.016405638 -0.0261373
000040 52 88 86 bd c8 05 7f 3d 12 03 10 3d fb 88 12 bd
       -0.0656897 0.062261373 0.035159178 -0.035775166
000050 c9 bc e1 bd 73 10 49 bd ec 82 04 bd 18 a3 e4 3c
       -0.11022336 -0.049087953 -0.03235142 0.0279098
000060 3a ac 06 3d 49 14 e1 3a ea 58 5f bd c8 f9 bc 3c
       0.03287909 0.0017172183 -0.054528154 0.023068324
000070 07 ee 1e 3e 4d c5 d7 bc 52 01 5c 3d 39 cf f7 3d
       0.15520488 -0.026339198 0.053712197 0.121000715
000080 18 d6 15 3e f0 fe 07 bd 7f 51 1a 3d 02 d2 d3 bd
       0.14632452 -0.03320211 0.037675377 -0.1034279
000090 f2 8b fc 3d b9 0b e1 bb 6f db b4 3c 7b 41 22 bd
       0.1233138 -0.0068678525 0.02207729 -0.03961323
0000a0 e9 51 4a 3d d1 cb f1 3d ee ad fe 3d a6 9e e9 3d
       0.04939452 0.11806453 0.12435518 0.11407213
0000b0 5d db a5 3d 30 ab 16 3b 4e 53 fa bc 99 c7 be bd
       0.08098481 0.002299022 -0.0305573 -0.09315414
0000c0 39 77 f2 bd ff d0 14 be 80 78 cd bd 20 dd 6a 3d
       -0.11839146 -0.1453285 -0.10032749 0.057339787
0000d0 32 4a 25 3e 7b 3d 50 bc 3d f5 1b be 57 25 a2 3c
       0.16141585 -0.012709971 -0.1523027 0.019793196
0000e0 1b b4 0f 3d 7d 2a 9b 3c 8e 65 2e 3c 1c 61 03 3d
       0.03508387 0.018941158 0.01064433 0.032075033
0000f0 75 bd 02 3d d3 c4 c9 3d 7c 38 15 3c 52 10 02 be
       0.03191896 0.09851994 0.009107705 -0.12701538
000100 0f c8 64 3d 8e c4 a6 bd dd 90 b3 3d ae 8a c5 bd
       0.055854853 -0.081429586 0.08767865 -0.09645592
000110 8b 67 f4 bd b5 28 a5 bd 11 56 8e bc aa b2 b5 bc
       -0.11933812 -0.08064405 -0.017375024 -0.02217992
000120 92 28 64 3d b0 55 1f 3e d8 da e9 bd 84 6b 83 bc
       0.055702753 0.15560031 -0.11418694 -0.016042478
000130 8d 6d dc bc b5 c4 84 bd 59 60 2f 3d 95 cf 08 3e
       -0.026907707 -0.064828314 0.042816494 0.13360436
000140 03 9c 61 3d 08 6d e9 3d 8c 3c 17 bd a2 cb ed 3d
       0.055080425 0.11397749 -0.036922976 0.116111055
000150 6f dd 83 3d ec 9a b3 3d 68 31 8a 3d eb c2 72 3d
       0.064387195 0.087697834 0.06747705 0.05926792
000160 7e 6d c9 bd e4 bc 7a 3c f1 a8 11 bd 40 db 14 3d
       -0.09835337 0.015303824 -0.035561506 0.036341906
000170 61 80 bd 3d 9b 03 bf 3d 8a 35 ec bc d1 d1 a0 3d
       0.09253002 0.093268596 -0.028834123 0.07852519
000180 e1 12 94 3b bb 72 96 3d 8c 73 d2 bd d4 3d df bd
       0.004518852 0.07346102 -0.10275945 -0.10900465
000190 52 9c ea 3d eb 2c a0 3c 7e e8 85 bb 6d a4 b1 3c
       0.11455597 0.019552669 -0.004086553 0.02168485
0001a0 1d c9 a7 3d fd 93 de bd 29 36 17 3e fc ab 4d bc
       0.08192656 -0.1086807 0.14766754 -0.012553211
0001b0 e3 04 26 bd 5f 08 d6 bd 4a e1 a1 bd de 40 4e bd
       -0.040532004 -0.104508154 -0.079042986 -0.05035483
0001c0 f5 d9 66 3d 27 ef 33 3c 71 3f 07 bd 08 b5 28 bd
       0.056360204 0.010982311 -0.033019487 -0.04118827
0001d0 57 77 48 bd 9d 37 82 3d 61 65 73 3d dd b8 49 3d
       -0.048941936 0.06358264 0.059422854 0.049248565
0001e0 bc 8a da bd 51 80 eb 3d d6 fc 37 bd dd 19 06 3b
       -0.10670993 0.11499084 -0.044918858 0.0020462193
0001f0 45 a2 08 3d 20 b8 fb bd a0 2c 94 3d d5 b9 2d bd
       0.033357877 -0.122909784 0.07235074 -0.04241355
000200 d2 23 b3 bd 9f fe a1 3d 16 56 b4 bc 1a 52 db bc
       -0.087470666 0.07909893 -0.022013705 -0.026772548
000210 b1 cd ef 3c 3f 34 8a bb b5 75 2e 3d 80 2c cb bd
       0.029272886 -0.004217654 0.042592723 -0.09920597
000220 ab 4e 57 3d 8e ac 9e bd df 79 0b be 2e 05 21 be
       0.052565258 -0.07747756 -0.13620709 -0.15724632
000230 c7 9d c0 3d f6 74 14 be 37 78 e3 3d aa d8 26 3d
       0.09405094 -0.14497742 0.111069135 0.04073397
000240 07 11 eb 3b b1 1a 67 bc f2 92 34 bd 38 66 20 3d
       0.0071736607 -0.014105485 -0.04408545 0.039159983
000250 c3 39 2f 3e 16 94 2e bd b6 08 20 bd 60 b1 51 bd
       0.17111878 -0.042621695 -0.039070807 -0.05119455
000260 29 4c 13 be 7f ed d4 3d 31 3f cf bd 51 f9 64 bd
       -0.14384522 0.10396861 -0.10119475 -0.05590183
000270 04 3c 85 bd 0d b2 c6 bc 00 7f d5 b9 5c ca 61 3b
       -0.06505588 -0.024254823 -0.00040721148 0.003445289
000280 fd ef 2a 3d 2c 73 2f 3d 85 19 af bd fb ec c1 bd
       0.041732777 0.042834446 -0.08549789 -0.094690286
000290 12 07 89 3d 1e ec 91 bd b7 21 19 3c 14 59 2d bb
       0.06690802 -0.07125114 0.009346417 -0.00264508
0002a0 f2 55 e6 3d 6a fe a3 3d 84 93 8f 3d 5d 10 ec bd
       0.112468615 0.0800751 0.07010558 -0.115265585
0002b0 09 74 88 bd d8 bd 9c 3d 51 ea a6 3d 0a 54 9e 3d
       -0.06662757 0.07653397 0.08150161 0.07730873
0002c0 90 46 a2 bd fe e2 85 bd ce 7f 18 be a6 d7 01 3d
       -0.07923615 -0.06537436 -0.14892504 0.0316998
0002d0 39 c7 f6 3d 40 42 06 3e 4b 4b 2a be 9e b2 7f bd
       0.120497175 0.1311121 -0.16630284 -0.062426202
0002e0 d6 1b dc 3c c3 a6 00 be 0b 1f f0 bd 7c 47 03 be
       0.026868742 -0.12563615 -0.11724671 -0.12820238
0002f0 82 dc 90 3d cc ef b0 3d 7a fc 48 3d 1d d2 68 bd
       0.070733085 0.086394876 0.049068905 -0.056841005
000300 78 d1 12 bd fa 57 e8 bd d4 c5 2f bc f4 cd c7 bc
       -0.035844296 -0.11344905 -0.010728318 -0.024390198
000310 00 57 da 3d bf 5f 07 3d c8 a1 51 bd 32 52 1d be
       0.10661125 0.033050295 -0.051179677 -0.15363386
000320 e9 a7 c8 bd 3c 2b 84 3c 16 39 67 bd 1d de 48 3d
       -0.09797651 0.016133897 -0.056450926 0.04903995
000330 c8 63 b3 3d 3c 28 8d bd b4 00 f0 3b ed bf 6a bd
       0.08759266 -0.0689244 0.0073243026 -0.05731194
000340 23 b3 aa 3c 19 7c 68 3e 2b d4 82 bd 0c f9 0b 3e
       0.020837372 0.2270359 -0.06388124 0.13669223
000350 db 56 c4 bd b4 4e 09 3e 05 c7 f4 3c 9d 4c ec 3c
       -0.09586879 0.13408929 0.029880056 0.028845126
000360 89 41 c2 3d f1 34 00 be 57 16 9a bd 30 2d 81 bd
       0.09485156 -0.12520196 -0.07523792 -0.06307447
000370 47 4b 0c 3e c8 3e 92 3d 96 58 8d 3d e3 31 11 3e
       0.13700591 0.07140881 0.06901662 0.14179187
000380 55 76 d8 3d d0 30 a1 3d 64 f1 c3 bd 76 73 e8 bd
       0.10569445 0.07870638 -0.09567526 -0.113501474
000390 f3 28 2e 3e 1e 0f 77 3d f7 55 2c 3b 74 2c 32 3d
       0.17007808 0.06031715 0.0026296356 0.043499425
0003a0 05 a5 ad 3d b9 ea d2 bc 7e 6a 86 3c 11 d4 6b bd
       0.084787406 -0.02574669 0.016408201 -0.05757529
0003b0 5e ce 6b bd b4 cf 5b 3d fc 05 8d bd d9 1f 73 3d
       -0.057569854 0.053664878 -0.06885907 0.059356544
0003c0 02 b9 b1 bc 1f 06 12 be 20 1d 13 be 6d af 8c bd
       -0.021694664 -0.14260148 -0.14366579 -0.06869397
0003d0 cc 5d fd 3d 12 75 4d bb d0 f8 32 bd ad f9 96 bd
       0.12371406 -0.0031350297 -0.043694317 -0.073718406
0003e0 e5 b5 1a 3d 6f 24 df bd 66 c9 51 3d d8 19 4f bd
       0.037771124 -0.10895621 0.05121746 -0.050561756
0003f0 fd eb 43 3d b3 de 4c 3d ba 68 ce bb e9 15 18 be
       0.047832478 0.05001707 -0.0062991055 -0.14852108

bias_ih f4 [192]
000000 7d fd 4d bd 02 f7 22 3d 54 71 79 3d bc 2a 90 bb
       -0.050290573 0.039786346 0.060899094 -0.0043996256
000010 ff 65 ad 3d 99 db da 3d c7 13 35 be 53 d5 ad bc
       0.0846672 0.10686416 -0.17683326 -0.021219885
000020 38 79 7e 3a e1 b0 1d 3d a2 3f f0 3d e1 df 63 bc
       0.0009707394 0.038498763 0.11730887 -0.013908357
000030 21 74 4d bc 03 d2 51 bd ce 86 b0 bd 75 14 a4 3d
       -0.012539894 -0.051225673 -0.08619462 0.08011714
000040 9f 8f c1 3d 04 e6 32 bd e5 10 2f 3d be d2 95 bb
       0.09451222 -0.04367639 0.04274072 -0.0045722416
000050 b2 0d f2 bc 32 5f 03 3e 11 10 cc bc ca 6b bf bd
       -0.029547546 0.12829283 -0.024910005 -0.09346731
000060 0f 46 39 bd 19 1d 0d bb a8 04 16 be c7 7c c0 bd
       -0.04523283 -0.0021532236 -0.14650214 -0.093987994
000070 af ec 1e 3d b8 3a 56 bd 80 0b 5e 3b b5 c7 e0 bc
       0.038799938 -0.052302092 0.0033881366 -0.027438978
000080 56 2b 8f 3d a8 23 a5 3d dd 26 21 3e 7b a2 89 bd
       0.069906875 0.080634415 0.15737481 -0.06720444
000090 b4 d4 07 bc 35 ed 92 bc 23 f2 64 3d f9 d5 f2 3d
       -0.0082904585 -0.017935375 0.055894982 0.11857218
0000a0 12 f3 55 bc c1 db f3 3d 66 98 4d bd aa 33 60 bd
       -0.013058441 0.11907149 -0.050194167 -0.05473677
0000b0 9e 62 5d bd 21 b3 89 bc a9 f3 83 3d e1 6b ff 3c
       -0.054049127 -0.016809048 0.06442959 0.03117937
0000c0 54 8f 87 bd 8d 68 c6 bd 7b e5 09 3e d2 a6 cc 3d
       -0.066191345 -0.0968791 0.13466446 0.09992756
0000d0 51 ed 59 3d 0a 3a 8f 3d 2a db a9 3c 5d e9 de 3d
       0.05320484 0.06993492 0.020734388 0.10884354
0000e0 a6 a0 22 3d d3 5b 9b 3d e7 43 3b bd 8d 1f cb 3c
       0.039703988 0.075858735 -0.045719054 0.024795318
0000f0 26 42 86 bd 44 f1 f4 3d 3b bc b7 bd 3e 48 6d 3c
       -0.065555856 0.1196008 -0.08971449 0.014482556
000100 61 83 7b 3d 1e 61 f3 3b f4 06 dc bd 85 71 d9 3d
       0.06140459 0.0074273488 -0.10743514 0.10617355
000110 ff 10 c4 3d 9b cb c6 3d a5 f2 00 3c 5c 02 88 3d
       0.09573554 0.097068034 0.007870351 0.06641075
000120 9d 22 c9 3c a2 cc cc bd 00 00 a4 3c c4 0a 68 bc
       0.024552638 -0.09999968 0.020019531 -0.014162723
000130 b7 fe 81 3d 7c 2c 40 bd ac ed 8e bd fc 4f 10 3d
       0.06347411 -0.046917424 -0.06978926 0.03523253
000140 9e 00 14 3e de be 81 3c 22 d2 1c bd fc 6f 14 3d
       0.1445336 0.015838083 -0.038286336 0.03623961
000150 2a 5f ce bc 82 04 26 bd 28 73 8a 3d a4 ea ba bd
       -0.025191862 -0.040531643 0.067602456 -0.091267854
000160 f7 20 69 bd 1b e1 e3 3d d9 76 a6 bc 7b 6c 54 bc
       -0.056916203 0.1112692 -0.020320343 -0.012965317
000170 5c d5 dc bd a6 15 5f 3d 51 a0 20 be e9 06 e5 bd
       -0.107828826 0.054464005 -0.15686156 -0.11182959
000180 61 f6 a5 3c 18 5c ba bd 1e b8 29 3d 3c 19 a3 3d
       0.020259084 -0.09099597 0.041435353 0.079637975
000190 4d a1 2d 3d 7d 44 94 bd 36 91 33 bd d3 b4 2b bd
       0.042390157 -0.072396256 -0.043839656 -0.041920494
0001a0 26 9b 2f bc 96 07 06 3e 2e 83 a6 bd a5 2c cf 3c
       -0.010718143 0.13088831 -0.08130489 0.025289843
0001b0 3a be 63 bd d0 bb 01 3e 51 2a 88 bc eb 03 09 be
       -0.055601336 0.12669301 -0.01662174 -0.13380401
0001c0 39 9c 94 bd 72 63 13 be 13 e1 a3 3d 24 24 c7 bd
       -0.072563596 -0.14393404 0.08001914 -0.0972369
0001d0 cc dd ac 3d ed 26 83 3c e4 b9 aa 3c 3f 41 c4 bc
       0.08440742 0.016009772 0.020840593 -0.023956893
0001e0 e4 2c 73 3c 7d 52 dc b9 84 4e 30 bd 42 dd a7 bb
       0.014842246 -0.00042023128 -0.04304363 -0.0051228115
0001f0 76 df c2 bc 7e e2 12 bd 22 51 2b bc 58 22 2d bd
       -0.023788195 -0.03586053 -0.010456355 -0.04226908
000200 dc df 28 3c 38 30 05 3e ce 68 04 3e 14 fc f8 3d
       0.0103072785 0.13006675 0.12930605 0.12157455
000210 ab 6a bc bd fa 11 ea 3d a3 2d 63 bd 3a 8e 9f 3d
       -0.09200033 0.1142921 -0.055463444 0.077907994
000220 6a e1 e5 bd 27 8b 88 bd a3 ca 56 3d f5 25 8d bd
       -0.11224635 -0.06667166 0.052439343 -0.06892005
000230 92 03 97 bd 54 8a bf b9 07 65 0d 3c 27 ef 01 bc
       -0.07373728 -0.0003653342 0.008630044 -0.0079305535
000240 1d 6e 93 bb b7 f0 d3 3d ef cc c2 3d 4b 3d 3e bd
       -0.0044992105 0.10348647 0.09511744 -0.046445172
000250 68 ec 05 bd c8 ea 38 3d d3 3b 86 3d 5b 4e ab 3d
       -0.032696158 0.04514578 0.06554379 0.083645545
000260 5a cc 38 3d f6 6a df 3b 7b a8 c2 bd 0d 2b 83 3c
       0.04511676 0.0068181707 -0.09504791 0.01601174
000270 24 40 64 bc 40 fa 37 3d 9e a6 7b 3c f3 a3 8f bd
       -0.013931308 0.04491639 0.015359549 -0.07013693
000280 99 51 a0 3c 06 7f 64 bc c3 82 a2 bd 23 9a 92 3d
       0.019570159 -0.0139463 -0.07935097 0.071583055
000290 44 ae e4 bd 08 d7 0c be 10 f4 e2 3c 2d 15 cf bd
       -0.11166051 -0.13753903 0.027704269 -0.10111461
0002a0 1e 6a 25 3c 55 c0 2e 3d 7e e8 8f bd bd 39 77 3d
       0.010096101 0.04266389 -0.07026766 0.060357798
0002b0 bf 4e 6c bc e1 b2 a6 bd eb d8 8c bd b0 65 31 3d
       -0.014423071 -0.08139587 -0.06877311 0.043309867
0002c0 ba 69 0c 3d c0 2d b6 bd 17 34 72 bc d6 36 8d bd
       0.034280516 -0.08895445 -0.014782927 -0.06895225
0002d0 be fb a2 3d d4 5d ea 3c 84 ed b8 3d 74 8d 13 be
       0.07958172 0.028609194 0.090296775 -0.14409429
0002e0 56 64 89 bd 6d 74 a9 3d 55 85 9b 3d c7 05 01 3e
       -0.06708591 0.082741596 0.075937904 0.1259986
0002f0 d2 68 ba bd 17 93 d7 3d 63 df 14 3e 3c 19 93 bd
       -0.09102024 0.10526102 0.1453834 -0.071825475

bias_hh f4 [192]
000000 83 e2 d6 bd 35 63 8e 3d aa d6 1f 3d be 13 8e 3d
       -0.104924224 0.06952516 0.03902308 0.06937359
000010 07 35 a4 bd f7 be a6 3d f6 44 da bd f9 29 92 3d
       -0.08017927 0.081418924 -0.106576845 0.07136912
000020 88 03 84 3d 89 7b 19 3d 1c 75 8d 3b 47 e9 9f 3c
       0.06445986 0.037471328 0.004316939 0.019520415
000030 16 b1 f7 bc 3d b3 b1 bd 11 07 88 bb a4 61 b4 bd
       -0.030235808 -0.08676765 -0.004151233 -0.08807686
000040 0c 6f 75 3d d0 28 8c bd 0b 0c 45 3d 09 11 dd 3d
       0.059920356 -0.06843722 0.04810719 0.10794265
000050 7b 6d ea 3d e9 a7 07 3e 5f b4 b1 3d a7 79 11 bd
       0.11446663 0.13247646 0.08676981 -0.035516407
000060 bb f2 f5 bd 5e f3 16 3c b3 20 d2 bd e8 83 61 bd
       -0.12009188 0.009213297 -0.10260143 -0.055057436
000070 ad 57 c6 bc a2 f9 fd 3b ea a8 fc 3a d2 9b 9e bd
       -0.024211729 0.007750706 0.0019276415 -0.07744564
000080 e4 ea 1a 3e 7e de d5 3c bc 1c 42 3a 41 32 0e 3e
       0.15128666 0.02610707 0.00074047945 0.13886358
000090 71 ae 00 be 47 70 9b 3d a1 01 5f bc fd 79 c7 3d
       -0.12566544 0.075897746 -0.013611228 0.09740064
0000a0 dc 36 5e bd 5e f4 1c bd 5d 06 f6 bd 7b ea 2f 3c
       -0.054251537 -0.038318984 -0.120129324 0.010737057
0000b0 7f 45 d5 3a dd e4 6a 3d 16 22 06 3e 2e 64 a7 bd
       0.0016271322 0.057347167 0.1309894 -0.08173405
0000c0 18 6a 19 3e 2c be 88 bd 15 3f 04 3e 78 af ce 3d
       0.14981878 -0.066768974 0.12914689 0.10092062
0000d0 a3 1e 93 3d d0 c5 d2 3d 4d 43 c0 3d df d1 8e 3d
       0.07183578 0.10291636 0.093878366 0.069736235
0000e0 d8 e4 24 be e3 65 02 3e 69 f1 11 3d 31 ec 99 3d
       -0.16102922 0.12734179 0.035630617 0.07515753
0000f0 e2 79 77 3d 5c 02 ee 3c 34 77 6c bd 3a 60 cd bd
       0.06041897 0.02905386 -0.05773087 -0.100281194
000100 45 d6 ed bc aa c2 da bd 7a 15 dc bd 05 f7 bb 3b
       -0.029032836 -0.106816605 -0.10746284 0.005736234
000110 17 7f 64 bd ef ec 6d 3d 6d 75 31 3c eb 4c a8 bb
       -0.055785265 0.058087286 0.010831219 -0.0051361225
000120 0c 9c 02 be 1e 5d 29 be 06 05 7e bc df 0c 1a bc
       -0.1275484 -0.16539428 -0.015504127 -0.009402483
000130 a3 46 ef 3d bc be be 3d 8e 23 4e bd 28 1c 0c be
       0.11683395 0.093137234 -0.050326876 -0.13682616
000140 5a 0f 39 bb f4 53 9b bd e3 44 9a 3d 3f 7e 99 bd
       -0.002823791 -0.07584372 0.0753267 -0.07494783
000150 06 31 9c 3d 08 6f 14 bc c6 c6 7f 3d 87 a3 4f 3d
       0.07626538 -0.009059675 0.062445424 0.05069306
000160 0f 3b ec bd d1 81 c5 3c f8 f4 0b 3c 4d 6b 11 bc
       -0.11534702 0.024109753 0.008542292 -0.00887568
000170 ba 22 be bd 08 34 85 3c 16 6d 95 3d 27 c2 d6 bd
       -0.09283967 0.016260162 0.07296197 -0.1048625
000180 0b a7 0e be 4e e9 cc 3b 2e f4 23 bd 7f cc f1 3c
       -0.1393091 0.006253398 -0.04002779 0.029516457
000190 4e 09 2d be 55 9f a9 bd 2d 97 b3 bd 62 2e 82 3d
       -0.1689808 -0.08282343 -0.08769069 0.06356503
0001a0 c0 02 cf bc b8 4c 5f 3c e0 be b3 bd 94 b5 05 be
       -0.025269866 0.013629131 -0.08776641 -0.13057548
0001b0 6b c6 ab bb 23 4a f6 3b d5 f9 07 bd eb 0f 3f be
       -0.005242159 0.007516162 -0.033197243 -0.18658416
0001c0 4b bf b3 bd 34 f2 0e bd 57 c9 b7 3d 73 59 62 bd
       -0.087767206 -0.03489895 0.089739494 -0.055261087
0001d0 2a 2d b2 3c dc 38 17 3c fb c7 04 be 4a 8d 0f be
       0.021750052 0.009229865 -0.12966911 -0.14018741
0001e0 f9 f9 dc 3d b1 a2 b3 3d 47 81 a4 3d d4 7a 92 3c
       0.10789866 0.08771265 0.0803247 0.017880835
0001f0 51 07 58 3d 97 5b c2 bd a8 8b 6d 3d 1f 0d ab 3d
       0.052741352 -0.094901256 0.057994515 0.08352112
000200 76 2e 6f bc 54 9a 9f 3d 47 18 eb bd 5b ad cc 3d
       -0.0145984795 0.07793108 -0.1147924 0.099940024
000210 4b b9 91 3d 22 44 bf bd d2 b3 ad bd 23 b0 c8 bd
       0.0711542 -0.09339167 -0.08481564 -0.097992204
000220 5a d9 be bd 2b db 47 bd 11 bc c5 3b b9 d6 82 bc
       -0.093188 -0.048793 0.006034382 -0.015971528
000230 ee 9f 7c 3d 78 75 aa 3d 47 3e c2 bc 3a 51 ed 3c
       0.06167596 0.08323187 -0.023711337 0.028969396
000240 39 72 a0 bc 78 b9 a9 bb 6c 41 97 bc 09 4d 90 bd
       -0.019585716 -0.0051795803 -0.018463813 -0.07045943
000250 7f 03 18 be 86 44 74 3d a2 b4 8b bd 0f 88 c6 3d
       -0.14845084 0.05963566 -0.06821562 0.0969392
000260 a0 a9 8e 39 6d 2d e4 3b 2d c9 a4 3d 03 d6 f7 bc
       0.0002721073 0.006963423 0.08046184 -0.030253416
000270 f2 b7 b6 bc 2d be 85 3d 93 14 0d 3e 4b a8 ba bd
       -0.022304509 0.06530414 0.1377738 -0.091141306
000280 37 f1 0b 3e 84 20 dc 3b 11 93 66 bd 95 15 9f 3d
       0.13666235 0.0067177434 -0.056292597 0.07767788
000290 bc d1 1f be 04 30 8a 3c 65 f9 eb bd c5 32 b0 3d
       -0.15607351 0.016868599 -0.115221776 0.086034335
0002a0 93 55 72 bc 01 bf 1a 3e ba 83 8e 3d 30 18 cd 3c
       -0.01479091 0.15111925 0.069587186 0.025035948
0002b0 ad c5 b9 3c 3b 82 cb 3c 8a 56 e6 3c a5 f6 16 3e
       0.022677267 0.024842372 0.028117437 0.14742525
0002c0 90 78 01 be 8e 85 bc bb 0b 85 c3 3d 33 96 56 3e
       -0.12643647 -0.0057532256 0.0954686 0.20955734
0002d0 d7 cb dc 3d 65 4c 89 bd 68 70 eb 3c 01 66 c8 3c
       0.10781067 -0.06704024 0.028740123 0.024462702
0002e0 20 10 07 3d 45 67 87 3c 7c c2 38 3d 28 00 0f 3e
       0.032974362 0.016528735 0.04510735 0.13964903
0002f0 b4 04 44 bd e6 23 c9 3d 97 e6 4b bd 60 c6 0a bb
       -0.047856048 0.098213 -0.049780454 -0.002117537

weight f4 [64, 64]
000000 dc a2 33 be 85 dd d4 3d e8 9e c7 3d be 52 e9 3d
       -0.17542595 0.10393814 0.09747106 0.11392735
000010 17 56 ad bd 6d 2c 39 be 21 c2 d3 bd f7 3a 9e bc
       -0.08463686 -0.18083353 -0.103397615 -0.019315226
000020 ba 12 30 3a a6 2a 69 3e 74 99 be bd 9c eb 2f be
       0.00067166577 0.22770175 -0.093066126 -0.17179722
000030 45 8d c5 3d 46 d8 c0 bb 0a 09 24 3e 01 f9 9b bd
       0.09646086 -0.005885157 0.16019073 -0.07615853
000040 fe 7e 21 bd 34 66 b3 3d 60 7e f4 bc 7b 8a b9 3d
       -0.03942775 0.08759728 -0.029845417 0.09059616
000050 90 57 bb 3d fb e3 5e 3d 6d cd e5 3d 2b 6d 8d bc
       0.091475606 0.054416638 0.112208225 -0.01726397
000060 e7 60 47 bd 5a af 87 3b 41 fb 32 be a5 20 57 be
       -0.048676398 0.0041407766 -0.17478658 -0.21008547
000070 23 9d 27 3e 52 57 95 bc 0e 7e 12 bc 22 1d 87 bd
       0.16368537 -0.018230114 -0.008941187 -0.065973535
000080 38 13 f0 3d 1a 19 1f 3e 8b 46 bb bd b6 1c 08 3e
       0.11722416 0.15536919 -0.091443144 0.13292202
000090 ec 3d 40 3e 81 fa 8a 3b b3 9e 89 bd ef 89 d4 3c
       0.18773621 0.004241288 -0.067197226 0.025944678
0000a0 b9 83 a8 3d 14 b1 c3 bd 59 58 3a 3e f3 64 e5 bd
       0.08228249 -0.09555259 0.18197764 -0.11200895
0000b0 48 76 4c bd bd 30 f4 bd f3 89 d9 bd 0c d4 e1 3d
       -0.04991749 -0.119233586 -0.10622015 0.11026773
0000c0 34 5b 05 be 16 e6 43 be ba e2 fb bd f5 09 ae bd
       -0.13023072 -0.1913074 -0.12299104 -0.08497993
0000d0 54 8b d4 bc a9 9d 02 bd ae e0 e5 bd c5 00 26 3e
       -0.025945343 -0.031888638 -0.11224495 0.16211231
0000e0 63 6e 1d 3e 82 de 9d bd 1d 0b 92 bd 92 39 5b 3d
       0.1537414 -0.077084556 -0.07131026 0.0535217
0000f0 16 2b 28 bd 79 34 96 3d 67 ec d0 bd 48 a4 69 bd
       -0.041056715 0.07334227 -0.1020134 -0.057041436
000100 e1 51 b8 bd fd a3 25 bd 87 b2 df bd 33 34 c2 bc
       -0.08999992 -0.040439595 -0.10922723 -0.023706531
000110 c0 89 50 bd 48 10 68 3d a6 aa 4c 3d b2 c7 c6 3d
       -0.05091262 0.056656152 0.04996743 0.097060576
000120 ec f0 db 3d 06 e2 06 3e ee 84 54 bd c2 50 dc bd
       0.107393116 0.13172159 -0.051884584 -0.10757591
000130 cf ba 95 3d b9 81 09 be ee 8e bd bd 88 9f d5 3c
       0.073110215 -0.13428392 -0.09255777 0.026077047
000140 62 b1 0c be 39 ef 7f bc 66 ad c0 bd 6f c5 e9 3c
       -0.13739541 -0.015621 -0.09408073 0.028536526
000150 e6 21 11 bd b3 e4 26 3d e3 40 ae 3d c6 ec f7 bc
       -0.03543272 0.04074545 0.0850847 -0.03026427
000160 6e a6 50 3d a6 5a f6 3c e3 7b 91 3d 90 0e 9b bd
       0.05093997 0.030072521 0.07103708 -0.07571137
000170 76 80 dd bc 60 65 c3 3c b8 87 41 bd 64 10 42 3d
       -0.027038794 0.02385205 -0.047248572 0.047378913
000180 34 4d 50 bc 80 1d 05 3e 5c 9a d9 bd 28 cc 38 3d
       -0.012713719 0.12999535 -0.10625145 0.045116574
000190 1c 8b 8a bd a1 5f cc 3d b6 11 c8 3d 08 2d b2 bc
       -0.06764814 0.09979177 0.09769003 -0.021749988
0001a0 90 e4 a2 3d e5 0f fa bd fa 19 00 bd 1d 50 7b bd
       0.07953751 -0.12210063 -0.031274773 -0.0613557
0001b0 c4 fc ca bc 02 14 d9 3d b1 58 b4 3d 79 09 ea 3d
       -0.024778731 0.10599519 0.08805979 0.11427588
0001c0 94 b2 80 3b 6b 41 94 3d e7 c3 cb 3c 72 0b 11 bd
       0.003927538 0.0723904 0.024873687 -0.035411306
0001d0 41 cb 57 bd a2 f7 a6 bd ad dc dd 3d 40 2b db bd
       -0.052684072 -0.08152701 0.10833106 -0.10701609
0001e0 ba bc 5a bd 53 3c cf 3c 03 75 84 bc 15 57 db 3d
       -0.05340264 0.02529732 -0.016169077 0.10709969
0001f0 aa fc 6d 3d 06 7c c2 bd bb 75 93 3d 11 b1 39 bd
       0.058102287 -0.09496312 0.0720019 -0.04533488
000200 16 4a 4a bd 25 bb 24 3e 40 5a 1d 3e 05 42 f6 3d
       -0.04938706 0.16087015 0.15366459 0.12024311
000210 19 fa 8d bd 14 1b 34 3d 9d 8c ab bd 87 18 5e 3d
       -0.06932468 0.043971136 -0.08376429 0.05422261
000220 44 1e 8c 3d f3 4b b6 bd 44 8c 2b 3d e1 49 8c 3d
       0.0684171 -0.08901205 0.041881815 0.06850029
000230 f0 a8 11 bd 91 a7 a2 3d c0 22 17 bd 26 b5 e3 bd
       -0.035561502 0.07942117 -0.036898375 -0.11118536
000240 e1 c8 df 3d 11 09 b8 3d 4e 5e 2d 3d 2f 27 98 3d
       0.109269865 0.08986104 0.042326264 0.07429349
000250 3f 45 95 bd 47 4d c2 bd ba 5b bb 3c d0 da 9a 3d
       -0.07288598 -0.09487396 0.022870887 0.075612664
000260 e6 ed c3 3d 01 17 bb 3d c9 ff 89 3d 7c b6 af bd
       0.0956686 0.09135247 0.0673824 -0.08579728
000270 21 05 9e bd 8e 9f af 3d 4e f3 ab bd 22 cf 16 be
       -0.07715822 0.085753545 -0.08396016 -0.14727452
000280 2f 37 9b bc 61 fb 9b bd 4e 7f 86 bc 7c 37 87 bd
       -0.018947212 -0.07616306 -0.016418125 -0.0660238
000290 02 58 b1 3d d3 9c a5 3c 0a cb 87 bd 2a 91 14 bd
       0.08659364 0.020216381 -0.066305235 -0.03627125
0002a0 c6 ce 19 be 52 40 52 bc e1 d4 af bd 95 5c f6 3c
       -0.15020284 -0.012832718 -0.08585525 0.030073443
0002b0 2c ea d5 bd b2 d1 ff 3c e3 25 2a 3d 88 99 d1 bd
       -0.10445055 0.03122792 0.041540038 -0.10234362
0002c0 8c 13 e9 3d 4c 6e 97 bd 75 df 1a bb 65 47 8b 3d
       0.113806814 -0.07394084 -0.0023631726 0.06800727
0002d0 fd bf d8 bd 1a ea 92 bd a7 ab b9 3d ce 50 21 be
       -0.10583494 -0.071735576 0.09065943 -0.15753481
0002e0 2b 12 f0 3c 77 12 a2 3d f9 28 a8 3d 04 60 d9 3d
       0.029305538 0.07913678 0.0821094 0.10614017
0002f0 a9 8d 5e bd b5 28 0d 3e fa 31 f8 3d f9 0a 3d 3d
       -0.054334316 0.1378506 0.12118907 0.046153042
000300 7a 7e 40 3d 21 38 87 3d 85 cb 11 3d 72 76 83 3c
       0.046995617 0.066025026 0.035594482 0.01604769
000310 b5 2d 0c be a0 a9 28 bd fc e3 43 bd 12 68 a1 bc
       -0.13689311 -0.041177392 -0.047824845 -0.019702945
000320 00 b3 20 3d ca d0 34 bc 72 15 9a bd 12 01 04 bc
       0.039233208 -0.011036107 -0.075236216 -0.008056896
000330 f7 c8 3e bd 7d cb 8c 3c 8f 6f 7d 3d 08 c9 5c bd
       -0.046578374 0.017186875 0.06187397 -0.053902656
000340 79 3c 88 bd d8 d6 df bd 3d a3 b8 bd 6a 6b 1b 3c
       -0.06652159 -0.1092965 -0.0901551 0.009486059
000350 89 95 85 bc 46 f4 1a 3c 04 31 aa 3d 85 0c 47 3c
       -0.016306655 0.009457653 0.0831013 0.012148981
000360 7e ca 07 3d e3 fe 55 bd 0d ce f9 3d a0 f2 ff bc
       0.033152096 -0.052245032 0.12197504 -0.031243622
000370 41 d9 ca 3d 2e e8 f4 3c 61 48 02 3d eb a5 c4 bd
       0.09904719 0.029895868 0.031807307 -0.09601959
000380 9a ff 73 3d 46 bc 16 bd fd b9 9f bd 7e c0 94 3d
       0.059569933 -0.036800645 -0.07799146 0.072632775
000390 b2 3e 35 bd 5e d2 86 3d c1 67 45 3d 00 9d db 3d
       -0.044249244 0.06583093 0.04819465 0.10723305
0003a0 98 bf 2e 3c 8c 6c 0a be e9 8e 00 3e a1 9b f1 3b
       0.010665797 -0.1351797 0.12554516 0.0073732887
0003b0 5f ba bf 3d 17 6e 8b b9 e6 5c e4 3d 6e 3e b3 3d
       0.09361719 -0.0002659417 0.111505315 0.08752142
0003c0 66 97 31 bc 7d 5d 8e bc c2 96 8e bd 90 50 b0 3d
       -0.010839319 -0.017378563 -0.069623485 0.08609116
0003d0 a8 b0 c5 3d c6 d7 7c 3d 1f 0e ab bd 55 bd ac 3d
       0.09652835 0.061729215 -0.08352303 0.0843455
0003e0 d8 bb e0 3d d8 58 43 bd d9 c9 db bc 62 45 00 be
       0.10973328 -0.04769215 -0.026829647 -0.12526467
0003f0 86 bf 6a 3d 6e 76 ad bd bc fd 0b be f5 d7 38 bd
       0.057311557 -0.08469854 -0.1367101 -0.045127828

bias f4 [64]
000000 c0 b6 9f 3c a6 79 0a be 0d a7 1c 3e 24 c3 29 bc
       0.019496322 -0.13522968 0.152981 -0.010361467
000010 79 b7 02 3e fe e6 cf bd 0c 6d ac bd c6 76 9e ba
       0.12765302 -0.1015148 -0.084192365 -0.0012089841
000020 2f ed 92 3d 7f c8 02 be c5 5a 0a 3d bc f1 c5 bd
       0.071741454 -0.12771796 0.03377797 -0.09665248
000030 0f 30 f1 3c df ab 19 3e 7e 21 6a 3d 89 60 90 3d
       0.029441861 0.1500697 0.057160847 0.070496626
000040 ae 29 c6 3b e2 f8 6e bd 02 58 fe 3c f2 be d7 bd
       0.006047449 -0.058342822 0.031047825 -0.10534467
000050 77 7d 24 be 2a 86 08 be a1 4e 0c bd ea 4c e2 bd
       -0.16063486 -0.1333243 -0.034254674 -0.110498264
000060 6f a5 cf bd 7f 8d 7c 3d 79 30 13 3e 3f 17 bf bd
       -0.10138976 0.06165838 0.1437396 -0.09330606
000070 a6 a3 5e 3d cc 59 57 bd c8 b7 c4 bd 90 f7 07 bd
       0.054355286 -0.05257587 -0.09605366 -0.03319508
000080 43 72 03 3e 4d 82 90 bd 6c ef 5b 3d 70 b3 a5 3d
       0.12836556 -0.07056103 0.053695127 0.080908656
000090 92 07 e4 bd ea 32 bf 3d c8 19 87 bb a6 13 82 3d
       -0.111342564 0.09335883 -0.0041229464 0.06351404
0000a0 71 4f d2 3c d0 01 c1 3b ed c5 11 bd 73 d0 08 3e
       0.025672646 0.0058901086 -0.035589147 0.13360767
0000b0 a6 8e c8 3c 85 0d d6 bd bd 00 b3 3d 0d e4 1e bd
       0.024482083 -0.104517974 0.08740375 -0.038791705
0000c0 31 74 ee bc e9 61 78 bb aa 43 04 3e 74 ef d7 3b
       -0.029108139 -0.0037900156 0.12916437 0.0065898243
0000d0 52 49 da 3d ce 28 e6 3b 31 40 47 3c d3 1e 51 bc
       0.10658516 0.0070239073 0.0121613005 -0.012763697
0000e0 99 ce fb bd 93 7c ce bd 53 57 85 3d 13 f4 64 3d
       -0.12295265 -0.100823544 0.065107964 0.05589683
0000f0 88 29 3f bd 2c f7 60 3c fa b3 35 bd 77 1f da bc
       -0.046670467 0.013730805 -0.044361092 -0.026626332

weight f4 [1, 64]
000000 ef ce 5b be fe 51 47 3d e5 8b 16 3e 2b 73 ed bc
       -0.21465658 0.04866218 0.14701803 -0.02898558
000010 95 6e 98 3d 29 6b a7 3d d1 f2 6d 3e b4 7f f6 3c
       0.07442967 0.08174736 0.23237158 0.03009019
000020 80 28 2c 3e fa 28 d9 3c d0 16 92 be 53 9c 59 be
       0.16812325 0.026508797 -0.2853303 -0.21251039
000030 33 1e eb 3d f2 ba 7d 3d d6 cf 86 be 39 47 4c be
       0.114803694 0.061945863 -0.2633044 -0.19949044
000040 db cd c4 3d 72 08 d7 3c 93 5d f8 3c 7e 66 b6 3d
       0.09609576 0.026249144 0.030318057 0.089062676
000050 50 20 b9 3d 05 49 0e 3d 7e 53 00 bc c2 4b bb bc
       0.09039366 0.034737606 -0.007832406 -0.022863273
000060 98 20 a0 3d 9d ee 0f be d8 da 55 3d 5c 2d 68 3b
       0.07818717 -0.14055867 0.05221066 0.0035427427
000070 9c c2 d5 3d 67 7a 2e be b6 45 9d 3d 1f 1b 95 3d
       0.104375094 -0.1703888 0.07679312 0.072805636
000080 42 12 b3 3d 02 cc 9c be 39 38 7c be 25 0f 21 3d
       0.08743717 -0.30624396 -0.24630822 0.039321084
000090 72 0b eb 3d 92 8a f0 bd ce 12 af 3c 6d fb 32 be
       0.114767924 -0.1174518 0.021371271 -0.17478724
0000a0 ba f1 74 3d a7 4c 97 3d 34 08 b5 bd e6 ac 2b be
       0.05980084 0.07387667 -0.08839455 -0.16765174
0000b0 7b 9e 50 be 67 7e 14 3e da a5 9f be bf 20 38 3e
       -0.20372956 0.14501344 -0.31181222 0.17981242
0000c0 24 2c a6 3d d1 48 36 be fb f6 18 3e 59 69 6b be
       0.08113888 -0.17801215 0.14937966 -0.22989406
0000d0 ef 25 a7 3d 9d 07 25 3b cd fa 1c 3e f8 46 2b bd
       0.08161532 0.002518154 0.15330048 -0.041815728
0000e0 de b8 18 be da 49 5e 3e b4 5b a3 3d 35 fd ff 3c
       -0.14914271 0.2170786 0.07976475 0.031248668
0000f0 8e 09 48 bc 7c 01 04 be b0 3c 60 be d5 4c 8e be
       -0.012209309 -0.12891191 -0.2189815 -0.27792993
