classification/checkpoints/stargazer_4layers.pt (torch, 126404 bytes, 9 tensors)

weight f4 [64, 1]
000000 c7 8c 05 bf 96 46 1e bf 54 aa 30 3f 07 ec f2 3e
       -0.52167934 -0.61826456 0.690099 0.474457
000010 fd b3 ff 3d 48 7f 1f bd 59 93 58 be 0c 65 ee be
       0.12485502 -0.038939744 -0.21149959 -0.46561468
000020 d4 17 5b be 15 82 dc 3e bc a4 92 be 80 67 80 3f
       -0.21395808 0.43067995 -0.28641307 1.0031586
000030 f0 a6 43 3e ad 3d 5b 3f 21 b4 47 3f 6e de 3f bf
       0.1910665 0.85640985 0.7800923 -0.74948776
000040 f7 79 89 bf 21 06 23 bf c9 1c 6c bf 13 99 83 bf
       -1.0740346 -0.63681227 -0.9223142 -1.028109
000050 21 23 6c bf 9e a7 8a bf 5e 99 ec 3e b6 f6 16 be
       -0.922411 -1.0832403 0.4621076 -0.1474255
000060 85 d4 29 3f d2 3a 60 3d 69 05 23 be 14 8f a3 be
       0.66339904 0.054743595 -0.15920033 -0.31945097
000070 af ac ac be 8f 15 c5 3e 81 1a 08 bf 60 35 3d 3e
       -0.33725497 0.3849301 -0.5316544 0.18477392
000080 f8 8f 67 bf ac f9 f4 3e 9c 4f fe be 9f 45 04 be
       -0.90454054 0.47846735 -0.49670112 -0.12917183
000090 61 d2 a3 be 2c 0c 3b 3f 72 80 be 3d cc 9f d0 3e
       -0.31996444 0.7306545 0.09301843 0.40746915
0000a0 bf 2e 94 3e 90 7b ae 3e 8b 15 1d bc 7d 5d 3b be
       0.28941914 0.34078646 -0.009587656 -0.18297382
0000b0 3c d1 d4 3e ae f8 11 bf c2 55 05 3f 4f de 4a 3f
       0.41565883 -0.5702008 0.5208398 0.79245466
0000c0 15 3a 2f 3f 03 20 e0 3e 8f f8 9b be 4a c2 42 bf
       0.68448 0.43774423 -0.30463073 -0.7607771
0000d0 eb d1 ef bd 5d bf ab 3e 5c 75 aa 3e d7 64 ac be
       -0.117099606 0.33544436 0.33292663 -0.33670685
0000e0 cb bc 5e be b4 68 81 bf 36 bc bf 3e a7 f9 4d 3f
       -0.21751706 -1.0110078 0.3744828 0.80459064
0000f0 ba fb 6a 3f e5 0a 69 bf 1e d9 4e 3f 20 d0 3a 3e
       0.91790354 -0.9103225 0.80800045 0.18243456

bias f4 [64]
000000 ca 82 31 bf ac 55 c0 be 1e 64 be be a7 0e fa 3e
       -0.69340193 -0.37565362 -0.37185758 0.48839304
000010 53 27 74 3f 6e 4c 7a 3f 35 a1 2a bf ea f7 6a 3f
       0.95372504 0.9777287 -0.6665223 0.91784537
000020 86 b1 80 bf 96 c4 d7 3d b6 ce 81 3f a1 eb 62 bf
       -1.0054176 0.10535543 1.0141208 -0.8864079
000030 df 2f 94 be dd 10 44 3f 9d a1 4a bf ba 2d 28 bf
       -0.28942773 0.7658823 -0.7915285 -0.65694773
000040 5c 13 07 be 10 da 80 be 58 d0 79 3f 09 5a 32 bf
       -0.13190979 -0.25166368 0.9758353 -0.6966863
000050 98 c7 7d bf f0 6a a9 be 3f 83 6f 3f 23 d1 2c 3e
       -0.9913268 -0.330894 0.9355964 0.16876654
000060 06 21 2b 3f c3 ce 60 3f 34 3f 54 3f 57 f8 39 3f
       0.66847265 0.87815493 0.8290894 0.7264456
000070 82 7c f1 be b9 31 7d bf 98 1e 51 3f 61 ac 8f 3f
       -0.47165304 -0.98903996 0.8168731 1.1224481
000080 fe 20 52 bf 41 60 42 3f 97 0e 3d bf 82 cd 2f bf
       -0.8208159 0.7592812 -0.7385039 -0.68672955
000090 a8 71 53 3f e9 39 2b 3f 81 16 7b 3f 1d f6 7c 3f
       0.825953 0.6688524 0.98081213 0.9881304
0000a0 fc 3d 19 bf ba c2 04 bf 30 33 9b be d9 5f 83 bf
       -0.59860206 -0.5185963 -0.3031249 -1.0263625
0000b0 18 af 7e 3f 4f 8f 44 3f 96 cb 2e 3f de e6 8a 3f
       0.9948592 0.7678117 0.682794 1.0851705
0000c0 13 84 13 bf 4f 51 1d 3f a3 92 5c bf be 61 59 3f
       -0.57623404 0.6145219 -0.8616125 0.8491477
0000d0 54 26 5c be 37 8e e5 3e b2 fd 5d bf 5d e6 7a be
       -0.21498996 0.44835064 -0.86715233 -0.24501939
0000e0 ea 6b aa be fa 9a 57 be 15 9b 5c 3f 3e ef 7f bd
       -0.33285457 -0.21055213 0.86174136 -0.06248402
0000f0 d4 4a 55 3f 48 7b 01 3d ca 50 a2 bd c2 8e 39 bf
       0.83317304 0.03161171 -0.079255655 -0.72483456

weight_ih f4 [192, 64]
000000 c2 1e a9 bd d7 c3 c6 bd 4d 56 08 3d 33 50 e6 3d
       -0.0825782 -0.09705322 0.033285428 0.112457655
000010 76 fa af bd 57 a6 b8 bd b4 96 a3 3d 6e ab 77 be
       -0.085926935 -0.09016102 0.07987729 -0.24186489
000020 64 09 26 be d6 ca a7 3c 09 60 b8 bd 5d 96 2b 3d
       -0.1621452 0.020482462 -0.09002692 0.041891444
000030 3f b1 7b be 02 a7 e8 3c 2e 32 02 3e 8e 0e c3 3d
       -0.24579333 0.028399948 0.12714455 0.095242605
000040 d6 ad 24 be a3 7d 05 be e0 2e 83 3c 58 6f fc bd
       -0.16081938 -0.13036208 0.016013563 -0.12325925
000050 bf 01 c4 bc 62 ef 29 bd 15 20 b7 3b a8 b3 7d 3c
       -0.023926614 -0.04148806 0.0055885413 0.015484728
000060 11 08 b5 bd 6e c9 3f bd ff f3 70 bd 10 e5 a9 3c
       -0.08839429 -0.046822958 -0.058826443 0.020739108
000070 0a 61 58 be 26 37 98 bd 58 85 35 bd be 22 01 3e
       -0.21130767 -0.07432394 -0.04431662 0.1261091
000080 22 13 69 3d 95 e1 75 bc 4a f3 96 bd 9f 33 cf 3d
       0.056903012 -0.015007396 -0.073706225 0.10117268
000090 51 77 c8 3d cc 18 a3 bd 88 51 88 bc 5a d2 4e be
       0.09788383 -0.07963714 -0.01664044 -0.2019743
0000a0 60 c5 5b bd cd e2 3e 3d 35 61 01 3c 02 67 c7 3d
       -0.05365503 0.046603013 0.007896711 0.09736444
0000b0 72 9f 3c 3d 5a 08 b5 39 7e 4a 92 bc c0 e6 f1 bd
       0.046050496 0.00034529233 -0.017857786 -0.1181159
0000c0 04 4c 1d 3d 4d 39 0b 3e 15 fb 87 bc 7b e2 bb 3c
       0.038402572 0.13596077 -0.016599217 0.022935143
0000d0 38 ae f9 bd 87 f5 44 3e 78 cf b8 3d 9d 1e 5f bd
       -0.12191433 0.19234286 0.090239465 -0.054472554
0000e0 b9 c2 bc bd a9 2f d4 3d b3 3e 20 bd ca b3 e8 bd
       -0.09216828 0.10360653 -0.039122295 -0.11362417
0000f0 11 43 4d bd 07 4e 56 bb 65 4a c9 bd 6e e0 5c 3e
       -0.050112788 -0.0032700317 -0.09828643 0.21569988
000100 1d 0e 71 3d f3 0f 08 3d 4b 27 2e be 84 08 1c bc
       0.05885135 0.033218335 -0.17007177 -0.009523515
000110 bf 21 08 be 68 40 32 3c 91 43 b7 bd 58 c5 e4 3d
       -0.13294123 0.010879613 -0.08948434 0.11170453
000120 5d 57 52 3c a7 58 87 3d de 46 21 bd 61 72 02 be
       0.012838212 0.06608706 -0.039374225 -0.12738945
000130 58 e0 69 bd 03 5d 1b 3e 84 1f 68 bd 67 e3 b2 bc
       -0.057098716 0.151722 -0.05667068 -0.02183695
000140 ec ee c9 bc 69 0c 9e bd d2 9c 2d bd ad 92 97 3d
       -0.02465006 -0.07717211 -0.042385884 0.07401023
000150 36 24 06 3d 06 09 06 be 21 e4 0a 3e 7c e9 b6 3d
       0.032749377 -0.1308938 0.13563587 0.08931252
000160 07 77 2b bd e0 f5 a9 bd 1d d6 55 3e dd 5e d2 3d
       -0.04186156 -0.0829885 0.20882459 0.10272
000170 e3 87 f6 3d cc 01 12 3e 0c 59 06 3d 74 a4 f2 3d
       0.12037637 0.14258498 0.032799765 0.11847773
000180 6d 36 90 bc 10 44 b9 bd f0 43 8e 3d 61 9a 80 bd
       -0.017604077 -0.09046185 0.06946552 -0.062794454
000190 55 49 92 bd cb 45 bc 3d fe f1 66 3e 45 a9 1d bd
       -0.07142893 0.091929995 0.2255325 -0.038491506
0001a0 e3 e1 98 bd 2d 3c bd 3c d3 66 f8 bd f4 b6 34 be
       -0.074649595 0.023099983 -0.12128987 -0.17647916
0001b0 1f 96 0e 3e ab 91 b2 3c bb 55 cb bd 31 66 18 3e
       0.13924454 0.021797976 -0.09928461 0.14882733
0001c0 cb 11 c7 bd 27 d2 46 be 40 3e 1b be e4 4b 73 bd
       -0.097201906 -0.19416104 -0.15160465 -0.059398547
0001d0 90 49 10 be ed e3 65 3d 43 a4 c0 3d 68 4a a0 3b
       -0.14090562 0.05612557 0.094063304 0.0048916824
0001e0 6b 54 67 3d c0 09 ae 3d 25 4e f1 3c 4b 75 71 3e
       0.05647699 0.084979534 0.029456208 0.235799
0001f0 c6 4c 84 3d a1 1e 15 3c a6 fd cc 3d f5 e2 da bd
       0.06459956 0.009101541 0.10009317 -0.1068782
000200 7a 9f 0a 3e 48 0e b9 bc d2 af a0 bd 02 56 1e be
       0.13537398 -0.022589818 -0.07846035 -0.15462497
000210 57 dc 46 be 8b e9 02 be a7 d9 52 3d 69 17 86 bc
       -0.1941999 -0.12784402 0.0514771 -0.016368585
000220 86 19 d8 3d f3 02 10 bd 50 63 3e 3c fd 79 f8 bc
       0.10551743 -0.035159063 0.011620358 -0.030331606
000230 d8 96 bd bd 50 1a 1f 3d 2d 2a a2 bc 15 14 70 3d
       -0.09257287 0.038843453 -0.019795502 0.0586129
000240 20 ca 2a 3e 32 f9 f7 bc f3 c9 65 be 01 a6 15 3d
       0.16678667 -0.030270193 -0.22440319 0.036535267
000250 27 2f d0 bc 38 00 66 be a7 da 25 be 84 5c 10 be
       -0.025413109 -0.22461021 -0.1619669 -0.14097792
000260 4e fc aa 3b 4a 3c 6f bd d8 ce 91 3d 05 3d 07 3b
       0.0052180653 -0.058407106 0.071195304 0.0020635736
000270 1b 44 fe 3a c8 4e d5 bc f7 c3 84 3d 6d 25 41 3d
       0.0019398959 -0.026038542 0.0648269 0.047154833
000280 c3 14 9d 3d 00 d9 83 be 5e 43 c8 3c 3a 53 5f 3d
       0.076699756 -0.25751495 0.024446186 0.05452273
000290 35 bc 9d bd ff f4 5f bd 6d e5 00 3d 50 e2 15 be
       -0.07701913 -0.054677006 0.031468797 -0.14637113
0002a0 56 f4 07 3d c5 c7 25 3e 98 8d ab bd fd 8a da 3d
       0.033192 0.16189487 -0.08376616 0.10671041
0002b0 ab ed 4a 3d de 77 ce bd da 19 5a 3d 0c f3 b1 bd
       0.049543064 -0.100814566 0.05324731 -0.08688936
0002c0 bf dd 1c 3e c6 0c e6 3b ed 39 4e bd 34 db b0 3d
       0.15318964 0.0070205657 -0.05034821 0.0863556
0002d0 e6 2e 63 bc 7f e1 1e 3e b2 ce 22 3e 1b 17 9c 3e
       -0.013866162 0.15515707 0.1589916 0.30486378
0002e0 10 74 6e bd 19 1e 92 3d 6f f4 e5 bd 89 da 9b bd
       -0.058216155 0.07134647 -0.11228263 -0.07610042
0002f0 64 38 2b 3d 8a a7 41 3d 24 1d 3d 3d 60 9c 02 3e
       0.041801825 0.04727892 0.04617037 0.12754965
000300 57 bc b5 3d 47 41 09 be b3 e8 c5 3d fe 0c ae bd
       0.088738136 -0.13403808 0.096635245 -0.08498572
000310 0b 41 34 be d3 e1 96 bc 68 60 67 bd 1c a8 18 3d
       -0.17602937 -0.018418228 -0.056488425 0.037269697
000320 ed 62 32 3e c0 1e 8c bd ed f8 54 3d cd b3 17 bb
       0.1742055 -0.068418026 0.051995207 -0.002314794
000330 2f 72 16 3e 3d 21 8e bd c9 9e 74 3d 30 fc 26 3d
       0.14691995 -0.069399334 0.05972174 0.04076785
000340 a3 2e 7d bd d5 d9 bc bd 03 e2 12 be 26 87 e0 3d
       -0.061812054 -0.09221236 -0.14344029 0.109632775
000350 d0 35 01 bc 7d 5e 37 be db 3d 26 be c8 c8 66 3d
       -0.007886365 -0.17907138 -0.16234533 0.056343824
000360 6e 1f d1 bd fd 2b 58 3c d6 cd 17 3c 8f 3b 1c be
       -0.10211073 0.013194081 0.009265384 -0.15257095
000370 cc 31 0d 3e 60 6c 11 3e 9e 3f c0 bb 23 a6 9c bd
       0.13788527 0.14201498 -0.0058669588 -0.076488756
000380 c0 6d 31 bd e8 b4 5d be 69 de f9 3d 86 fc 19 be
       -0.043317556 -0.21651042 0.122006245 -0.15037736
000390 1d 48 d0 bb b9 f6 df bd b2 8f 04 3d e9 d7 24 3d
       -0.006356253 -0.109357305 0.0323636 0.04024497
0003a0 51 44 81 3d 6e e7 a6 3d 5f 13 a0 bd 24 13 8f bd
       0.063118584 0.081496105 -0.07816195 -0.06986073
0003b0 54 c3 7d 3d 20 2d 35 bd ce 1c e5 bd bd e6 89 ba
       0.061953858 -0.044232488 -0.11187135 -0.0010521036
0003c0 ca da c0 3d 0d 98 01 3e 38 00 98 bc cf d1 88 3d
       0.09416731 0.12655659 -0.018554792 0.06680643
0003d0 a2 da a9 bc 5f 9d c3 3d e0 3a 95 3e 4f 73 83 3e
       -0.020734135 0.095515005 0.2914648 0.2567391
0003e0 9a 69 e7 3d 48 7f e4 3d a5 af 35 3d 4c 76 a0 bd
       0.11299439 0.111570895 0.04435696 -0.07835063
0003f0 66 7b 39 bc 04 3e 2c 3d a2 98 63 bd 2d 0a c0 3c
       -0.011320924 0.04205133 -0.055565484 0.023442352

weight_hh f4 [192, 64]
000000 38 aa e8 3c 44 33 8e 3b 7e f6 93 3b fb 9a 80 3d
       0.02840148 0.0043396074 0.004515468 0.0627956
000010 19 ee b3 bd f7 37 9e bd b6 57 93 3d 5c e9 92 3d
       -0.08785648 -0.07725518 0.07194464 0.07173416
000020 11 0b 2a 3c 27 c9 3c 3e 27 1a 1c bc 31 c6 aa 3c
       0.010378615 0.18436109 -0.00952772 0.020846458
000030 4e 87 d2 bc 1c af 07 3e 8d 77 ba bd 63 b2 b0 bd
       -0.025699284 0.13250393 -0.09104834 -0.086277746
000040 23 f3 aa 3c 6f 44 04 be d4 3c e3 bd 19 1a 9a 3d
       0.02086789 -0.1291673 -0.110955864 0.07524509
000050 94 66 33 be eb cd 1d be d4 2b 37 ba f5 f1 f7 3d
       -0.17519599 -0.15410583 -0.0006987427 0.121066965
000060 85 f4 fa 3d a4 2f 21 3e e6 4d e1 3c 49 60 5b 3b
       0.1225367 0.1574083 0.027502965 0.0033474138
000070 53 31 16 3d cc 54 94 bd bb cb 02 3d 57 89 81 3d
       0.036668133 -0.07242736 0.031932574 0.063250236
000080 d2 82 01 bd b4 44 31 bd 14 27 5a bd 59 00 17 3d
       -0.0316189 -0.04327841 -0.053259924 0.036865566
000090 d5 ba 08 be d1 a7 5d 3d 6c a1 57 3d a9 00 9d 3d
       -0.13352521 0.05411512 0.05264418 0.076661415
0000a0 8b b7 96 bd 4d 46 86 3d 22 e9 b0 bc 4e 92 79 bd
       -0.07359227 0.065563776 -0.021595541 -0.060930543
0000b0 1c c6 72 3c 0c ec d9 3d c0 93 15 3d 37 55 46 3e
       0.014817741 0.106407255 0.03651786 0.19368444
0000c0 af 94 06 be d4 8b 86 bd 31 cc 36 be 2a a6 42 bc
       -0.13142656 -0.06569639 -0.1785133 -0.011880437
0000d0 f1 4e 98 3d 2b 5f 9f bc e5 ff 6b 3d d9 ae 05 3e
       0.07436932 -0.01945456 0.057617087 0.1305498
0000e0 73 d4 18 bd 30 23 91 bc 69 5b f0 3d c1 17 75 bb
       -0.037311982 -0.017716974 0.11736185 -0.0037398192
0000f0 14 96 37 3e ea f3 b5 bb 77 97 0f bd c6 f5 9e bd
       0.17928344 -0.0055527585 -0.035056558 -0.07761721
000100 75 d9 cd 3d 8c 39 05 be 69 74 65 bb f6 8b e1 3d
       0.10051242 -0.13010234 -0.0035012013 0.110130236
000110 3b 3d cb bc f4 07 e5 3c 20 c1 7c 3d c3 8b f8 bd
       -0.02480947 0.027957894 0.061707616 -0.121360324
000120 26 95 0f be 83 49 b2 bd f1 f3 a3 3d c7 e0 c8 3c
       -0.1402174 -0.087054275 0.080055125 0.024521245
000130 0e ae ac ba d9 78 03 3e 3a 82 c2 3c 88 b5 ee 3d
       -0.0013174431 0.12839068 0.023743737 0.11655718
000140 f7 c7 58 3d 93 4e 5e 3c 53 b7 92 bd 01 86 f0 3b
       0.052925076 0.013568538 -0.071638726 0.0073401933
000150 03 2e c1 ba 49 8b 14 bd 75 cd 95 bc ad 5e 7b bd
       -0.0014738444 -0.036265645 -0.018286446 -0.061369587
000160 53 09 ef 3d 5e fd bf 3d be 09 fb bc 7f 9a 81 bd
       0.116717 0.09374498 -0.030644294 -0.06328296
000170 d8 c5 68 bc d8 29 b6 bd 37 ba 1e 3e d4 69 e1 3d
       -0.014207326 -0.088947 0.15500723 0.11006513
000180 97 da 99 3d 73 bd 35 bd 98 cc 88 bd 1a 86 2f 3c
       0.07512396 -0.044370126 -0.06679648 0.010713125
000190 87 21 ad bd 73 67 a3 3d 50 60 45 3d 1b 45 14 be
       -0.084536605 0.07978716 0.048187554 -0.14479487
0001a0 ae b8 d8 3b 80 80 1a bd 4d b3 47 bb d4 9f cd 3d
       0.0066138124 -0.037720203 -0.0030471862 0.100402504
0001b0 5f 5e 5c bc 23 7e 80 bd 4b 4d dc 3d 43 38 2f bd
       -0.013450234 -0.06274059 0.1075693 -0.042778265
0001c0 6e a0 6d 3c b8 4c b8 3d 60 82 e0 3d 1c 10 f6 3d
       0.014503581 0.08999008 0.10962367 0.12014791
0001d0 6e fe f7 bd d2 fa 22 3e ae 37 9b 3d 49 a9 b7 3d
       -0.121090755 0.15915993 0.075789794 0.089678355
0001e0 cf d0 0b be 71 b5 5c bd e9 77 e3 3c 4f 1f a8 3d
       -0.13653873 -0.053883974 0.027767139 0.08209097
0001f0 16 72 82 3d 70 ea 6d bc 9b fc 02 be 81 e0 29 3e
       0.063694164 -0.014521226 -0.12791674 0.16589548
000200 9c 60 16 3c 52 52 c6 3b 73 fa 48 3d 72 fd 4f 3d
       0.009178307 0.006052294 0.049066972 0.050778814
000210 09 fa 80 3d d0 87 e5 3d 3d 94 f1 bd 9a 6b 35 3e
       0.062976904 0.11207545 -0.11795852 0.17716828
000220 4b 87 65 3d 17 e3 b2 3d 17 79 66 bb 8b c3 91 3d
       0.05603723 0.0873472 -0.003516739 0.07117375
000230 72 f7 f3 bc 32 3f f1 3c cf 9d d0 bd 0f 21 60 bd
       -0.029781077 0.02944908 -0.101863496 -0.054719027
000240 84 af 11 3e 77 d3 de bd 87 41 dd bd fe bd 06 3d
       0.1422711 -0.108801775 -0.10803514 0.032896034
000250 18 1e 38 3d e3 3e c7 bd 86 eb df bd 63 37 32 be
       0.044950575 -0.097287916 -0.109335944 -0.17403941
000260 00 05 56 bd 28 3b 00 3d 4e 4f d5 3d 92 f1 72 3d
       -0.052250862 0.031306416 0.10415517 0.05931241
000270 57 a4 d8 3d d2 5a 21 be 35 35 3d bd 9c 71 d1 3d
       0.1057822 -0.15757301 -0.04619332 0.102267474
000280 55 cf a9 bb 28 51 98 3d 55 61 19 bb cb 5e 12 bc
       -0.0051821866 0.07437354 -0.0023403962 -0.008933733
000290 06 03 30 3c 19 b4 35 3d a9 fb cd 3d 2a b1 a8 bd
       0.010742908 0.044361208 0.10057766 -0.08236916
0002a0 c4 94 0b 3e f1 58 0f 3e e5 cc 89 bc ea 6b 92 bd
       0.13630968 0.13998772 -0.016821334 -0.07149489
0002b0 ac a9 be 3c 94 b7 54 bd fe e8 57 bd 3c 47 e6 bc
       0.023274265 -0.051932886 -0.052712433 -0.02811014
0002c0 58 ae 16 be 8e f8 d5 3d 61 bf 75 3d 12 d0 a7 bd
       -0.14714944 0.10447799 0.059996966 -0.08193983
0002d0 56 a2 a9 3c fe e4 08 3e 6c 25 d8 bd e4 3b b6 3d
       0.02070729 0.13368604 -0.10554013 0.08898142
0002e0 6c d3 7f be 25 92 5a 3b 42 09 1f 3e 67 d6 2a bc
       -0.24982995 0.003335127 0.15530875 -0.010427094
0002f0 96 87 84 3d e7 16 01 bd 3d 67 ca bc ca c6 c1 bc
       0.064711735 -0.031515982 -0.024707431 -0.02365436
000300 9d 57 2d 3b 2e cd 0b be b3 69 b2 bd 6b 97 f2 3d
       0.0026449927 -0.13652489 -0.08711567 0.11845287
000310 b1 3c 06 be a6 b7 22 3d a7 8b 4d 3d c0 d0 9f 3d
       -0.1310909 0.039725922 0.05018201 0.07803488
000320 4d 92 08 3d 1a 57 5c 3d 02 97 2a bd 08 da 0b be
       0.03334265 0.053794004 -0.04164792 -0.13657391
000330 d7 de 02 be e7 65 00 3e 28 5f 8f 3d b9 76 c3 bd
       -0.12780319 0.12538873 0.070005715 -0.09544129
000340 af 8e 07 3d 2e 34 2f be e4 0d 11 be 20 e4 8c bd
       0.033095058 -0.17109749 -0.14165455 -0.06879449
000350 9e 19 13 3d d1 59 ac bc 4d 91 db bd 14 64 bf bc
       0.035913102 -0.021038922 -0.10721073 -0.02336315
000360 29 50 af 3d 48 31 74 3d d8 69 a8 3b c5 35 c9 bd
       0.08560211 0.05961731 0.0051395707 -0.09824709
000370 fc 1e cc bd 0c eb d2 bd 4a 15 dc 3d 21 05 fe 3c
       -0.09966847 -0.10298738 0.10746248 0.031008305
000380 5d a3 00 bc f2 ef a0 3d 4c 71 18 3e d3 88 0b 3d
       -0.007851449 0.07858266 0.1488697 0.034066033
000390 78 5a 1c 3d fc 53 a9 3d 49 a9 8c bd a7 e9 c2 3d
       0.038172215 0.08267972 -0.06868226 0.09517222
0003a0 a1 47 01 3e c8 2d c3 3d 52 81 40 bd 10 0c 8f bd
       0.1262498 0.095302165 -0.04699833 -0.069847226
0003b0 86 f9 b0 3d 66 7e 42 be df 00 6b 3c 9f 3c 0b bc
       0.08641343 -0.1899353 0.014343469 -0.00849834
0003c0 5a 55 97 b9 c5 69 05 bd 20 d5 20 be bb 38 60 3c
       -0.00028864556 -0.032571573 -0.157063 0.013685401
0003d0 32 1e ed bd 49 85 ee 3d 05 d9 81 bc d9 64 0c 3e
       -0.11578025 0.11646516 -0.015850553 0.13710345
0003e0 49 15 cb bc 20 e0 e7 3d 75 8b 8e bc 73 66 14 3e
       -0.024790423 0.11322045 -0.017400483 0.14492206
0003f0 9b 10 67 bb 84 80 06 be ad 37 2a 3e 85 9d b6 3d
       -0.00352577 -0.13134962 0.16622801 0.08916763

bias_ih f4 [192]
000000 a8 14 9a 3c bf e0 a3 bd 93 f9 85 3c 1d 83 2b bd
       0.018808678 -0.08001851 0.016354358 -0.041873086
000010 03 13 35 3c a9 1e 1f 3c 11 9c e9 3d d0 c9 c9 bb
       0.011051896 0.0097119 0.114067204 -0.006158091
000020 f4 8c be bd 94 87 0b 3e 5b 27 26 bd ab 9a 20 bd
       -0.093042284 0.13625938 -0.040564876 -0.039210003
000030 7a 11 85 bd d3 32 64 bd 95 ec f0 3c d1 0e 9b bd
       -0.06497474 -0.055712532 0.029409686 -0.075711854
000040 38 e4 08 bd 41 52 cb bd b3 a5 cc bc 5d f1 03 3e
       -0.03342077 -0.09927798 -0.024981355 0.12885042
000050 d6 42 e9 bc 41 27 f7 bd 9e 0f 0e 3e 2b 8b fa 3d
       -0.028474253 -0.12068034 0.13873145 0.122335754
000060 89 89 20 be 97 61 92 bd 37 6c 12 3e fd 16 c8 3d
       -0.15677465 -0.0714752 0.14299093 0.0977001
000070 72 33 97 3c ca de 9a 3d 81 a6 09 3e ec e8 b1 bc
       0.018457148 0.07562025 0.13442422 -0.021717511
000080 e5 72 2b 3e 3a d7 ed 3d 24 43 7c bd 8a 1e 32 3e
       0.16743048 0.11613317 -0.061587468 0.17394462
000090 91 f6 02 3e 6a d0 dd bd 20 af 01 3e 71 f8 1b be
       0.1278937 -0.108307675 0.12664461 -0.15231492
0000a0 fc 0e 3c bd 63 7b 11 3d 1e 44 96 3c c3 81 d1 bd
       -0.045912728 0.03551806 0.018343028 -0.10229828
0000b0 17 c9 b4 3d 14 83 d4 bc df ce b2 bd 12 7d 33 bc
       0.08827417 -0.02594141 -0.08730864 -0.010955112
0000c0 ec 61 af bd 43 31 5c bd 41 e0 99 3d 6d aa 0c ba
       -0.08563599 -0.053757917 0.07513476 -0.00053659716
0000d0 1b c3 ef 3d 22 6a 1f ba 06 40 73 bd 06 0e 35 bd
       0.11707135 -0.00060811837 -0.05938723 -0.044202827
0000e0 75 99 4a 3d 34 dc d4 3c 96 e2 1d 3d 6c 81 89 3d
       0.049462754 0.025983907 0.038546167 0.067141384
0000f0 21 97 ae bd ce 0c 92 bc 1e 8b 7a 3d 56 f7 1a 3d
       -0.08524919 -0.017828371 0.06116783 0.037833534
000100 a1 e3 9c bd 51 3a 39 bd bf a6 27 bc 83 da 5e 3d
       -0.07660604 -0.04522163 -0.010232626 0.054407608
000110 2a 11 cb 3d 98 5a 97 bc 1d c8 03 be 6d 88 42 bb
       0.09915383 -0.018475816 -0.12869306 -0.0029683367
000120 7b 3e 8f bd 15 8c ee 3d 3f 37 db bc cb 30 ca 3d
       -0.06994339 0.11647812 -0.026759742 0.09872588
000130 0a 3a e3 bd 29 50 9a 3c 3a c8 3c be 35 92 92 bd
       -0.110950544 0.018837051 -0.18435755 -0.07156793
000140 ad 85 91 bc 8b a0 ce bd 52 3e 3a be 00 24 da 3d
       -0.017763937 -0.10089215 -0.18187836 0.10651398
000150 82 58 49 bd e8 d6 52 3b 71 cb 09 be 28 d2 51 3d
       -0.049156673 0.003217155 -0.13456513 0.05122581
000160 89 77 70 3b 89 e0 9e bd ce 2c cd bd b9 6d a0 3c
       0.0036692342 -0.077576704 -0.100183114 0.01958357
000170 0d 88 b9 3c f2 f8 1c 3d d0 f8 70 3b 4e 63 d3 bc
       0.022647882 0.03832335 0.0036769398 -0.025804188
000180 dc 76 c3 3d 1a 49 15 be 44 28 89 3d 11 67 9b bc
       0.09544155 -0.14578667 0.06697133 -0.018970044
000190 9a e6 d0 bd af 30 cc bc 57 44 b0 bd 38 bd df bd
       -0.10200234 -0.024925558 -0.08606785 -0.109247625
0001a0 b7 b7 7a bc cc b0 e0 3d 21 33 5d bd c5 2b d9 3d
       -0.01530259 0.10971221 -0.05400384 0.106040515
0001b0 7e 45 59 3d 7f c4 9e bd 06 d4 eb 3d 37 ed b3 bd
       0.05304479 -0.077523224 0.1151505 -0.087854795
0001c0 88 6a 35 be d2 d4 cb bd 2d 95 19 3c e4 01 b2 3d
       -0.1771642 -0.09952702 0.009373945 0.08691767
0001d0 66 64 9a bd 8f 16 de bd ad a9 ee bd 10 69 d3 bd
       -0.07538681 -0.108441465 -0.11653457 -0.103227735
0001e0 d8 28 79 3d 43 85 b9 bd 3b 2c cd 3d 45 02 e6 ba
       0.060829967 -0.09058621 0.10018202 -0.0017548284
0001f0 98 b2 cb bd b4 60 a6 bc 53 da 51 bd 78 29 b4 bd
       -0.099461734 -0.020309784 -0.0512336 -0.08796972
000200 96 d6 4d bd d5 3d da bd 20 c2 9c 3a f6 6d 5d bd
       -0.050253473 -0.10656325 0.0011959709 -0.054059945
000210 15 bb 38 bc 3b 45 e2 3d 4b 0b 45 3d 50 c1 63 bd
       -0.011275073 0.11048361 0.048106473 -0.05560428
000220 84 7a a9 bd db 4e ce 3d 2c b4 32 3d 6d 6c 07 3e
       -0.08275321 0.10073634 0.043628857 0.13224955
000230 a0 fc 96 bd 6b 4b ea 3b e3 59 99 3d 03 ff 31 3c
       -0.07372403 0.007150104 0.07487848 0.010864022
000240 13 5e a5 3d 51 18 de 3d 1f 37 7f bd 63 1a 32 bd
       0.08074584 0.10844482 -0.062308427 -0.043482196
000250 fa d5 b7 bd 25 2e f5 3c 0f 13 78 bd 63 4b e7 bd
       -0.0897636 0.02992923 -0.06056505 -0.11293676
000260 96 04 4d bd 83 36 a4 bd 0b e4 92 ba 72 80 40 3d
       -0.0500532 -0.0801821 -0.0011206878 0.046997495
000270 87 65 b7 bd e7 1f f9 bd 76 69 de bd 7f fd 13 bd
       -0.08954912 -0.12164288 -0.10859959 -0.036130425
000280 7c 24 36 3c 3d 80 91 bd be 86 8f 3d 1f 72 90 3d
       0.011117097 -0.07104538 0.07008122 0.07053017
000290 e5 19 ab bd 2e ca d5 3c 53 7b 8e 3d fb 00 97 bd
       -0.08354548 0.026097383 0.06957116 -0.07373234
0002a0 1a fe b2 3d 57 b1 61 bd c3 09 3f 3d a0 ff 96 3c
       0.08739872 -0.055100765 0.04664017 0.018432438
0002b0 f6 ff f8 bc 60 48 00 bc be 05 0a 3e 96 b5 2a be
       -0.03039549 -0.007829756 0.13478753 -0.16670832
0002c0 b0 42 99 b9 9e a5 02 3e 8e 74 28 bd b3 01 9e 3c
       -0.0002923212 0.1275849 -0.04112678 0.01928792
0002d0 10 f9 cf bd 3c b6 de 3d 97 33 53 bd b0 7a a3 3c
       -0.10154927 0.10874602 -0.05156287 0.019955963
0002e0 e8 a8 ca bc f4 fa 97 bd 16 8e 85 3d 86 28 0a bd
       -0.024738744 -0.074209124 0.06521241 -0.033730052
0002f0 6f 3c 62 bd ae 7d 0f be 94 9d f9 bd 49 79 09 bd
       -0.055233415 -0.14012787 -0.12188259 -0.033562932

bias_hh f4 [192]
000000 d8 b0 e1 3d df 70 9e ba af 08 b4 3b 06 19 51 3c
       0.110200584 -0.0012088082 0.005494199 0.012762314
000010 8f 52 6d bd e0 01 0e 3d 17 69 a5 3d 5f 1a 7c 3d
       -0.057940062 0.034669757 0.08076685 0.061548587
000020 e4 fe 7c 3d b2 8b d8 3c d2 c1 b5 bd e7 07 38 bd
       0.06176652 0.0264338 -0.08874859 -0.04492941
000030 99 fb db 3d 75 0f 09 be 5b 49 fb 3c c6 ae 7a bc
       0.10741348 -0.13384803 0.030674627 -0.015300458
000040 d9 0e 63 3d a6 9c 92 bb 81 ff 4d 3d b1 24 fc 3c
       0.05543408 -0.0044742404 0.050292496 0.030779215
000050 79 dc b9 3d f6 c7 78 3d 8c a9 12 bd c2 0d eb 3d
       0.09075255 0.060737573 -0.035806224 0.114772335
000060 9f b9 2c be 10 76 17 be 8b de 1f 3e 26 57 23 3e
       -0.16867684 -0.14791131 0.15612237 0.15951213
000070 92 39 8f bd bb aa a6 bd 17 be 59 bc 84 8c da 3b
       -0.069934025 -0.08138033 -0.01328995 0.006669583
000080 84 af e0 3d ee 4a c8 3d 88 4f 9c bd 57 80 d2 3d
       0.10970977 0.09779917 -0.07632357 0.10278385
000090 4d f0 45 3d 35 c1 85 bd cb cd 2d 3d 1d 45 20 be
       0.04832487 -0.06530992 0.042432588 -0.15651365
0000a0 5d 88 03 3e a8 4d 19 3d 36 d9 a6 bc 55 98 a0 3c
       0.12844987 0.037427574 -0.020367246 0.019603888
0000b0 46 23 1a 3e 9b 3b 62 be 6f fc 65 bc 35 c9 60 bd
       0.15052518 -0.2209305 -0.014037236 -0.054879386
0000c0 c3 7c 72 bd 2c a7 51 bc 4f 16 3d 3d 5d 35 04 be
       -0.059201013 -0.012796205 0.046163853 -0.12910981
0000d0 bb 0f 9a 3d c2 79 c7 bd 32 c7 54 bd 50 5c de 3c
       0.075225316 -0.0974002 -0.05194778 0.027143627
0000e0 a3 31 de bd 65 ed 46 3c 37 6b 1e 3e 1b d5 0a 3e
       -0.10849311 0.01214156 0.15470587 0.13557856
0000f0 d6 58 60 3d eb 4f 61 bd 7a e9 ed 3a bc fb 12 3e
       0.05477222 -0.055007856 0.0018151246 0.14353842
000100 57 e9 7c bc f6 08 8c 3d 43 cf d0 bc 69 34 09 3e
       -0.015436492 0.06837647 -0.025489455 0.13398899
000110 dc cf f4 bd 6d 4a d4 bd 14 63 15 be b9 da de bc
       -0.119537085 -0.10365758 -0.14588577 -0.027203904
000120 46 30 db bd 85 bd 8f 3d 70 70 fc 3d 97 4c e8 3c
       -0.10702567 0.0701857 0.12326133 0.028356833
000130 0b c5 0c 3c 55 5e bc 3c 69 fb 44 be 40 fd 20 bc
       0.008591901 0.0229942 -0.1923653 -0.0098260045
000140 41 10 5d bd bf bd 01 3d 42 a5 4a be 28 5f 89 bd
       -0.05397058 0.031675097 -0.19789603 -0.06707603
000150 f6 9b 4c 3c d6 04 a0 3d c3 b3 14 3d 13 a5 fd 3c
       0.012488356 0.078134224 0.036304247 0.030962503
000160 77 01 d7 bc 77 62 a8 bd 12 90 06 3d e7 4f f3 3c
       -0.026245816 -0.08221906 0.03285224 0.029701186
000170 c3 eb a3 3c 46 a4 9e bd fd de ef bd ff 35 ee 3d
       0.02000988 -0.077461764 -0.117124535 0.11631393
000180 32 c2 d9 3d 61 d1 f6 bd e4 10 aa 3d ff 08 d8 3c
       0.10632743 -0.120516546 0.08304003 0.026371477
000190 61 12 0e be 85 90 d6 3d 9b 6b 81 3d df bd 09 be
       -0.13874198 0.10476784 0.06319352 -0.13451336
0001a0 94 d3 1f be fc 5e e5 3d 2c 55 06 bd f9 ad e0 bd
       -0.15608054 0.111997575 -0.03279607 -0.10970683
0001b0 54 7c 49 3d 6d 24 8f 3d 06 6a 92 3d 1b 63 de bd
       0.049190834 0.069893695 0.071491286 -0.108587466
0001c0 8e 8a 29 bb b2 22 07 bd a8 67 a5 bd 66 42 50 3d
       -0.0025869939 -0.032992072 -0.080764115 0.050844572
0001d0 98 fc 99 3d 6b de 2f bc f7 a4 cf bd 52 c0 67 3d
       0.075188816 -0.010734181 -0.101388864 0.056579895
0001e0 d6 f6 9d bd 10 3b 0a 3e 97 85 8d bd df 36 b2 bd
       -0.07713096 0.13499093 -0.06910246 -0.08701872
0001f0 fa 98 d8 3d be 23 75 3c 81 7e 14 3d bb 5f 15 3d
       0.10576053 0.014962135 0.036253456 0.03646825
000200 ce 3b 05 bd e0 7b 5a bc 31 b4 35 bd 22 7f 75 bd
       -0.032527737 -0.013335198 -0.044361297 -0.059935696
000210 24 e0 a1 bd bf 99 ab bd b6 ca c5 bd 8f ba a3 3d
       -0.079040796 -0.08378934 -0.09657805 0.079945676
000220 ae 44 26 be 12 ee e9 3d ec 39 29 3d 6e 87 d5 3d
       -0.16237137 0.114223614 0.041315004 0.10426222
000230 4b 28 d9 bd 6a 25 10 3d 88 d3 b0 bd d7 89 d9 bd
       -0.106033884 0.03519193 -0.086340964 -0.10621994
000240 cd 0a 47 bd 5f 3d 10 3c a3 ee 22 be 19 e1 2a 3d
       -0.048594285 0.0088036945 -0.15911345 0.041718576
000250 96 88 c0 bd 06 34 25 3d bd 69 13 bd 65 b4 28 be
       -0.09401052 0.040332817 -0.03598951 -0.16475065
000260 6f 19 b7 bb 20 f8 e6 bd 45 70 a2 bc 6f 87 ff 3d
       -0.0055877487 -0.11277795 -0.019828925 0.12477004
000270 ec 7b fe bd c2 da f4 bd 2d 49 9e 3d fd 68 0a 3a
       -0.1242598 -0.11955787 0.07728801 0.00052799267
000280 15 f1 f3 3d 6f e6 0f be 98 75 7f 3d 2d b0 67 3d
       0.11911217 -0.14052747 0.062368006 0.0565645
000290 cf b4 99 bd 5d 5b be 3d 3c 1b 8b bc 50 fc 9a 3d
       -0.075051896 0.0929477 -0.01698076 0.07567656
0002a0 f0 49 85 bc f2 b8 74 3d 97 76 c4 3c 40 8f 93 bd
       -0.016270608 0.05974669 0.02398233 -0.07205057
0002b0 9e 08 8f 3d 0b f4 df bd 2a aa d9 3b 44 4b e4 bd
       0.069840655 -0.109352194 0.0066425996 -0.11147168
0002c0 ca 7b ba bc d0 74 f0 bc a0 e8 86 3c 06 76 a1 bc
       -0.022764105 -0.029352576 0.016468346 -0.019709598
0002d0 b7 c3 97 bc 4e c5 59 bd f2 6e 1b 3c 7f 77 a7 3d
       -0.018525941 -0.05316668 0.009486901 0.08177089
0002e0 0f a9 4e bd d3 9e 9a 3d 6b bf 94 bc 16 af f8 3d
       -0.050454196 0.075498246 -0.018157681 0.1214277
0002f0 10 3f 17 3e 11 4f ed bd db 27 15 be 42 56 dc 3d
       0.1477015 -0.11587346 -0.14565985 0.1075864

weight f4 [64, 64]
000000 9d b8 3e be d3 a6 9f 3d 60 c4 44 be c9 c1 cc 3d
       -0.18625112 0.07795491 -0.19215536 0.09997899
000010 f6 8d d9 bd a2 ed 10 bd 6c 6d 84 be c3 8a de 3c
       -0.1062278 -0.035382874 -0.25864732 0.027165776
000020 e6 a6 41 bd 1a a9 8f bd 06 9e 36 bd 67 45 a9 3c
       -0.047278307 -0.070146754 -0.044584297 0.020662976
000030 e7 1e 57 3e f6 61 27 3e 57 5d 5e 3c a0 fa ee 3d
       0.21007882 0.16345963 0.013572059 0.11668897
000040 ad c0 0c 3e ce 54 69 bd ab 16 34 bd e4 c8 8e 3d
       0.13745375 -0.05696564 -0.04396693 0.069719106
000050 aa 27 52 3c df 18 4d 3d b4 69 24 3e b2 a8 b8 3d
       0.012826839 0.050072547 0.16055948 0.09016551
000060 81 88 07 be 27 70 4b be 26 5d 97 3e 56 6f 9d 3d
       -0.13235666 -0.19867001 0.29563254 0.07687251
000070 a5 06 73 3d 22 5c a5 bd f5 69 75 3e ef 71 e2 3d
       0.05933251 -0.080742136 0.239662 0.11056887
000080 ef 60 8e be a5 df 89 3d fd 1a 94 3e 55 47 20 bd
       -0.2780833 0.0673211 0.2892684 -0.039130528
000090 db c8 e7 bd f3 12 00 be b5 8c a9 3e d1 ab e6 3d
       -0.11317607 -0.12507229 0.33115163 0.1126324
0000a0 fe 61 a4 bd ba f2 f5 3c ae 87 30 bd 7c 99 49 be
       -0.08026503 0.030022968 -0.043098144 -0.19687456
0000b0 56 1e 16 3c be 23 6d 3e af 71 80 bd f6 bc 04 3e
       0.009162506 0.23158166 -0.062716834 0.12962708
0000c0 9e b5 32 be aa aa 30 be 2a df 77 bd 3e c9 5b 3d
       -0.17452094 -0.17252603 -0.06051556 0.053658716
0000d0 6a aa c6 bc 95 28 c8 3d 2c 15 3b 3d 46 f7 ae bd
       -0.024251182 0.097733654 0.045674488 -0.085432574
0000e0 77 8f 36 3e f9 44 c9 bd 62 59 64 3e 8a 65 03 3e
       0.17828165 -0.098276086 0.22299722 0.12831703
0000f0 45 a0 aa 3d 76 30 8f bc 8a c5 29 3e 38 f0 23 be
       0.0833135 -0.017479163 0.16579261 -0.16009605
000100 b9 bc 22 be 09 09 f0 3d 60 87 d0 be 37 59 eb 3d
       -0.15892304 0.11720473 -0.40728283 0.11491626
000110 d1 e0 87 be d6 3c bc 3c 9a c8 81 be 11 a5 59 bd
       -0.2653871 0.022978228 -0.2534836 -0.053135935
000120 8c fa 0c 3d 8a 30 01 be 1e 06 d9 bd 49 9d 33 bd
       0.034418628 -0.12616172 -0.1059687 -0.04385117
000130 20 20 32 3e 81 d7 38 3e 89 6e 24 3d 86 9d 9d 3d
       0.17395067 0.18050958 0.040144477 0.07696061
000140 73 67 09 3c ae ea 34 be 14 09 9b be e1 85 14 3c
       0.008386481 -0.17667648 -0.30280364 0.009065122
000150 69 1f 1a 3c 7e a7 86 3d 08 2f 1f 3e 10 7b 2f 3c
       0.009406903 0.06574915 0.15545285 0.010710493
000160 93 3a f4 bc 56 0c 5e bd 0e 24 d5 3d 64 5c 91 3d
       -0.029813087 -0.054210983 0.104072675 0.070977
000170 ec 5f f0 bd 46 a3 12 bc 8f 14 0d 3e 5b 4a ae 3c
       -0.11737046 -0.00895006 0.13777374 0.02127569
000180 d0 6b 74 be 14 5c 28 3d f1 a5 81 3e 74 7d 87 bb
       -0.23869252 0.041103438 0.25321916 -0.004134828
000190 1b 18 7c be 20 86 2b be 1d 0d bc 3e 4f 83 56 3e
       -0.2461857 -0.16750383 0.36728755 0.20948528
0001a0 94 e8 a2 3d 62 25 43 3d 88 cb 91 be 00 c8 b0 bd
       0.07954517 0.047643073 -0.28475595 -0.08631897
0001b0 51 5f 48 3e c0 3c 3c 3e 03 d7 ce 3c 25 28 70 3d
       0.1956761 0.1838255 0.02524901 0.058632035
0001c0 c5 d9 be bd cf 39 26 be e1 28 15 be c1 4d 2d bd
       -0.0931888 -0.1623299 -0.14566375 -0.04231048
0001d0 7d 3c 50 be a5 b1 fe bd ad 06 ad bc 53 8b 06 3e
       -0.20335574 -0.12436227 -0.021121347 0.13139085
0001e0 30 bd 6c 3e 51 39 e0 bd 9f a7 ca 3e 9e 62 02 3e
       0.23119044 -0.10948432 0.3958101 0.12732932
0001f0 09 6d 07 be d8 25 bf bd d2 79 1f 3e 90 03 92 3d
       -0.13225187 -0.0933339 0.15573815 0.07129586
000200 62 57 dd 3d 32 96 1e bc 6f 64 69 bc 87 c9 09 3e
       0.108076826 -0.009679364 -0.014245137 0.13455783
000210 e3 3b 8c 3d 8e 6d f2 bd e7 b9 d1 3d 72 4c 56 bd
       0.0684736 -0.11837302 0.10240536 -0.052318998
000220 b5 25 e1 bd 7b c6 0d 3e 47 b3 b9 3d a8 56 9f 3d
       -0.1099352 0.13845246 0.090673976 0.077802
000230 62 e5 0c be d5 ba f4 bd c1 af 97 bd 7b b1 95 bd
       -0.13759378 -0.11949698 -0.07406569 -0.07309242
000240 51 6d 99 3c cb b1 9d 3d 9a ee 01 3e 06 01 c9 bd
       0.018728884 0.07699927 0.12688676 -0.09814648
000250 31 24 86 3d 3c ed 22 bd 2b 55 b4 3d c4 ab 47 3d
       0.06549872 -0.039777026 0.08805307 0.048747793
000260 6c ea c8 bb e9 57 08 3e f7 c6 13 be d3 43 00 3e
       -0.006131461 0.13314785 -0.14431368 0.12525873
000270 4d 70 15 be 32 aa 0e be 2e 3a 92 3b 15 3d 21 3d
       -0.1459362 -0.13932112 0.004462502 0.039364893
000280 78 2d 5b bd 06 a7 35 3d 44 e5 02 be bb 16 8d 3d
       -0.05351016 0.04434874 -0.1278277 0.06889101
000290 3d e7 bc bd 0a be df 3d 9b ab 59 bd 98 1b 6b bb
       -0.09223793 0.10924919 -0.05314217 -0.0035874601
0002a0 80 0c 2e 3d 94 33 01 3c ee 20 5e bd 29 32 02 be
       0.04249239 0.007885832 -0.054230623 -0.12714447
0002b0 ed 84 01 bd 42 10 69 bb 0c b4 85 3c 66 f8 c0 bd
       -0.03162091 -0.003556267 0.016321205 -0.09422378
0002c0 04 2d df bd b9 71 48 bd 1e df 90 3d 64 7e 11 3e
       -0.10897258 -0.04893658 0.07073806 0.1420837
0002d0 3a 97 b2 3d 19 81 ca bd 08 53 26 be 8d e2 b8 bd
       0.087202504 -0.09887905 -0.16242611 -0.09027586
0002e0 ca 5b 07 bd 5b c1 c2 3d 3c 38 f1 bd 2c 23 16 3e
       -0.03304652 0.09509536 -0.11778304 0.14661855
0002f0 d1 8c 0c 3e 28 92 6d 3d 23 21 2f be 27 6f 5a bb
       0.13725592 0.058000714 -0.17102484 -0.0033330412
000300 84 ba 87 3d 17 25 c5 3c 77 f1 51 bd 3d 8d c8 3d
       0.06627372 0.024065537 -0.05125567 0.09792564
000310 55 39 a0 bc d2 a0 b5 bb af b6 90 3c cc 6d a0 bc
       -0.019558588 -0.005542853 0.017665235 -0.019583605
000320 e8 0f b7 3d 80 b8 b4 3d 10 40 25 3d 4a f2 04 be
       0.08938581 0.08824253 0.040344298 -0.12983051
000330 13 2d f6 3d 5b 8b 03 bd 32 96 f7 bb b5 34 f8 3d
       0.12020316 -0.03211532 -0.0075557465 0.12119428
000340 05 13 0e 3a 48 da 3a 3d 39 40 26 bd f3 22 8f bd
       0.0005419704 0.045618325 -0.04058859 -0.06989088
000350 42 64 03 3e ba f5 54 bd d1 38 c1 bd b5 7a 91 bd
       0.12831214 -0.051992156 -0.09434665 -0.07103483
000360 03 fa e1 bd 65 b7 91 bd 9c 46 5c 3d 7b 16 e9 bc
       -0.11034014 -0.07115058 0.053778276 -0.028453102
000370 4b ee a3 3d 97 a9 f6 3d e4 59 bb 3d 61 56 e1 bc
       0.08004435 0.120440654 0.09148005 -0.027507009
000380 a3 19 b4 3d 1a eb b6 bd b4 56 9f 3a 25 07 b1 3d
       0.08793952 -0.08931561 0.0012156577 0.08643941
000390 78 76 9c 3d 2e 9d a9 bd e6 b1 8f 3d 06 50 91 bd
       0.076397836 -0.08281933 0.07016353 -0.070953414
0003a0 74 2b 60 bc 82 c7 b4 3d 91 ee 02 3e a2 a4 85 3c
       -0.013682235 0.088271156 0.12786318 0.016313855
0003b0 57 10 9f 3d bd 49 cf bc 49 c9 31 bd 27 3e c1 bd
       0.077667885 -0.025303716 -0.04340485 -0.09435683
0003c0 95 d7 a1 bd ac 59 c2 3c a2 b6 8d 3c d2 59 9e 3d
       -0.07902447 0.0237244 0.017299 0.077319756
0003d0 9e d1 c4 bd d3 bd 7a bd ee 8b fb 3c 5d 84 4c bc
       -0.09610294 -0.061216187 0.030706372 -0.01248273
0003e0 b6 da c5 bc 2c 7e 2d 3d 15 c3 44 bc cb bf f6 bd
       -0.024152141 0.042356655 -0.012009402 -0.120483
0003f0 ca 9a 10 be f1 4b 84 3d 00 3a 7a 3d 65 a7 d4 bd
       -0.14121547 0.06459797 0.06109047 -0.103834905

bias f4 [64]
000000 06 de ee 3c ef f4 a9 bd 36 7e db 3c dc 68 ed bd
       0.029158603 -0.082986705 0.02679358 -0.11592266
000010 bf 57 4c bc 73 b0 08 be d2 82 b0 bc f5 dc b1 3d
       -0.012472092 -0.1334856 -0.021546755 0.08684722
000020 ae 57 10 3e 4e 4e 18 bd 09 75 d0 bd 3d 04 1e bc
       0.14095947 -0.037184052 -0.10178573 -0.009644565
000030 74 d4 1e 3d 9b 85 4f bd 5b 7e 80 3c db 3c 70 3d
       0.03877683 -0.050664525 0.015685251 0.058651786
000040 0c 5b f4 bd ad e4 95 bd 42 dd c5 bc 06 77 38 3d
       -0.11931428 -0.07319007 -0.024153356 0.045035385
000050 35 1b 7d bd e8 c2 11 3d 7a d9 7a bd ed b6 ba bd
       -0.061793525 0.035586268 -0.061242558 -0.091169216
000060 ed 16 ab bc 37 37 bc 3d 82 da 99 bd fe 16 14 3d
       -0.020884955 0.09190219 -0.0751238 0.03615474
000070 c1 d9 88 bd 56 0a 8c 3c e4 79 56 3d 2e 9f a2 3b
       -0.06682158 0.017094772 0.052362338 0.0049628234
000080 61 d4 7e bd 3a 52 83 3d 79 a8 28 be 2a a1 08 be
       -0.06221426 0.06412168 -0.16470517 -0.13342729
000090 be d4 89 3d af 77 fd bc 49 de 1d 3d d0 97 01 3d
       0.067300305 -0.030940859 0.038542066 0.03163892
0000a0 e3 34 dd 3a 0c c9 e9 3d 74 11 26 bd 3b 23 bc bd
       0.0016876723 0.114153 -0.04054399 -0.09186407
0000b0 36 89 d1 bc 88 c8 68 bd 1b 9e 37 3d 6a 37 c1 3c
       -0.025578123 -0.056831867 0.044828515 0.023585994
0000c0 6f dc c1 3d 4f c3 f2 bd cf 25 4b bd a2 17 e0 bd
       0.094658725 -0.118536584 -0.049596604 -0.109420076
0000d0 30 c4 4f 3d d1 9f d2 bd 06 e3 b5 3d 9f 29 f3 bd
       0.05072421 -0.10284389 0.08881192 -0.11873173
0000e0 63 42 3c bc 6f a8 10 3e 12 98 5e bd 5f bb 85 3d
       -0.011490437 0.14126752 -0.054344244 0.06529879
0000f0 3d 06 fe bd 2e 71 0e bd 37 a8 da bd 49 6b 60 3c
       -0.124035336 -0.034775905 -0.10676616 0.013697454

weight f4 [1, 64]
000000 f9 60 ad be 4b 08 a6 be b3 a3 22 3e 8b 0d 91 3d
       -0.33863047 -0.32428202 0.15882759 0.07082661
000010 cf 66 8f be 1b 13 30 be 8b 3e 3a bd 96 02 7f be
       -0.28008124 -0.17194788 -0.045469802 -0.2490333
000020 cd 9a c1 3d 02 94 7b be e4 6f db 3d c3 95 94 3e
       0.09453354 -0.24568179 0.10714701 0.2902051
000030 f5 9e 80 be cc 5d d0 3d 53 39 1d 3e f0 c0 79 bc
       -0.25121275 0.1017414 0.15353899 -0.015243754
000040 40 71 b8 be 76 47 3a be cc 36 4c be fb a4 4a be
       -0.36023903 -0.18191323 -0.19942778 -0.19789498
000050 82 3a 9f 3d b9 e4 6e bd 1c d0 0e be 6e 37 35 3c
       0.07774831 -0.058323596 -0.13946575 0.011060579
000060 37 b7 60 3d 13 1b 70 be ae 29 39 be f8 60 18 be
       0.054862227 -0.23447828 -0.18082306 -0.1488074
000070 c7 11 c1 3d f8 b7 c1 3d 34 c1 b1 3e 57 85 d2 bd
       0.09427219 0.094589174 0.34717715 -0.10279339
000080 84 94 94 3c f2 64 a2 bb c4 79 4a be 86 82 79 3c
       0.018137224 -0.0049558813 -0.19773012 0.015228873
000090 ef 81 a7 bb 56 7c e0 3d 85 33 91 be 5f a9 2b ba
       -0.005111925 0.10961215 -0.2835962 -0.00065483706
0000a0 c0 38 3b be 8a c4 11 be dc 85 6b 3d 7e a3 33 3c
       -0.18283367 -0.1423513 0.057500705 0.010964273
0000b0 b7 df b1 3d 9c d1 19 be f6 21 3b be 35 41 3b be
       0.08685248 -0.15021366 -0.18274674 -0.18286593
0000c0 90 3d a6 bd 70 6a df 3c 07 69 29 be d5 ec 4c be
       -0.08117211 0.027272433 -0.16543971 -0.20012219
0000d0 f8 b9 36 be 6c 74 c3 3d 18 0f b4 bd 0c f6 be bd
       -0.17844379 0.0954369 -0.087919414 -0.093242735
0000e0 9a 57 ef bd 7b da c4 bd 3b ee 31 3d 51 c9 09 3e
       -0.116866305 -0.09611984 0.043440085 0.13455702
0000f0 45 1b 31 bd 24 f9 c4 3d 76 71 35 3e 42 06 1f be
       -0.043238897 0.09617832 0.17719063 -0.15529731
