classification/checkpoints/stargazer.pt (torch, 126292 bytes, 9 tensors)

weight f4 [64, 1]
-0.013555602 0.84624475 0.55529916 0.6130866 0.31642476 0.2646168 0.8859925 -0.13405567
-0.83818245 -0.2320962 0.6414252 0.7726893 0.68272865 0.5031308 -0.9746719 -0.7042667
0.22281866 -0.2151684 1.0072477 0.30411097 0.68243283 0.68255013 -0.92696667 0.2261543
0.30074602 0.5265211 -0.102785274 0.47846314 -0.61504287 -0.4115734 -0.25769258 -0.3171773
-1.0134311 0.7345959 0.8869988 -0.9765178 -0.47542548 0.6654946 0.25147936 0.0043651937
0.80569106 0.67390436 0.10273583 0.56730425 -1.0479418 0.39575645 -0.28609604 -0.619422
-0.5036907 0.6987363 0.0046609873 -0.5790378 -0.47548148 0.9079282 0.6442471 0.3377278
-0.8084125 -0.28792673 -0.012786235 0.7573578 0.16593322 -0.889718 0.6160597 0.7005863
00000000: 5118 5ebc 7fa3 583f 1628 0e3f 3ef3 1c3f
00000010: 6d02 a23e da7b 873e 68d0 623f e445 09be
00000020: 2093 56bf a0aa 6dbe 7134 243f f7ce 453f
00000030: 4ec7 2e3f 2ecd 003f 1984 79bf d34a 34bf
00000040: 932a 643e 1b55 5cbe 7eed 803f 6fb4 9b3e
00000050: ebb3 2e3f 9bbb 2e3f b04d 6dbf fe94 673e
00000060: 62fb 993e 16ca 063f 1681 d2bd 1ff9 f43e
00000070: 7373 1dbf c0b9 d2be 48f0 83be 1065 a2be
00000080: 1cb8 81bf 7a0e 3c3f 5a12 633f 12fd 79bf
00000090: f86a f3be db5d 2a3f e7c1 803e e609 8f3b
000000a0: c541 4e3f ff84 2c3f 2a67 d23d da3a 113f
000000b0: f522 86bf 97a0 ca3e 2e7b 92be 7192 1ebf
000000c0: e0f1 00bf 62e0 323f 32bb 983b d23b 14bf
000000d0: 4f72 f3be fc6d 683f 61ed 243f a8ea ac3e
000000e0: 1ff4 4ebf 226b 93be 5b7d 51bc 33e2 413f
000000f0: 66ea 293e 8fc4 63bf 17b6 1d3f a059 333f

bias f4 [64]
0.12304231 -0.28451815 0.6575237 0.36928925 1.1304018 0.48657742 -0.7146864 -0.20950304
0.5221108 0.87232786 0.4698068 1.0305519 0.9822653 1.02482 0.5226132 0.7824158
-1.1722746 -0.646384 -0.6051623 -0.6988628 0.7454078 -0.5615566 0.24685389 -0.46610418
0.42469692 -0.051773604 -0.39961198 -0.7531046 -0.05519797 -0.4782735 -0.93978137 0.20535104
-0.9272739 0.863594 0.47481415 -0.17020045 -0.38889843 -0.17858507 -0.8499216 -0.46152815
-0.63318264 -0.2572516 0.6105307 -0.35036564 -0.07739562 0.6079054 -1.1092594 -0.5169412
0.83075076 0.30048436 0.79918796 -0.56251526 0.5295788 0.047995247 -0.57754225 -0.18853022
-0.52530926 0.69231105 -0.27548575 0.51085734 -1.0007739 0.20104836 -0.34889737 0.51365525
00000000: 9bfd fb3d 5dac 91be 7953 283f 7b13 bd3e
00000010: 02b1 903f ad20 f93e b0f5 36bf f787 56be
00000020: 0ea9 053f e150 5f3f 848a f03e 20e9 833f
00000030: bd75 7b3f 4d2d 833f fbc9 053f 674c 483f
00000040: 180d 96bf 6c79 25bf ebeb 1abf ace8 32bf
00000050: 0cd3 3e3f 2cc2 0fbf 44c7 7c3e 35a5 eebe
00000060: e071 d93e 8f10 54bd f199 ccbe 77cb 40bf
00000070: 4417 62bd 44e0 f4be 8395 70bf 8b47 523e
00000080: d361 6dbf 7f14 5d3f d71a f33e 0749 2ebe
00000090: b21d c7be 01df 36be 7694 59bf 6b4d ecbe
000000a0: 4218 22bf 7bb6 83be bd4b 1c3f 2063 b3be
000000b0: 9881 9ebd b09f 1b3f 36fc 8dbf 4256 04bf
000000c0: 15ac 543f 16d9 993e 9597 4c3f 0001 10bf
000000d0: 7a92 073f aa96 443d cfd9 13bf 110e 41be
000000e0: ab7a 06bf 4c3b 313f 780c 8dbe 8cc7 023f
000000f0: 5c19 80bf 9fdf 4d3e ada2 b2be e97e 033f

weight_ih f4 [192, 64]
-0.10633141 -0.12898965 -0.16301093 -0.055049516 -0.0086141145 -0.15013602 0.02246263 0.069443926
0.085011505 -0.1208629 -0.19800642 -0.15626702 -0.08993328 0.04537691 0.060668625 -0.004131305
0.071499534 0.21020497 0.0121492455 -0.06922362 -0.060115945 -0.0131683275 0.019463936 -0.10295382
0.02039552 0.0073181367 0.015539397 -0.038326267 -0.027042855 0.034698233 -0.045606684 0.024933213
0.06748262 -0.11511727 -0.18522033 0.016103864 -0.025586348 -0.08382953 -0.0389142 -0.010062569
-0.06371632 -0.14514415 -0.203585 -0.12371159 0.060258254 -0.072347045 0.12844811 0.029814404
-0.13017912 -0.11907768 0.020940248 0.123237304 0.15266342 -0.20326185 0.08041528 0.14712355
-0.028067537 -0.0069660265 0.06224655 0.008177735 0.109078765 0.06036599 0.02398048 -0.09824434
-0.119872235 0.050889514 0.12530097 0.07791891 0.2505424 0.06480953 -0.044510525 -0.00751868
-0.07114116 0.20483032 0.040265843 0.18629582 0.26452276 0.09806655 -0.07371384 0.040409796
-0.10903754 0.088070385 -0.059064623 0.0145824915 0.011796433 -0.027306978 -0.031913474 -0.0023263863
0.01271426 -0.020054227 0.015871473 -0.08038358 0.06845479 -0.09535179 -0.22300074 0.07256657
-0.24245402 -0.057808854 0.16141763 0.0005319632 0.14948006 0.132042 -0.08742469 -0.081484996
0.13624296 -0.07302173 -0.08279014 0.21028765 -0.16577402 -0.096036896 -0.108623676 -0.107596606
0.050883863 0.058013245 0.05504703 0.050710943 -0.18025018 0.0038050057 0.1334905 0.11053147
-0.15243833 -0.058845174 0.17089465 -0.058566842 -0.035361562 -0.1088404 0.009199442 0.21513951
-0.21742614 0.07560465 -0.010704222 0.1838633 0.2583195 0.15398741 -0.073180944 0.096940555
0.05571703 0.243123 -0.14181978 0.28776363 0.18794782 0.08323355 0.13882262 0.09693854
-0.27835003 0.04149979 0.20779046 -0.16956025 -0.09641748 -0.12557204 0.06341684 0.040556744
-0.053482905 0.14061199 -0.06513751 -0.007462706 -0.04020801 -0.09221381 -0.24470845 -0.030584354
-0.25818896 0.048406277 0.12508251 0.005116469 -0.011342197 0.032465048 -0.06568519 -0.06137904
0.040690545 -0.012057384 -0.21329564 0.27756438 -0.13229154 -0.09078368 -0.06940725 0.09200311
-0.12284527 -0.0544436 0.09381352 0.13750692 0.044147387 -0.076594606 0.18820444 0.068329066
-0.28441226 -0.06514989 0.110186644 0.08880368 -0.023797343 -0.08234595 -0.09372963 0.22944584
-0.029302897 -0.15624587 -0.03646746 0.03593987 -0.008454218 -0.11325991 -0.1676835 0.014155866
0.13092525 -0.080383755 -0.012312354 -0.06450768 -0.18028201 -0.16191992 0.14790864 -0.11940718
0.038142268 0.19513994 0.015848355 0.052126598 -0.18124276 -0.17476875 0.015681164 -0.097482145
0.0036660885 -0.02637148 0.1969768 -0.04927544 0.102861874 0.0859498 0.00968848 0.05719039
0.08231773 -0.1312867 0.04668725 -0.037518807 0.19497822 -0.08045025 0.031229207 0.03763724
-0.1274308 -0.14541967 -0.14802772 -0.092289865 0.063755505 -0.0139048 0.10297386 0.17970268
0.019157425 0.04434478 -0.16745707 0.0054291347 0.072913826 -0.10993256 0.060685527 -0.015940886
0.18269844 -0.12372366 0.052099183 -0.13774316 -0.03555325 0.008715831 0.085986026 0.0026948436
00000000: 48c4 d9bd dd15 04be 56ec 26be 9a7b 61bd
00000010: 3722 0dbc 42bd 19be 8d03 b83c 9e38 8e3d
00000020: 831a ae3d f886 f7bd 32c2 4abe 7604 20be
00000030: f12e b8bd 24dd 393d aa7f 783d e65f 87bb
00000040: 596e 923d f93f 573e a10d 473c 1dc5 8dbd
00000050: 233c 76bd f8bf 57bc d572 9f3c 74d9 d2bd
00000060: 8114 a73c fbcc ef3b f498 7e3c 01fc 1cbd
00000070: fa88 ddbc bc1f 0e3d 13ce 3abd bd40 cc3c
00000080: 5434 8a3d 9ac2 ebbd 66aa 3dbe 40ec 833c
00000090: 769a d1bc d1ae abbd 7f64 1fbd 79dd 24bc
000000a0: b47d 82bd aba0 14be 9678 50be 815c fdbd
000000b0: 5cd1 763d b02a 94bd e787 033e 563d f43c
000000c0: ad4d 05be 00df f3bd e28a ab3c d763 fc3d
000000d0: cd53 1c3e e023 50be c4b0 a43d 8ea7 163e
000000e0: e4ed e5bc 4443 e4bb 3df6 7e3d e8fb 053c
000000f0: b064 df3d 5442 773d b672 c43c 5434 c9bd
00000100: 937f f5bd 8671 503d e64e 003e f393 9f3d
00000110: 1847 803e dcba 843d ab50 36bd 425f f6bb
00000120: 75b2 91bd 0abf 513e cced 243d 55c4 3e3e
00000130: 876f 873e 1ed7 c83d 48f7 96bd be84 253d
00000140: 134f dfbd 3f5e b43d bfed 71bd 67eb 6e3c
00000150: d345 413c e2b2 dfbc b4b7 02bd 4976 18bb
00000160: 794f 503c c348 a4bc e404 823c 25a0 a4bd
00000170: 0632 8c3d cd47 c3bd 4e5a 64be c89d 943d
00000180: de45 78be fac8 6cbd aa4a 253e 7273 0b3a
00000190: 4d11 193e 0536 073e b70b b3bd 9be1 a6bd
000001a0: 4683 0b3e 6b8c 95bd e08d a9bd a555 573e
000001b0: aac0 29be feae c4bd 1776 debd 9c5b dcbd
000001c0: 996b 503d 4c9f 6d3d ff78 613d 47b6 4f3d
000001d0: 8193 38be 675d 793b bcb1 083e 535e e23d
000001e0: cb18 1cbe a307 71bd 02ff 2e3e c9e3 6fbd
000001f0: 49d7 10bd b7e7 debd 42b9 163c 884d 5c3e
00000200: f5a4 5ebe 9cd6 9a3d c360 2fbc a946 3c3e
00000210: 7442 843e e0ae 1d3e e4df 95bd c588 c63d
00000220: 8a37 643d 3cf5 783e 3439 11be c155 933e
00000230: 6575 403e 5a76 aa3d 8427 0e3e b787 c63d
00000240: e583 8ebe affb 293d 06c7 543e 34a1 2dbe
00000250: 8776 c5bd f595 00be b0e0 813d d41e 263d
00000260: e410 5bbd 97fc 0f3e d166 85bd b789 f4bb
00000270: 27b1 24bd 98da bcbd da94 7abe 0a8c fabc
00000280: 5831 84be a945 463d a115 003e 0ea8 a73b
00000290: 9fd4 39bc 12fa 043d f585 86bd 9768 7bbd
000002a0: 21ab 263d 558c 45bc 2c6a 5abe eb1c 8e3e
000002b0: 6f77 07be cbec b9bd 6325 8ebd 206c bc3d
000002c0: 4d96 fbbd 4100 5fbd 4e21 c03d 9dce 0c3e
000002d0: e4d3 343d a2dd 9cbd aab8 403e 1cf0 8b3d
000002e0: 7c9e 91be 4e6d 85bd 89a9 e13d b4de b53d
000002f0: a5f2 c2bc fea4 a8bd 52f5 bfbd daf3 6a3e
00000300: a10c f0bc ebfe 1fbe e75e 15bd af35 133d
00000310: 8f83 0abc d0f4 e7bd 39b5 2bbe 01ee 673c
00000320: 4511 063e 3da0 a4bd c1b9 49bc 9a1c 84bd
00000330: d99b 38be 56ce 25be 5d75 173e c08b f4bd
00000340: 113b 1c3d c4d2 473e 69d4 813c b382 553d
00000350: b497 39be 94f6 32be c975 803c b8a4 c7bd
00000360: c242 703b 0109 d8bc 49b4 493e 0bd5 49bd
00000370: 3fa9 d23d 7306 b03d 6ebc 1e3c 7840 6a3d
00000380: 3396 a83d 0570 06be 213b 3f3d 52ad 19bd
00000390: 5fa8 473e 1ac3 a4bd 65d4 ff3c 8229 1a3d
000003a0: 387d 02be e5e8 14be 9494 17be 7802 bdbd
000003b0: 3f92 823d f5d0 63bc f6e3 d23d fb03 383e
000003c0: 08f0 9c3c dfa2 353d de79 2bbe e2e6 b13b
000003d0: d853 953d 5224 e1bd 6391 783d 7696 82bc
000003e0: 4d15 3b3e d562 fdbd f465 553d 8b0c 0dbe
000003f0: 49a0 11bd d8cc 0e3c 7119 b03d f99b 303b

weight_hh f4 [192, 64]
-0.11838376 -0.047418643 -0.05964087 -0.053035054 0.15735841 0.091531835 -0.080621265 0.15141052
-0.07263033 0.13091005 -0.09785509 0.04546006 -0.035041098 -0.016530763 0.10452125 -0.020877125
-0.1322471 0.043307014 -0.012274004 -0.060568634 0.07924005 0.09246301 0.013550005 -0.21904236
-0.11349271 -0.031061519 -0.12218113 0.11013703 -0.08557106 -0.08532358 0.006122559 -0.043021385
-0.0957847 -0.08662723 -0.06599768 0.038383264 0.10470848 0.009059318 0.024330987 -0.0375562
-0.022618908 -0.03425775 -0.04297018 0.09555734 -0.11792022 0.015195748 -0.1586464 -0.07959746
0.047575794 -0.05414033 0.15038449 -0.054969527 -0.15058006 0.12189993 0.084771335 0.14119226
-0.027773963 0.061166495 -0.06287942 0.0005892095 0.0984131 -0.058503095 -0.10298369 0.15402119
0.08419264 -0.109499864 -0.03146261 -0.010906035 -0.19442023 -0.11897191 -0.049815215 -0.052640032
0.005037567 -0.09059093 -0.009134655 0.023443658 0.04167637 -0.05249382 0.09241903 0.077548385
0.23031749 -0.057807967 -0.035065405 0.038739342 -0.09567378 0.0132150715 -0.056424145 0.08792109
0.041476674 -0.07932076 -0.09072328 -0.10020719 0.13896859 0.0107747065 -0.03589007 0.053788517
-1.5334343e-05 -0.009297375 -0.092871666 0.10532277 -0.03875424 0.027296906 -0.07750285 0.044783738
-0.20593832 0.02132168 0.05700455 -0.11779012 0.014018171 0.021787044 0.1596277 0.10567712
-0.073332086 0.005526076 -0.1298419 0.053399768 0.18301265 0.05244805 0.013534153 -0.048144724
-0.014625683 -0.089524195 0.033304054 -0.15917817 0.11198259 -0.103022136 0.07035038 -0.1721231
-0.054393534 0.17950101 0.047401726 0.09969862 0.20975049 0.116400935 0.16267222 0.09087687
-0.101510555 0.16535498 0.03487599 0.22586396 0.22027151 0.07680848 -0.086527735 0.049898308
-0.15338321 -0.05159194 0.026986226 -0.21629012 0.09091309 0.15981337 -0.14120388 -0.1089098
0.14790732 0.17178437 -0.120513685 0.10268912 -0.121041715 0.04132104 -0.10896146 0.026992556
-0.13160601 -0.051862992 0.046747416 -0.027598921 -0.058472145 0.06725329 -0.0976034 0.057037503
0.14218491 -0.07484008 0.1110237 0.19913141 -0.048124053 0.010308733 -0.021475006 0.07153132
0.16785128 0.025613798 0.025211468 -0.09452293 0.040434852 -0.00576203 0.17670748 0.0091550015
-0.19855079 0.0042856396 0.07695623 0.14832777 0.041808788 -0.11320742 -0.049251586 0.093491614
0.061004642 -0.07530883 0.11150083 0.101226434 0.0634204 -0.024686579 0.04450405 -0.12526435
0.05281848 -0.06175949 0.08338796 0.0792533 -0.06554649 -0.071131885 0.07497123 0.12664609
0.04149997 0.01593501 -0.04297597 -0.12978153 0.017849294 0.08453774 -0.043548908 -0.13077316
0.13490614 0.0030514472 -0.17748764 0.004272157 0.009630972 0.050432377 -0.0701264 -0.015902355
0.029418549 0.045732636 0.05279877 -0.12565668 -0.10849204 -0.0124324225 0.040518574 -0.15172164
0.15690066 0.17489955 0.100306526 0.016109511 0.039060757 0.019966312 -0.042638645 0.0672538
0.18634668 -0.03134604 0.07144555 -0.10553785 -0.13411562 0.1419193 0.06488722 0.041358143
0.057198383 -0.02293743 0.02261279 0.09343737 -0.013505501 -0.14422269 -0.11915468 -0.016878098
00000000: 2f73 f2bd 0d3a 42bd fc49 74bd 493b 59bd
00000010: 9022 213e 0b75 bb3d c31c a5bd 5c0b 1b3e
00000020: 36bf 94bd 490d 063e 4068 c8bd 5434 3a3d
00000030: 4187 0fbd 866b 87bc 3d0f d63d 8106 abbc
00000040: c96b 07be b262 313d e718 49bc d116 78bd
00000050: 9b48 a23d 3f5d bd3d d700 5e3c a44c 60be
00000060: de6e e8bd ba74 febc 1a3a fabd 868f e13d
00000070: e13f afbd 21be aebd bf9f c83b 3137 30bd
00000080: c52a c4bd 9e69 b1bd cb29 87bd c537 1d3d
00000090: 6671 d63d 896d 143c c751 c73c 88d4 19bd
000000a0: 4a4b b9bc db51 0cbd 8001 30bd 91b3 c33d
000000b0: 2880 f1bd 96f7 783c 3474 22be fe03 a3bd
000000c0: d6de 423d 40c2 5dbd 64fe 193e ba27 61bd
000000d0: a931 1abe aca6 f93d 989c ad3d b494 103e
000000e0: 3986 e3bc b889 7a3d edc6 80bd 2e75 1a3a
000000f0: cf8c c93d f1a0 6fbd 1de9 d2bd bbb7 1d3e
00000100: 316d ac3d 7741 e0bd f0de 00bd 3aaf 32bc
00000110: 1916 47be 8ba7 f3bd 0a0b 4cbd 139d 57bd
00000120: 2d12 a53b bd87 b9bd 85a9 15bc ea0c c03c
00000130: d7b4 2a3d c303 57bd 3046 bd3d b0d1 9e3d
00000140: 59d8 6b3e 0cc8 6cbd bea0 0fbd 25ad 1e3d
00000150: 9df0 c3bd 0784 583c 011d 67bd f90f b43d
00000160: 72e3 293d ec72 a2bd 21cd b9bd 6d39 cdbd
00000170: c84d 0e3e 6588 303c 7701 13bd 5951 5c3d
00000180: 40a2 80b7 0454 18bc 8033 bebd 77b3 d73d
00000190: c4bc 1ebd c39d df3c d0b9 9ebd 276f 373d
000001a0: 7fe1 52be ceaa ae3c 9a7d 693d f23b f1bd
000001b0: 78ac 653c be7a b23c 7275 233e 3f6d d83d
000001c0: 222f 96bd 1614 b53b 46f5 04be b7b9 5a3d
000001d0: ab67 3b3e c4d3 563d 5abe 5d3c 6733 45bd
000001e0: 90a0 6fbc 7658 b7bd d569 083d 9aff 22be
000001f0: 2157 e53d 45fd d2bd dc13 903d 0a41 30be
00000200: c1cb 5ebd 1dcf 373e 5028 423d ca2e cc3d
00000210: d5c8 563e 9d63 ee3d 8c93 263e a71d ba3d
00000220: c4e4 cfbd d152 293e 20da 0e3d e248 673e
00000230: db8e 613e c44d 9d3d 7435 b1bd 2b62 4c3d
00000240: 7d10 1dbe 1252 53bd 3812 dd3c 287b 5dbe
00000250: a430 ba3d 1ea6 233e c097 10be 1a0c dfbd
00000260: 0475 173e 3ee8 2f3e e1cf f6bd ac4e d23d
00000270: b8e4 f7bd 4040 293d 3027 dfbd 7e1f dd3c
00000280: bac3 06be 4a6e 54bd 387a 3f3d 2217 e2bc
00000290: 7d80 6fbd 18bc 893d 4be4 c7bd 28a0 693d
000002a0: ec98 113e c245 99bd 6560 e33d 1be9 4b3e
000002b0: ba1d 45bd f6e5 283c 5aec afbc 037f 923d
000002c0: 35e1 2b3e 07d4 d13c 4888 ce3c 3d95 c1bd
000002d0: 049f 253d 69cf bcbb cef2 343e dcfe 153c
000002e0: e650 4bbe 8d6e 8c3b 3a9b 9d3d 3ce3 173e
000002f0: b13f 2b3d 4bd9 e7bd 08bc 49bd 8878 bf3d
00000300: 01e0 793d 843b 9abd 8c5a e43d ce4f cf3d
00000310: 8ee2 813d 823b cabc e149 363d 4c45 00be
00000320: 3158 583d 85f7 7cbd 4fc7 aa3d 8e4f a23d
00000330: 3d3d 86bd 98ad 91bd 848a 993d 83af 013e
00000340: dffb 293d 238a 823c 9207 30bd 73e5 04be
00000350: af38 923c 1f22 ad3d 5760 32bd 66e9 05be
00000360: d624 0a3e cafa 473b 52bf 35be 73fd 8b3b
00000370: 39cb 1d3c 2e92 4e3d 6e9e 8fbd a845 82bc
00000380: 2bff f03c 2552 3b3d 8643 583d 25ac 00be
00000390: 1331 debd 5cb1 4bbc cef6 253d eb5c 1bbe
000003a0: 91aa 203e de18 333e 826d cd3d 18f8 833c
000003b0: 2cfe 1f3d 6490 a33c dca5 2ebd 5cbc 893d
000003c0: aad1 3e3e b564 00bd 0b52 923d 3a24 d8bd
000003d0: 9b55 09be 4b53 113e 97e3 843d 2867 293d
000003e0: da48 6a3d 47e7 bbbc 753e b93c 185c bf3d
000003f0: 2d46 5dbc 1daf 13be 5e07 f4bd f043 8abc

bias_ih f4 [192]
0.10253528 -0.0055193 0.030973034 -0.025937254 -0.022233482 0.020296507 0.09567444 0.04562463
-0.06418563 0.014185076 -0.002208397 0.04030605 0.12363218 0.13388018 0.061509006 0.0644133
0.04031655 0.147668 0.02162048 -0.027110413 0.025563914 -0.066894524 -0.030702429 -0.0012873132
0.01702109 0.017775185 0.049553093 0.10976593 -0.09637972 0.0011486385 0.062131133 0.031207547
0.022880793 -0.050705995 -0.09296137 -0.13233641 0.07491021 -0.113937184 -0.026331693 -0.00066615985
-0.07821922 0.15093653 -0.059950534 0.029365832 0.048940793 0.09043448 -0.0041121505 0.066402785
-0.08832899 -0.034166284 -0.13400175 -0.11480816 0.099932164 -0.120680034 -0.008983129 -0.060604967
-0.055962462 -0.08869569 -0.13627332 0.033344526 0.030589053 0.10836654 -0.09962852 0.018925676
-0.0155351 0.09703901 -0.023018554 0.057091504 0.056222953 -0.09588982 -0.149759 -0.012811326
-0.13182425 -0.05432441 0.023091817 0.13866603 0.13653123 0.021462206 -0.03251429 0.07205892
0.08576421 -0.091179065 -0.14025448 0.10064967 0.0058066305 -0.08820541 -0.09675008 -0.03539043
-0.08602324 -0.02195376 0.021039773 -0.13569516 -0.021489156 0.15271826 0.09096016 0.077156216
0.030074006 -0.05096064 0.035788447 -0.005662222 0.09016474 -0.12881327 0.08703463 0.098543726
-0.061279356 -0.013708093 -0.08777147 -0.10468504 0.10435514 0.0106559675 0.0822663 0.032702666
-0.057527874 -0.09472196 0.081308156 0.0129458085 -0.13746978 0.107987635 0.07371042 0.036855333
0.048000325 -0.026039584 0.08765695 -0.043579843 -0.15995327 0.11696106 -0.058008306 0.075800896
-0.04971587 -0.05524862 0.059957962 -0.078182146 0.0029035164 -0.12919727 0.032387067 0.098783635
-0.08133203 0.07267093 -0.020545095 -0.0126297595 -0.047548104 0.0042027133 -0.035974074 0.0526053
-0.10047456 0.12612247 0.081401356 -0.0885373 0.048854284 -0.06040698 -0.09125925 0.12038556
-0.09577277 0.11737659 0.031839993 0.035036676 -0.012638749 -0.14609243 -0.044757456 -0.0038582073
-0.028645772 0.00060525007 0.1159869 -0.0042662923 0.029438568 -0.11516977 -0.005064935 -0.0058857226
0.07827582 0.061925337 -0.069822535 0.06846233 -0.1311669 -0.0922707 0.04051194 -0.038319282
0.14742346 -0.15741135 0.060140435 -0.090641975 0.041575067 0.121261805 0.060200747 0.077028215
-0.10352403 -0.16782339 0.120272 0.07219574 0.030428959 0.059141237 0.11488937 -0.081258014
00000000: 04fe d13d 3edb b4bb 29bb fd3c 5d7a d4bc
00000010: fe22 b6bc dc44 a63c f6f0 c33d e4e0 3a3d
00000020: c173 83bd 8568 683c c1ba 10bb f517 253d
00000030: de32 fd3d e317 093e def0 7b3d 1feb 833d
00000040: f722 253d 4836 173e 6f1d b13c a816 debc
00000050: 6a6b d13c ffff 88bd a983 fbbc 10bb a8ba
00000060: d06f 8b3c 449d 913c 2ff8 4a3d f6cc e03d
00000070: bb62 c5bd ea8d 963a 377d 7e3d f8a6 ff3c
00000080: 8070 bb3c 17b1 4fbd 8862 bebd 3283 07be
00000090: 866a 993d e657 e9bd 90b5 d7bc 3ba1 2eba
000000a0: 6631 a0bd 1b8f 1a3e b18e 75bd 9d90 f03c
000000b0: 2476 483d b635 b93d 38bf 86bb 2ffe 873d
000000c0: d4e5 b4bd f2f1 0bbd c137 09be 8a20 ebbd
000000d0: 3ca9 cc3d 1827 f7bd f92d 13bc ea3c 78bd
000000e0: e538 65bd 16a6 b5bd 3c8b 0bbe 4594 083d
000000f0: e595 fa3c 47ef dd3d 0a0a ccbd 050a 9b3c
00000100: ef86 7ebc 63bc c63d 6891 bcbc c8d8 693d
00000110: 0a4a 663d e261 c4bd 6c5a 19be 99e6 51bc
00000120: f0fc 06be 4683 5ebd 0d2b bd3c 78fe 0d3e
00000130: d8ce 0b3e 82d1 af3c b42d 05bd a193 933d
00000140: 25a5 af3d 17bc babd df9e 0fbe 6a21 ce3d
00000150: 8c45 be3b 0aa5 b4bd e824 c6bd 8ef5 10bd
00000160: f42c b0bd 5fd8 b3bc 9a5b ac3c acf3 0abe
00000170: 070a b0bc 2d62 1c3e 5249 ba3d 1404 9e3d
00000180: c35d f63c 1bbc 50bd e896 123d 298a b9bb
00000190: 4ba8 b83d a0e7 03be 363f b23d 4bd1 c93d
000001a0: 1000 7bbd e997 60bc 87c1 b3bd 1c65 d6bd
000001b0: 26b8 d53d 5e96 2e3c 3c7b a83d 3bf3 053d
000001c0: 59a2 6bbd 96fd c1bd e484 a63d a81a 543c
000001d0: e1c4 0cbe 9f28 dd3d 7df5 963d 9ef5 163d
000001e0: fd9b 443d f750 d5bc 7d85 b33d c780 32bd
000001f0: caca 23be 4889 ef3d 1e9a 6dbd 803d 9b3d
00000200: dea2 4bbd 614c 62bd 7b96 753d f61d a0bd
00000210: ec48 3e3b 4a4c 04be 4da8 043d 134f ca3d
00000220: 6891 a6bd 7fd4 943d 304e a8bc 0ded 4ebc
00000230: cdc1 42bd eab6 893b 8d59 13bd a878 573d
00000240: 9bc5 cdbd 4026 013e c1b5 a63d 0b53 b5bd
00000250: 6e1b 483d 4f6d 77bd 21e6 babd b48c f63d
00000260: 8424 c4bd 2363 f03d a76a 023d 9e82 0f3d
00000270: c112 4fbc 4199 15be 9853 37bd fad9 7cbb
00000280: 8aaa eabc a5a9 1e3a 8a8a ed3d 41cc 8bbb
00000290: 2729 f13c 21de ebbd c1f7 a5bb 05dd c0bb
000002a0: 134f a03d 6ca5 7d3d 1eff 8ebd fa35 8c3d
000002b0: 9e50 06be 6cf8 bcbd d9ef 253d aef4 1cbd
000002c0: 2df6 163e 7130 21be d155 763d 80a2 b9bd
000002d0: 9e4a 2a3d 1c58 f83d 0f95 763d f8c0 9d3d
000002e0: 6804 d4bd e5d9 2bbe 2b51 f63d 5cdb 933d
000002f0: 2746 f93c 153e 723d 1e4b eb3d 9a6a a6bd

bias_hh f4 [192]
0.04887672 -0.12712865 -0.06236501 -0.037309386 0.16900964 -0.12825976 -0.1204203 -0.11840888
0.09002793 0.0053997147 0.0398483 0.0033122194 0.04723915 0.10273661 0.08669266 -0.054766554
0.08174729 0.04916197 0.070056304 0.06473894 -0.06639917 -0.09402256 -0.102852374 -0.16463672
0.06743984 -0.07527273 0.15990779 0.015965087 -0.12923864 -0.049099836 0.14122266 0.06617573
0.13288139 -0.17211823 0.11892086 -0.021634325 0.13818003 -0.14005524 -0.0895511 -0.01591971
-0.1355384 -0.0019280261 0.043603774 -0.05393325 -0.015467109 0.0632492 -0.07994902 0.0075469664
0.0017499847 0.07850343 -0.08985707 0.10078575 -0.092340216 -0.0262653 -0.034407545 -0.08004205
0.16557464 -0.1380938 0.046411663 0.03437109 0.091652215 0.13303244 0.05821596 0.09515219
-0.19177479 -0.05096634 0.041359358 0.021008976 -0.041635044 0.07164782 0.030496316 -0.13106297
-0.019279614 -0.025752481 -0.103012346 0.10484263 -0.009187396 -0.07073486 -0.057877336 0.06858387
-0.079885505 0.007954475 0.093836 0.03647673 -0.051081836 -0.08184379 0.027561918 0.015913788
0.04513568 0.052228555 0.112696886 -0.06981018 0.026396232 -0.054194935 -0.09839596 0.11406335
0.041787457 -0.043221917 0.04039591 -0.015436957 0.03719027 -0.13577153 -0.036224592 -0.077953495
-0.14470428 -0.1265349 -0.073750995 -0.107734844 0.10311343 -0.08116724 0.077035315 -0.017109282
-0.09305561 -0.055931326 -0.057508044 -0.10911541 -0.03603808 -0.007922855 0.054079674 0.047998145
0.0250152 0.041098718 -0.06423912 0.020791741 0.006002971 -0.09337188 0.015772892 0.104586765
-0.1263216 -0.13574557 0.0032206848 0.028634258 -0.05492257 -0.048840288 0.098443426 0.07408007
-0.16481067 -0.022693714 0.15448646 0.054888267 -0.09555292 0.026228601 0.15069921 -0.06657099
-0.023052031 0.11575209 0.04518864 0.06275903 0.0036916619 -0.058147952 -0.010826025 0.101600125
0.023193713 -0.052345704 -0.005704059 -0.037746403 0.01810193 -0.069663316 -0.075031824 -0.02971369
-0.11301395 0.11784194 0.038675383 -0.09844208 0.10965101 0.06080803 -0.09631732 -0.14152154
-0.02170107 0.0069665094 -0.10405526 0.119291425 -0.13053992 -0.091404185 0.08328398 0.059317205
0.009760705 -0.22483751 0.022706177 -0.11080319 -0.11631664 0.13930987 -0.031069335 -0.074865274
-0.0019131136 -0.13634445 -0.04200837 -0.057685398 0.02848092 -0.09578716 0.046185084 0.047224157
00000000: f532 483d 032e 02be 7472 7fbd bad1 18bd
00000010: dd10 2d3e 8756 03be eb9e f6bd 5b80 f2bd
00000020: 9060 b83d 17f0 b03b f937 233d d211 593b
00000030: d77d 413d 9267 d23d ec8b b13d e552 60bd
00000040: 206b a73d 105e 493d ae79 8f3d d995 843d
00000050: 4afc 87bd e68e c0bd 44a4 d2bd 8796 28be
00000060: e61d 8a3d 9728 9abd debe 233e 37c9 823c
00000070: 2257 04be e91c 49bd ac9c 103e 2487 873d
00000080: 0f12 083e c33f 30be c88c f33d 783a b1bc
00000090: 117f 0d3e a46a 0fbe 9166 b7bd 0d6a 82bc
000000a0: 94ca 0abe d2b5 fcba df99 323d 1de9 5cbd
000000b0: c269 7dbc cc88 813d 50bc a3bd 8b4c f73b
000000c0: be5f e53a 68c6 a03d fc06 b8bd c268 ce3d
000000d0: de1c bdbd 542a d7bc edee 0cbd 16ed a3bd
000000e0: 668c 293e 7668 0dbe 281a 3e3d b3c8 0c3d
000000f0: 28b4 bb3d a839 083e dc73 6e3d 27df c23d
00000100: 9c60 44be 15c2 50bd 6e68 293d 041b ac3c
00000110: 8289 2abd 18bc 923d 69d3 f93c 5f35 06be
00000120: 48f0 9dbc def6 d2bc 23f8 d2bd bcb7 d63d
00000130: bb86 16bc 70dd 90bd c910 6dbd b375 8c3d
00000140: 039b a3bd 7c53 023c 172d c03d a068 153d
00000150: 303b 51bd b89d a7bd 88c9 e13c a25d 823c
00000160: 31e0 383d 9ced 553d a0cd e63d a4f8 8ebd
00000170: e93c d83c 82fb 5dbd d283 c9bd 0c9a e93d
00000180: 5329 2b3d 7709 31bd 2f76 253d 4aeb 7cbc
00000190: d354 183d b107 0bbe 3d60 14bd 15a6 9fbd
000001a0: 5c2d 14be 5d92 01be c30a 97bd 16a4 dcbd
000001b0: 222d d33d 033b a6bd b1c4 9d3d c428 8cbc
000001c0: f193 bebd 3f18 65bd 8e8d 6bbd e677 dfbd
000001d0: aa9c 13bd ddce 01bc a682 5d3d b499 443d
000001e0: adec cc3c 2157 283d cd8f 83bd 7153 aa3c
000001f0: 92b4 c43b c239 bfbd 2736 813c 9631 d63d
00000200: 735a 01be e300 0bbe 2012 533b 6492 ea3c
00000210: 7df6 60bd c10c 48bd b59c c93d 4bb7 973d
00000220: 21c4 28be 2be8 b9bc b331 1e3e 85d2 603d
00000230: 40b1 c3bd 5ddd d63c e550 1a3e 5f56 88bd
00000240: 9dd7 bcbc 6f0f ed3d b917 393d ce87 803d
00000250: cfef 713b 8c2c 6ebd a45f 31bc ba13 d03d
00000260: be00 be3c 7368 56bd 1de9 babb f99b 1abd
00000270: 804a 943c a4ab 8ebd 49aa 99bd 206a f3bc
00000280: dc73 e7bd 1d57 f13d 146a 1e3d 009c c9bd
00000290: b590 e03d d711 793d 0442 c5bd 06eb 10be
000002a0: 71c6 b1bc 5147 e43b ed1a d5bd 104f f43d
000002b0: 42ac 05be 1e32 bbbd cb90 aa3d 99f6 723d
000002c0: 5deb 1f3c ce3b 66be 4e02 ba3c c8ec e2bd
000002d0: 6b37 eebd 3fa7 0e3e 1e85 febc f752 99bd
000002e0: 71c1 faba e19d 0bbe f810 2cbd 8647 6cbd
000002f0: d150 e93c 0f2c c4bd 922c 3d3d 1e6e 413d

weight f4 [64, 64]
0.022879664 0.107719675 -0.05779427 -0.0033272975 0.024239302 -0.07140557 0.20420983 0.17164235
-0.04367425 0.14810094 0.09864233 0.08025968 0.18050294 -0.032255482 -0.14928742 0.05524285
-0.008736533 0.0091514075 -0.012248085 0.10711255 -0.08717892 -0.039436724 -0.1267302 -0.0067966348
0.03591524 -0.09847347 0.112939045 0.011825964 -0.05387994 0.008982312 -0.09230135 0.008501804
-0.09447233 0.050811853 0.097783305 -0.07135644 0.09335116 0.1729498 0.05362911 -0.07382739
0.13173513 0.0475949 0.11708918 0.012850353 -0.037316635 0.008834737 -0.025140053 -0.023208367
-0.092808805 -0.06628425 0.105076425 0.04276682 -0.026232664 -0.11993007 0.01234665 0.08882371
-0.12851296 0.057052232 0.0136015555 -0.0441429 0.058534417 -0.04129668 0.099255934 -0.0696778
0.021889385 0.05452331 0.07593809 0.1264091 -0.027701223 -0.017725492 -0.073082425 -0.08273657
-0.041022975 0.04479681 0.01848457 0.09589604 -0.021388775 0.15497515 0.058397993 0.08677062
-0.12899461 -0.08300818 0.12669006 0.06564515 0.07192535 -0.027559945 0.08536387 -0.11071933
0.08253596 0.050239056 -0.014234548 0.010326287 0.06771415 -0.09936374 -0.119796775 -0.13853997
0.010088476 0.06652631 0.086095124 -0.0069762203 0.0709576 -0.06082285 -0.06822512 -0.060936786
0.045124326 -0.0435496 -0.00551489 -0.014668755 0.06865834 -0.14785865 -0.050096765 0.053656872
0.026333585 -0.1386837 -0.11241267 -0.0021109288 -0.12005205 0.12972154 0.03404906 -0.06495803
-0.12718074 -0.118658565 -0.07029134 0.0069245156 -0.06987979 -0.13090895 0.004338257 0.17032251
-0.13054657 0.1599551 -0.15463795 0.023609348 0.2746463 0.17951764 0.07103421 0.12582782
0.017011004 0.17713015 -0.11456 0.1784659 0.07750642 0.22900043 -0.07364633 0.08110518
-0.034163266 -0.056192696 -0.015817396 -0.050743792 -0.038267776 -0.21120755 -0.041937713 -0.10018092
0.10445217 -0.2554144 0.04613696 -0.15302557 -0.13257568 0.0814 -0.013315413 0.043549653
-0.19521071 -0.05394795 0.024355808 0.092351526 0.019853216 0.1743654 -0.06947395 0.09802484
0.14287843 -0.025140189 -0.11521057 -0.01875386 -0.3212277 -0.24429767 -0.12252851 -0.06556594
0.06671789 0.19284862 -0.01877576 0.013587692 0.035637137 -0.18483208 0.04914777 0.10369978
-0.24588406 -0.14609282 0.015185721 0.044759728 0.23504446 -0.059619717 -0.02859433 0.21532308
-0.05688145 0.0004363964 0.10591014 -0.09864725 0.007932078 -0.0344103 -0.11183005 -0.0820468
0.13332883 0.11221942 -0.08746261 -0.09515063 0.13425371 0.08241075 -0.046682063 0.0089036
0.008685765 -0.07542641 0.0630609 0.05506132 -0.11694542 0.039501056 0.101415716 0.08343465
-0.047937203 -0.053261053 -0.0016674509 -0.017731337 0.10416838 0.061838415 0.021831162 -0.0608181
-0.020559492 -0.09175941 -0.04534209 0.043723132 -0.030581713 -0.08412738 0.05126299 -0.06601164
-0.09105488 0.048650254 -0.036509413 -0.026625631 -0.07629298 -0.108798556 -0.062070537 0.12753804
-0.0814897 -0.056974668 -0.06530542 -0.029406134 0.0409417 0.02443617 -0.054170214 -0.033546314
-0.0865707 0.090385035 0.04354091 -0.03769452 -0.06070012 0.0025977057 0.102316044 0.08361369
00000000: 226e bb3c 229c dc3d afb9 6cbd ca0e 5abb
00000010: 8091 c63c 153d 92bd 621c 513e 03c3 2f3e
00000020: c5e3 32bd c6a7 173e fd04 ca3d 305f a43d
00000030: c3d5 383e 531e 04bd cdde 18be 5446 623d
00000040: ad23 0fbc c9ef 153c 31ac 48bc d35d db3d
00000050: dd8a b2bd 6788 21bd 90c5 01be 4eb6 debb
00000060: dc1b 133d 75ac c9bd 964c e73d b0c1 413c
00000070: 36b1 5cbd 8c2a 133c 7d08 bdbd 274b 0b3c
00000080: b57a c1bd 1720 503d 9d42 c83d 5323 92bd
00000090: e52e bf3d c119 313e 33aa 5b3d d132 97bd
000000a0: 93e5 063e dff2 423d 74cc ef3d 498a 523c
000000b0: 54d9 18bd 93bf 103c 83f2 cdbc 791f bebc
000000c0: 8b12 bebd 09c0 87bd 4f32 d73d 432c 2f3d
000000d0: e2e5 d6bc e69d f5bd 9a49 4a3c 35e9 b53d
000000e0: e798 03be 9aaf 693d 0fd9 5e3c 2fcf 34bd
000000f0: c9c1 6f3d b526 29bd b246 cb3d 3cb3 8ebd
00000100: 5e51 b33c d653 5f3d 6e85 9b3d 6371 013e
00000110: aded e2bc 0d35 91bc 3dac 95bd ca71 a9bd
00000120: b507 28bd dc7c 373d f46c 973c 2565 c43d
00000130: 8337 afbc ceb1 1e3e bc32 6f3d cbb4 b13d
00000140: 2a17 04be 3100 aabd 0abb 013e f770 863d
00000150: 994d 933d 65c5 e1bc 41d3 ae3d d1c0 e2bd
00000160: 9d08 a93d 78c7 4d3d 0638 69bc 962f 293c
00000170: b7ad 8a3d 377f cbbd 0358 f5bd 6cdd 0dbe
00000180: 234a 253c f23e 883d a452 b03d c798 e4bb
00000190: 3852 913d 6121 79bd 9db9 8bbd da98 79bd
000001a0: 49d4 383d 1161 32bd 40b6 b4bb 3855 70bc
000001b0: be9c 8c3d 4268 17be 4432 4dbd 4fc7 5b3d
000001c0: 88b9 d73c 1a03 0ebe 9d38 e6bd 8257 0abb
000001d0: d9dd f5bd b9d5 043e 0777 0b3d b708 85bd
000001e0: ab3b 02be 4303 f3bd e8f4 8fbd 0ce7 e23b
000001f0: 231d 8fbd ff0c 06be f027 8e3b 0669 2e3e
00000200: 00ae 05be 45cb 233e 6959 1ebe 6468 c13c
00000210: 719e 8c3e 79d3 373e 627a 913d 02d9 003e
00000220: a95a 8b3c 9b61 353e 6f9e eabd c4bf 363e
00000230: b0bb 9e3d 177f 6a3e e3d3 96bd 791a a63d
00000240: c8ee 0bbd 502a 66bd 7c93 81bc b9d8 4fbd
00000250: acbe 1cbd cb46 58be e1c6 2bbd a72b cdbd
00000260: 05eb d53d adc5 82be 1cfa 3c3d bcb2 1cbe
00000270: ebc1 07be 0bb5 a63d e428 5abc 1f61 323d
00000280: 51e5 47be 87f8 5cbd d585 c73c cc22 bd3d
00000290: 36a3 a23c d88c 323e 5c48 8ebd 3fc1 c83d
000002a0: b94e 123e ccf2 cdbc 85f3 ebbd b2a1 99bc
000002b0: f577 a4be 2b29 7abe 3af0 fabd 7047 86bd
000002c0: 64a3 883d 1c7a 453e 9fcf 99bc e99e 5e3c
000002d0: 3ff8 113d 9f44 3dbe 2c4f 493d 8d60 d43d
000002e0: 08c9 7bbe 5b99 15be 88cd 783c fa55 373d
000002f0: 7faf 703e ce33 74bd a83e eabc a77d 5c3e
00000300: 86fc 68bd 22cc e439 6ae7 d83d 9207 cabd
00000310: 8cf5 013c d1f1 0cbd 2707 e5bd 2708 a8bd
00000320: 5a87 083e 4cd3 e53d 991f b3bd 55de c2bd
00000330: ce79 093e f8c6 a83d b135 3fbd 68e0 113c
00000340: bd4e 0e3c 2979 9abd 1326 813d fb87 613d
00000350: 1581 efbd dccb 213d 0bb3 cf3d c9df aa3d
00000360: cd59 44bd 4328 5abd 5e8e daba 4f41 91bc
00000370: 3b56 d53d 474a 7d3d 44d7 b23c 661c 79bd
00000380: 616c a8bc 5cec bbbd a1b8 39bd 0717 333d
00000390: 8086 fabc fa4a acbd 24f9 513d 1c31 87bd
000003a0: fb7a babd 7d45 473d e58a 15bd ff1d dabc
000003b0: 7e3f 9cbd c7d1 debd ad3d 7ebd 5599 023e
000003c0: 12e4 a6bd 455e 69bd d9be 85bd 22e5 f0bc
000003d0: 7cb2 273d 5d2e c83c 96e1 5dbd dc67 09bd
000003e0: fb4b b1bd ca1b b93d f457 323d 9265 1abd
000003f0: b0a0 78bd 453e 2a3b 138b d13d a83d ab3d

bias f4 [64]
0.08707953 0.09042662 -0.12013966 0.027237164 -0.14119451 0.08948915 -0.086616196 -0.0054089813
-0.12753576 -0.007202909 0.0741224 -0.12679215 0.0069252383 -0.12519686 -0.03134199 0.09889643
0.027853908 0.10365399 -0.0058026696 -0.11322584 -0.03702558 0.08839708 -0.13774805 0.08522443
0.10939382 -0.11905088 -0.101993546 0.15133612 -0.042163637 -0.054974828 -0.09281249 0.059895724
0.06833779 -0.027088445 -0.028445328 -0.102330446 -0.05399636 -0.0785735 -0.0341287 -0.10856995
0.04597658 -0.082618415 0.104884245 -0.027648294 -0.023510244 -0.020628713 -0.05723788 0.013849013
0.07272793 0.009625044 -0.0075674215 -0.029051328 0.011529632 0.051059417 -0.09326909 0.030162519
-0.12294609 -0.040903825 -0.120036 -0.019877423 0.02866672 0.12497766 0.039381623 0.024595436
00000000: c156 b23d 9731 b93d c80b f6bd 7920 df3c
00000010: 4b95 10be 1646 b73d d563 b1bd d33d b1bb
00000020: bc98 02be 6106 ecbb 7ccd 973d cdd5 01be
00000030: 1ced e23b 9b33 00be 7560 00bd 368a ca3d
00000040: e12d e43c 8b48 d43d 5224 bebb f3e2 e7bd
00000050: 22a8 17bd 8709 b53d d30d 0dbe 258a ae3d
00000060: de09 e03d f3d0 f3bd fee1 d0bd dbf7 1a3e
00000070: c7b3 2cbd 492d 61bd 7a14 bebd 3855 753d
00000080: aff4 8b3d 96e8 ddbc 2d06 e9bc a092 d1bd
00000090: 4a2b 5dbd 25eb a0bd 89ca 0bbd ec59 debd
000000a0: f051 3c3d d833 a9bd 8dcd d63d ad7e e2bc
000000b0: 8e98 c0bc 8cfd a8bc 4472 6abd f8e6 623c
000000c0: 62f2 943d 5cb2 1d3c 22f8 f7bb 0dfd edbc
000000d0: c8e6 3c3c ae23 513d dd03 bfbd 6317 f73c
000000e0: 29cb fbbd c58a 27bd 6fd5 f5bd fad5 a2bc
000000f0: 78d6 ea3c 4af4 ff3d a04e 213d 5e7c c93c

weight f4 [1, 64]
0.0667503 -0.12971504 -0.28786924 0.110971905 0.1535544 -0.31601226 0.06509758 0.012951933
0.0863271 -0.09790105 0.0310012 0.0038730113 -0.19278124 -0.21553205 0.08031014 -0.06548754
0.0428194 0.13445652 0.045790717 -0.077943794 -0.29691914 0.13551456 0.015885746 -0.028094377
0.09326979 0.076023676 -0.08899982 0.11903867 -0.24957958 -0.1881902 -0.3079378 0.12564167
-0.11232437 -0.07922193 0.052709322 -0.22478251 -0.23706473 0.064394966 -0.17837197 0.035031326
0.043196376 0.013456279 -0.19297996 0.22184965 0.18823132 -0.27337554 0.04748256 0.018306749
-0.14413717 0.027270097 0.002911083 -0.11387628 0.1947351 0.11104277 -0.20917903 -0.16650704
0.022506729 0.1624513 0.025669357 0.06603419 -0.24198774 0.06425905 -0.14988454 -0.20091838
00000000: 62b4 883d 05d4 04be 9963 93be 3d45 e33d
00000010: 5d3d 1d3e 5ccc a1be e151 853d 5834 543c
00000020: 43cc b03d 5880 c8bd 3bf6 fd3c 59d2 7d3b
00000030: 7268 45be 6fb4 5cbe a579 a43d 551e 86bd
00000040: 6563 2f3d f8ae 093e 0c8f 3b3d ffa0 9fbd
00000050: c905 98be 54c4 0a3e d322 823c 2e26 e6bc
00000060: 3b04 bf3d 4db2 9b3d 8a45 b6bd 8cca f33d
00000070: ca91 7fbe efb4 40be 06aa 9dbe 36a8 003e
00000080: 520a e6bd 1b3f a2bd bbe5 573d 632d 66be
00000090: 19c1 72be 82e1 833d 24a7 36be 027d 0f3d
000000a0: afee 303d ba77 5c3c 8a9c 45be 8e2c 633e
000000b0: b6bf 403e e1f7 8bbe 137d 423d 09f8 953c
000000c0: b298 13be 8a65 df3c dec7 3e3b f837 e9bd
000000d0: a368 473e 646a e33d 0733 56be d280 2abe
000000e0: 0860 b83c a259 263e 8b48 d23c ef3c 873d
000000f0: a2cb 77be 409a 833d 557b 19be 8cbd 4dbe
