link_prediction/checkpoints/cora-vgae.pt (torch, 103772 bytes, 6 tensors)

weight f4 [16, 1433]
-0.04542356 -0.06575287 -0.066158324 -0.04780563 -0.07991683 -0.08314273 -0.08444042 -0.0988195
-0.09321053 -0.038700696 -0.057164792 -0.06955745 -0.08575762 -0.05196671 -0.08538627 -0.06793917
-0.07826209 -0.09712261 -0.069651306 -0.055597205 -0.05537116 -0.08329802 -0.07830723 -0.0635963
-0.094738476 -0.09214539 -0.07767642 -0.07907469 -0.06441402 -0.071904786 -0.08143065 -0.089863904
-0.08644222 -0.052820653 -0.08152789 -0.05738942 -0.07567341 -0.056003425 -0.06827833 -0.074421324
-0.092029154 -0.05595044 -0.052138776 -0.0727481 -0.078740045 -0.062841244 -0.06418136 -0.08820788
-0.09477587 -0.0753722 -0.06789949 -0.04202166 -0.054913785 -0.047826726 -0.081054896 -0.06963846
-0.064094305 -0.083373055 -0.08598124 -0.08727046 -0.08512091 -0.06904857 -0.050638374 -0.085243024
-0.06639053 -0.05511515 -0.06828796 -0.048043802 -0.092622034 -0.0748842 -0.062362008 -0.04224781
-0.088735506 -0.088855244 -0.05383734 -0.07303355 -0.06874498 -0.09848885 -0.079984926 -0.08966583
-0.07691657 -0.057890426 -0.081123255 -0.068690605 -0.070155986 -0.07973357 -0.09151771 -0.058210727
-0.08005892 -0.06539412 -0.1095197 -0.0689325 -0.09171188 -0.064729966 -0.056835417 -0.068199195
-0.055019647 -0.05406995 -0.073214866 -0.06267247 -0.07876387 -0.052543107 -0.07191545 -0.068133965
-0.07415815 -0.08456581 -0.088987015 -0.0588472 -0.08492419 -0.061555795 -0.057389162 -0.05766094
-0.058440447 -0.1033207 -0.064139694 -0.070587546 -0.082187764 -0.06206406 -0.086344644 -0.051905748
-0.0809625 -0.062303968 -0.07031374 -0.05741595 -0.062216282 -0.08786081 -0.08572314 -0.042510863
-0.07479695 -0.05142597 -0.09010598 -0.059302118 -0.056851633 -0.08018541 -0.07906194 -0.05233693
-0.06346849 -0.06004108 -0.047938958 -0.07571337 -0.08541641 -0.056561213 -0.038882006 -0.08218316
-0.064613484 -0.09180247 -0.094512366 -0.079334036 -0.04946433 -0.06525333 -0.070546865 -0.091868065
-0.06677511 -0.0954429 -0.061931767 -0.053335253 -0.064165644 -0.07687136 -0.056516837 -0.055039212
-0.09213853 -0.047766775 -0.07565987 -0.092534184 -0.083422646 -0.07040189 -0.05868919 -0.062868804
-0.05164183 -0.09095944 -0.05498855 -0.028747313 -0.07255717 -0.09383471 -0.051475044 -0.0652673
-0.0652268 -0.082649864 -0.07194652 -0.09066473 -0.0874573 -0.037547115 -0.08089764 -0.04834276
-0.059210602 -0.059216563 -0.07674353 -0.07857404 -0.08968141 -0.056771208 -0.051409356 -0.09257063
-0.074507855 -0.07317402 -0.057610314 -0.057517685 -0.08633192 -0.07462521 -0.051517524 -0.05200484
-0.045342933 -0.0790846 -0.075372234 -0.07647757 -0.06420458 -0.08797548 -0.055732198 -0.03345882
-0.03961704 -0.06876092 -0.062899135 -0.04899845 -0.07994216 -0.07864687 -0.082723804 -0.05680908
-0.052731216 -0.106160946 -0.0866556 -0.069699906 -0.07566652 -0.056939878 -0.06829373 -0.077998154
-0.07088417 -0.08753935 -0.06244579 -0.06968473 -0.05552319 -0.09303432 -0.08885226 -0.07355612
-0.064119376 -0.098084465 -0.08073833 -0.061210185 -0.073557906 -0.08798696 -0.09062803 -0.06092834
-0.058441963 -0.046102885 -0.07455524 -0.057867143 -0.06872254 -0.055219863 -0.0716721 -0.059303366
-0.07775316 -0.071948454 -0.08611896 -0.0822539 -0.07232099 -0.054671224 -0.06082951 -0.06758411
00000000: 0e0e 3abd 71a9 86bd 047e 87bd d6cf 43bd
00000010: 6fab a3bd bc46 aabd 19ef acbd e161 cabd
00000020: 2ae5 bebd 9f84 1ebd a125 6abd 2374 8ebd
00000030: b1a1 afbd 0bdb 54bd ffde aebd b123 8bbd
00000040: e047 a0bd 38e8 c6bd 58a5 8ebd e5b9 63bd
00000050: dfcc 62bd 2798 aabd 8a5f a0bd c73e 82bd
00000060: 3f06 c2bd b9b6 bcbd d114 9fbd e9f1 a1bd
00000070: 7feb 83bd d142 93bd 1dc5 a6bd 910a b8bd
00000080: 9e08 b1bd 785a 58bd 18f8 a6bd 2b11 6bbd
00000090: a9fa 9abd d963 65bd 82d5 8bbd 356a 98bd
000000a0: c879 bcbd 4a2c 65bd 788f 55bd f5fc 94bd
000000b0: 7642 a1bd e9b2 80bd 8471 83bd 55a6 b4bd
000000c0: da19 c2bd bd5c 9abd e30e 8bbd e71e 2cbd
000000d0: 47ed 60bd f5e5 43bd 1c00 a6bd 9c9e 8ebd
000000e0: e043 83bd 7ebf aabd ef16 b0bd dbba b2bd
000000f0: df53 aebd 5669 8dbd 2f6a 4fbd e593 aebd
00000100: c2f7 87bd 6cc0 61bd 8fda 8bbd 94c9 44bd
00000110: 9fb0 bdbd e35c 99bd 4e6f 7fbd 0a0c 2dbd
00000120: f6ba b5bd bdf9 b5bd 8b84 5cbd 9d92 95bd
00000130: 2bca 8cbd 86b4 c9bd 23cf a3bd b8a2 b7bd
00000140: 6f86 9dbd 831e 6dbd f323 a6bd a9ad 8cbd
00000150: f1ad 8fbd 5b4b a3bd a36d bbbd 5f6e 6ebd
00000160: eef5 a3bd 5aed 85bd dd4b e0bd 7c2c 8dbd
00000170: 70d3 bbbd 2591 84bd 41cc 68bd 05ac 8bbd
00000180: 485c 61bd 7478 5dbd adf1 95bd 6d5a 80bd
00000190: f44e a1bd 7137 57bd 6848 93bd d289 8bbd
000001a0: 3ae0 97bd d730 adbd d33e b6bd c309 71bd
000001b0: bcec adbd ee21 7cbd e610 6bbd e12d 6cbd
000001c0: 405f 6fbd ce99 d3bd ac5b 83bd 3490 90bd
000001d0: 0f52 a8bd e236 7ebd 76d5 b0bd 1f9b 54bd
000001e0: abcf a5bd 7232 7fbd a600 90bd fd2c 6bbd
000001f0: 80d6 7ebd 5ef0 b3bd 9d8f afbd df1f 2ebd
00000200: 252f 99bd 0aa4 52bd 7c89 b8bd c7e6 72bd
00000210: 42dd 68bd 4038 a4bd 3aeb a1bd 405f 56bd
00000220: c5fb 81bd a3ed 75bd a45b 44bd 9d0f 9bbd
00000230: ccee aebd bbac 67bd bd42 1fbd a54f a8bd
00000240: 1354 84bd ef02 bcbd b38f c1bd e279 a2bd
00000250: 1c9b 4abd 8aa3 85bd e07a 90bd 5325 bcbd
00000260: 64c1 88bd 9177 c3bd 2aac 7dbd 1176 5abd
00000270: 4769 83bd bb6e 9dbd 337e 67bd cc70 61bd
00000280: 20b3 bcbd 18a7 43bd 90f3 9abd 9082 bdbd
00000290: 7ed9 aabd de2e 90bd 1364 70bd 5cc1 80bd
000002a0: 6286 53bd f148 babd ac3b 61bd 7c7f ebbc
000002b0: db98 94bd 6a2c c0bd 7fd7 52bd ddaa 85bd
000002c0: a195 85bd 5544 a9bd b258 93bd 6eae b9bd
000002d0: d01c b3bd 01cb 19bd a9ad a5bd 0f03 46bd
000002e0: d186 72bd 118d 72bd b62b 9dbd 6deb a0bd
000002f0: e3aa b7bd ed88 68bd 9e92 52bd ac95 bdbd
00000300: 9397 98bd 43dc 95bd cbf8 6bbd aa97 6bbd
00000310: cace b0bd 1ad5 98bd 0a04 53bd 0703 55bd
00000320: 83b9 39bd 1bf7 a1bd c25c 9abd 46a0 9cbd
00000330: b17d 83bd 7d2c b4bd 7247 64bd 1e0c 09bd
00000340: 7a45 22bd 86d2 8cbd 43d1 80bd 99b2 48bd
00000350: b7b8 a3bd 9c11 a1bd 196b a9bd a3b0 68bd
00000360: b0fc 57bd e96a d9bd 7e78 b1bd d3be 8ebd
00000370: 0cf7 9abd ca39 69bd 95dd 8bbd 7fbd 9fbd
00000380: b82b 91bd d547 b3bd 28c7 7fbd deb6 8ebd
00000390: 496c 63bd c788 bebd 2cf8 b5bd 97a4 96bd
000003a0: 0551 83bd 82e0 c8bd 235a a5bd 88b7 7abd
000003b0: 87a5 96bd 8232 b4bd 309b b9bd ff8f 79bd
000003c0: d760 6fbd 61d6 3cbd 6bb0 98bd 1906 6dbd
000003d0: 67be 8cbd 392e 62bd d2c8 92bd 16e8 72bd
000003e0: 0c3d 9fbd b659 93bd 235f b0bd bc74 a8bd
000003f0: 071d 94bd efee 5fbd 5d28 79bd 8a69 8abd

bias f4 [16]
-0.053240314 -0.06296716 0.40266073 0.4178195 -0.017443959 -0.02423889 -0.082665846 -0.024275493
-0.07361333 0.3951491 -0.056343693 0.4058844 0.4051669 -0.025981762 0.41073325 0.37421817
00000000: 8412 5abd edf4 80bd 8c29 ce3e 70ec d53e
00000010: a2e6 8ebc a390 c6bc b64c a9bd 66dd c6bc
00000020: 96c2 96bd fc50 ca3e a5c8 66bd 14d0 cf3e
00000030: 0972 cf3e b4d7 d4bc a14b d23e 8699 bf3e

weight f4 [16, 16]
-0.110464185 0.22839026 -0.43834826 0.082233 0.20646626 0.15036511 0.040022075 -0.22087052
0.14463075 0.14564383 0.22987407 0.18110484 0.2367887 -0.18911788 0.2009852 -0.3910552
0.028909609 0.06802842 0.28109786 -0.02068799 0.06851512 -0.22924769 0.102164656 0.18549106
-0.14805833 -0.0034177469 -0.020332912 0.13935219 -0.26541102 0.08459172 0.07565942 -0.057290662
0.15639377 -0.2892159 0.4761972 0.36700687 -0.11196393 0.12755111 -0.20735611 -0.0027003884
0.28247434 -0.11583123 0.011909687 -0.038143896 -0.18717632 0.2351161 -0.17453024 -0.300453
0.08912513 -0.30761245 0.4146522 -0.008282225 0.14763668 0.03179747 -0.056713205 0.09903741
0.022574106 0.41734225 -0.2737189 0.24614558 -0.34350157 -0.21408784 -0.6016053 -0.16715181
0.028931474 -0.1458912 0.2750851 -0.025120426 0.22634715 0.21813118 0.0220572 0.17870128
-0.024674358 -0.5507419 0.016194994 0.59026766 0.36117393 -0.025421053 0.05961465 -0.71760845
-0.28423285 -0.22330333 -0.37201554 0.74660695 0.06651431 0.0048299134 -0.16626652 -0.2120043
0.061950378 0.18289752 0.080518305 -0.27419 -0.26409733 0.15173632 0.4538548 -0.42859912
-0.05453547 0.123149596 -0.24704215 -0.38691714 0.18227813 -0.21618506 0.036949117 -0.19902876
0.11970711 -0.24062727 -0.01172448 0.5274835 -0.385925 0.10756478 0.351588 0.47416577
0.2928199 0.17370807 -0.27060768 0.3211353 0.0033607185 -0.2237935 0.0222314 -0.19577363
-0.06291408 -0.36117986 0.034215584 0.3660464 0.22392349 0.1323275 -0.5106778 0.25063208
0.019000744 0.11434678 -0.17258205 -0.1712862 0.014844358 0.019718468 0.082046896 -0.15935215
0.2239929 0.17112826 0.16071917 -0.029229397 0.7121493 -0.18291786 -0.17650168 -0.3875044
-0.03455083 -0.09528854 0.0012621382 0.21063858 0.06015089 -0.2399989 -0.25138718 -0.13095385
-0.28514364 -0.45351997 -0.17685933 0.11178994 -0.2510499 0.15448198 0.3147225 -0.03656492
0.10260953 -0.13306741 0.31133914 0.120203115 -0.105374426 0.10352281 0.07028315 -0.17147234
0.029508093 -0.23037224 0.15821068 -0.5917436 0.11569824 -0.083055794 0.035611447 0.2667597
-0.17298946 0.19238621 0.29095438 -0.487816 -0.03607309 0.23276982 0.06593396 -0.21895686
0.28794774 0.29950023 0.16408822 0.07277172 -0.20065303 -0.08050257 0.46747592 -0.44841975
-0.11208951 0.068862356 -0.201137 0.11104896 -0.22907376 0.21275535 0.08828918 -0.09445855
-0.0018390798 0.079112716 -0.15438837 0.019971147 0.0073575024 0.21697757 0.03342766 0.097783886
-0.008464165 0.09351595 0.33505112 -0.21810675 0.02803585 -0.05926749 0.029831694 -0.13766614
0.24584202 -0.53541285 -0.2961824 -0.38283697 0.28786793 0.23850298 0.366766 0.05829262
0.03282411 0.08043634 -0.26208052 -0.22846162 -0.15719414 -0.050331086 0.06435351 -0.15356651
-0.028623292 0.26719227 -0.018369267 -0.004189773 0.14648134 -0.08561987 0.098827764 0.09256595
0.03783433 -0.016492464 0.13468936 -0.28655002 -0.03015536 -0.04022926 0.29293963 0.1207563
0.04088268 0.23464271 0.03143829 -0.26732486 0.23984393 -0.21491313 -0.034705125 -0.029336743
00000000: 0c3b e2bd 23df 693e 2f6f e0be c669 a83d
00000010: e46b 533e 50f9 193e 30ee 233d e22b 62be
00000020: 151a 143e a823 153e 1c64 6b3e 8c73 393e
00000030: bd78 723e 1ea8 41be 10cf 4d3e 6338 c8be
00000040: d8d3 ec3c 7c52 8b3d 0fec 8f3e dc79 a9bc
00000050: a851 8c3d e8bf 6abe b43b d13d 5ef1 3d3e
00000060: 9a9c 17be 47fc 5fbb 3591 a6bc 57b2 0e3e
00000070: f4e3 87be 6c3e ad3d 53f3 9a3d 9da9 6abd
00000080: b025 203e 1b14 94be 1fd0 f33e 53e8 bb3e
00000090: 584d e5bd c29c 023e 2955 54be 00f9 30bb
000000a0: 7aa0 903e ed38 edbd d920 433c c63c 1cbd
000000b0: 26ab 3fbe 46c2 703e 0eb8 32be fad4 99be
000000c0: 3c87 b63d 617f 9dbe 4b4d d43e 2bb2 07bc
000000d0: 122e 173e 103e 023d 1b4c 68bd 20d4 ca3d
000000e0: 55ed b83c e2ad d53e e224 8cbe 960d 7c3e
000000f0: 70df afbe d839 5bbe ce02 1abf d829 2bbe
00000100: b301 ed3c 8164 15be f4d7 8c3e 5ac9 cdbc
00000110: 8cc7 673e c85d 5f3e 4db1 b43c 78fd 363e
00000120: e121 cabc 6cfd 0cbf 5dab 843c c81b 173f
00000130: caeb b83e d03f d0bc 7e2e 743d 30b5 37bf
00000140: f886 91be a1a9 64be d278 bebe a221 3f3f
00000150: a838 883d 4044 9e3b c541 2abe a817 59be
00000160: aebf 7d3d 7d49 3b3e c8e6 a43d a262 8cbe
00000170: c437 87be c460 1b3e a85f e83e 5871 dbbe
00000180: 9660 5fbd db35 fc3d 9ef8 7cbe 011a c6be
00000190: 1ea7 3a3e 9e5f 5dbe f557 173d 32ce 4bbe
000001a0: 0029 f53d ff66 76be 0918 40bc 2909 073f
000001b0: f697 c5be ec4a dc3d 5803 b43e dbc5 f23e
000001c0: 7dec 953e 87e0 313e 178d 8abe d96b a43e
000001d0: 803f 5c3b 202a 65be a01e b63c e278 48be
000001e0: 19d9 80bd 91ec b8be a425 0c3d 6f6a bb3e
000001f0: 334c 653e dc80 073e c8bb 02bf d952 803e
00000200: 73a7 9b3c a52e ea3d 59b9 30be a665 2fbe
00000210: c035 733c a088 a13c 3408 a83d 362d 23be
00000220: 655e 653e 3f3c 2f3e 9193 243e 7d72 efbc
00000230: 6b4f 363f d24e 3bbe dbbc 34be fa66 c6be
00000240: 2c85 0dbd a326 c3bd 556e a53a a4b1 573e
00000250: c860 763d 46c2 75be d2b5 80be c418 06be
00000260: 59fe 91be c533 e8be 9d1a 35be 20f2 e43d
00000270: 9d89 80be 8630 1e3e 4f23 a13e 19c5 15bd
00000280: f224 d23d d342 08be d867 9f3e 0d2d f63d
00000290: 8cce d7bd c403 d43d 9df0 8f3d 7296 2fbe
000002a0: f5ba f13c b3e6 6bbe fb01 223e 827c 17bf
000002b0: 33f3 ec3d 2819 aabd 4fdd 113d ba94 883e
000002c0: 2624 31be e400 453e f9f7 943e 05c3 f9be
000002d0: 60c1 13bd 365b 6e3e 6208 873d 3a36 60be
000002e0: e36d 933e 1858 993e be06 283e 5709 953d
000002f0: fd77 4dbe 88de a4bd 0159 ef3e 4697 e5be
00000300: 2f8f e5bd b507 8d3d dcf6 4dbe a36d e33d
00000310: 5092 6abe 8adc 593e f5d0 b43d 7c73 c1bd
00000320: 470d f1ba d905 a23d fc17 1ebe 889a a33c
00000330: 3417 f13b 5e2f 5e3e 71eb 083d eb42 c83d
00000340: 48ad 0abc 4a85 bf3d d28b ab3e 6057 5fbe
00000350: 70ab e53c 78c2 72bd 9961 f43c 5af8 0cbe
00000360: 03be 7b3e d110 09bf 38a5 97be 3503 c4be
00000370: 6d63 933e 203a 743e c1c8 bb3e 3ec4 6e3d
00000380: 9372 063d cfbb a43d 6b2f 86be d8f1 69be
00000390: 80f7 20be f827 4ebd c6cb 833d 8a40 1dbe
000003a0: 657b eabc 6dcd 883e 257b 96bc 5d4a 89bb
000003b0: 34ff 153e 7859 afbd 3666 ca3d 3793 bd3d
000003c0: 2cf8 1a3d 341b 87bc 02ec 093e afb6 92be
000003d0: 6008 f7bc 70c7 24bd 2ffc 953e 144f f73d
000003e0: 9974 273d 2e46 703e 70c5 003d cede 88be
000003f0: a699 753e 3012 5cbe f626 0ebd 9c53 f0bc

bias f4 [16]
0.0135039035 -0.14206482 -0.012684351 -0.006913696 -0.00284055 -0.077753834 -0.08207114 -0.0119879125
0.013596703 0.0025052393 -0.05691705 0.050074738 -0.112592235 -0.05093942 -0.029305775 -0.019193288
00000000: 7a3f 5d3c 7179 11be 06d2 4fbc 498c e2bb
00000010: 8528 3abb 673d 9fbd ea14 a8bd f368 44bc
00000020: b5c4 5e3c f12e 243b da21 69bd 2b1b 4d3d
00000030: c296 e6bd daa5 50bd aa12 f0bc 3e3b 9dbc

weight f4 [16, 16]
-0.046003584 0.13796999 -0.5853764 -0.4742337 0.121863484 -0.21191981 0.16127701 0.014608026
0.29417852 -0.39543128 -0.21546844 -0.38006014 -0.5332416 -0.17964214 -0.5249725 -0.35492358
-0.15889508 -0.1350569 -0.34798172 -0.5854644 0.022813767 0.0239003 -0.06495532 -0.17094797
0.22018479 -0.53867567 -0.3025725 -0.38274214 -0.18146217 0.21247733 -0.61946607 -0.4397541
-0.20253508 0.019647732 -0.32598853 -0.61345613 0.21004441 -0.20502368 -0.127296 0.15507507
-0.03936131 -0.44510502 0.16299479 -0.38828698 -0.4139007 0.16804668 -0.38432294 -0.34655434
0.00078442175 0.10022844 -0.6769858 -0.5077028 -0.056218952 0.21673122 -0.03847803 0.21141443
-0.15872109 -0.31832743 -0.11860448 -0.47543553 -0.6443456 -0.06885451 -0.38002446 -0.33293748
0.1322348 -0.23517092 -0.6052196 -0.4949013 -0.022683322 0.22350833 -0.07458559 0.15248108
0.039352205 -0.435891 -0.09460653 -0.62395155 -0.40223336 0.18178001 -0.5293433 -0.32741684
0.1435012 -0.20344923 -0.5846257 -0.5820339 0.02819413 -0.17714813 -0.014764367 0.0715515
-0.023667922 -0.35467672 0.104404986 -0.51048607 -0.6054233 0.016314745 -0.5424461 -0.58823216
-0.05752017 -0.2647632 -0.30783704 -0.33802706 -0.20034283 0.21433568 0.14753692 0.1026437
0.035157442 -0.26680616 0.013761327 -0.7367052 -0.62910074 -0.07545796 -0.5300528 -0.53106374
-0.12767245 0.15342572 -0.3377826 -0.6153936 0.20120513 -0.17433572 -0.04681914 0.09694266
-0.13185813 -0.6441115 -0.13178197 -0.56948394 -0.40350956 -0.04467526 -0.30038318 -0.47562343
0.14259689 -0.07290417 -0.2910864 -0.4227007 0.1126363 -0.20946094 0.01960696 0.036480248
-0.059951704 -0.5476124 -0.016970795 -0.593262 -0.29698798 0.11765829 -0.47203436 -0.3742982
0.0023529017 0.1414348 -0.39825547 -0.29663363 -0.03740391 0.024766058 -0.008497853 -0.068731815
0.15056677 -0.36286396 0.10534577 -0.38967344 -0.43585885 -0.12763038 -0.53229743 -0.6445453
0.17611957 -0.06122775 -0.48801315 -0.19527228 0.09367895 -0.17154232 -0.14554946 0.024006337
0.04482916 -0.5914342 0.13646443 -0.5472948 -0.45092386 -0.114610285 -0.45901516 -0.4568094
-0.13417187 0.15637921 -0.36270168 -0.42678374 0.015174031 -0.15932202 -0.23639858 -0.20174989
-0.13353772 -0.27772936 -0.20309363 -0.55160195 -0.52802753 0.1744566 -0.4895206 -0.49061996
0.081411846 0.084171034 -0.2933843 -0.4205548 0.21601456 -0.14454943 -0.084735826 0.15568429
-0.26480442 -0.5536353 -0.15491311 -0.5173184 -0.4500085 -0.0017430484 -0.18777859 -0.20153436
-0.13331795 0.0887399 -0.32917044 -0.43518853 -0.112372816 0.13509482 -0.18977255 0.16506448
-0.049670197 -0.31982058 0.1509859 -0.6932507 -0.30794573 -0.10044399 -0.6024088 -0.43693584
-0.08795606 0.14158648 -0.46725374 -0.4933661 0.05334705 -0.20984408 0.27811342 0.14214039
-0.2727296 -0.28876892 -0.009033866 -0.35070738 -0.19589597 -0.14188865 -0.30117646 -0.46513197
0.18862556 -0.24376473 -0.46745923 -0.55244166 0.24764922 0.0042726696 0.0070263874 0.05253899
0.11389993 -0.46313778 0.119129814 -0.3079536 -0.39230034 0.1421408 -0.28233838 -0.61706305
00000000: 416e 3cbd 0148 0d3e 3adb 15bf c2ce f2be
00000010: 9093 f93d 8201 59be cd25 253e 8056 6f3c
00000020: 919e 963e f875 cabe c2a3 5cbe 3e97 c2be
00000030: 8682 08bf 1cf4 37be 9964 06bf 8bb8 b5be
00000040: 64b5 22be 5b4c 0abe a92a b2be ffe0 15bf
00000050: f0e3 ba3c 90ca c33c 4b07 85bd fc0c 2fbe
00000060: 1f78 613e a6e6 09bf c8ea 9abe c7f6 c3be
00000070: 38d1 39be a893 593e 5495 1ebf 7327 e1be
00000080: 5b65 4fbe 48f4 a03c f8e7 a6be 760b 1dbf
00000090: e215 573e baf1 51be e259 02be 00cc 1e3e
000000a0: 5339 21bd cee4 e3be 1be8 263e 8dcd c6be
000000b0: cbea d3be 6e14 2c3e fac5 c4be 926f b1be
000000c0: a7a1 4d3a 9144 cd3d f14e 2dbf d0f8 01bf
000000d0: d845 66bd caee 5d3e 249b 1dbd 067d 583e
000000e0: c887 22be d0fb a2be e8e6 f2bd 496c f3be
000000f0: d5f3 24bf 9803 8dbd 9192 c2be c876 aabe
00000100: 8f68 073e a5d0 70be acef 1abf b463 fdbe
00000110: 60d2 b9bc 5edf 643e 54c0 98bd 0024 1c3e
00000120: c72f 213d 1b2d dfbe 12c1 c1bd 4abb 1fbf
00000130: 88f1 cdbe 8a24 3a3e 0b83 07bf 2ea3 a7be
00000140: fbf1 123e ff54 50be 08aa 15bf 2c00 15bf
00000150: 60f7 e63c 5266 35be 3ee6 71bc 9889 923d
00000160: 3be3 c1bc 3098 b5be 48d2 d53d 37af 02bf
00000170: 05fd 1abf 80a6 853c bfdd 0abf 6296 16bf
00000180: 459a 6bbd 0b8f 87be d19c 9dbe e211 adbe
00000190: ac26 4dbe d07a 5b3e eb13 173e dc36 d23d
000001a0: 4001 103d d19a 88be 3077 613c b698 3cbf
000001b0: bf0c 21bf b489 9abd 8ab1 07bf cbf3 07bf
000001c0: 91bc 02be a21b 1d3e d7f1 acbe 6f8a 1dbf
000001d0: b808 4e3e 1085 32be 6dc5 3fbd e089 c63d
000001e0: d105 07be 7ee4 24bf daf1 06be b3c9 11bf
000001f0: ce98 cebe 68fd 36bd d3cb 99be ea84 f3be
00000200: eb04 123e c84e 95bd 4709 95be 3a6c d8be
00000210: dcad e63d ee7c 56be c69e a03c 506c 153d
00000220: eb8f 75bd 5430 0cbf 5606 8bbc 05e0 17bf
00000230: cf0e 98be d4f6 f03d 7dae f1be 03a4 bfbe
00000240: 2433 1a3b 49d4 103e 24e8 cbbe 5de0 97be
00000250: d834 19bd 30e2 ca3c 943a 0bbc 44c3 8cbd
00000260: 2d2e 1a3e 4ec9 b9be 86bf d73d 4783 c7be
00000270: e428 dfbe 8ab1 02be a544 08bf ec00 25bf
00000280: b058 343e f3c9 7abd dcdc f9be 75f5 47be
00000290: c0da bf3d caa8 2fbe eb0a 15be f0a8 c43c
000002a0: c89e 373d 3b68 17bf 55bd 0b3e 831b 0cbf
000002b0: 7edf e6be ccb8 eabd 0904 ebbe ece2 e9be
000002c0: 5a64 09be df21 203e 09b4 b9be 6683 dabe
000002d0: 809c 783c 5025 23be 7812 72be 8697 4ebe
000002e0: 1dbe 08be 8b32 8ebe c7f7 4fbe c935 0dbf
000002f0: d02c 07bf c0a4 323e 72a2 fabe 8a32 fbbe
00000300: 41bb a63d dd61 ac3d 7836 96be f552 d7be
00000310: ec32 5d3e c404 14be fa89 adbd b46b 1f3e
00000320: 7294 87be 0bbb 0dbf 8ba1 1ebe fb6e 04bf
00000330: 8467 e6be 0077 e4ba 0849 40be 065f 4ebe
00000340: 8084 08be 44bd b53d 0789 a8be 08d1 debe
00000350: b823 e6bd 4c56 0a3e bc53 42be aa06 293e
00000360: fa72 4bbd 86bf a3be 0c9c 1a3e e178 31bf
00000370: 10ab 9dbe 94b5 cdbd 7737 1abf 0eb6 dfbe
00000380: 4f22 b4bd 0cfc 103e e23b efbe 7b9a fcbe
00000390: 7082 5a3d 5ee1 56be e264 8e3e 408d 113e
000003a0: 37a3 8bbe 85d9 93be c802 14bc eb8f b3be
000003b0: f498 48be 424b 11be cd33 9abe c725 eebe
000003c0: 0f27 413e 769d 79be d156 efbe d16c 0dbf
000003d0: c297 7d3e c001 8c3b 9c3d e63b 2033 573d
000003e0: 5e44 e93d 6520 edbe 55fa f33d 18ac 9dbe
000003f0: 97db c8be 5c8d 113e a88e 90be d8f7 1dbf

bias f4 [16]
-0.06799788 -0.3175984 -0.20850535 -0.24347843 -0.47715375 -0.366349 -0.45332825 -0.4585645
-0.4574638 -0.06945069 -0.011881463 -0.4440851 -0.28562868 -0.36401764 -0.34315738 -0.024425374
00000000: 7942 8bbd 429c a2be 6d82 55be 6952 79be
00000010: 7f4d f4be 1992 bbbe a41a e8be f7c8 eabe
00000020: b238 eabe 2a3c 8ebd 78aa 42bc 1f5f e3be
00000030: ec3d 92be 8560 babe 53b2 afbe b917 c8bc
