link_prediction/checkpoints/vgae_pubmed.pt (torch, 398448 bytes, 6 tensors)

weight f4 [128, 500]
0.037304506 0.04760256 0.012644392 0.010777729 0.027451342 0.050201736 0.05357715 0.051650725
-0.0032497272 0.033155438 -0.024654154 0.03310754 -0.04476086 -0.013671116 0.023307236 -0.0027078744
-0.017091446 -0.0076469807 0.047609977 0.018457687 0.040569127 0.021808263 -0.012653461 0.043205366
0.010089813 0.005379218 -0.030724097 0.01940725 0.043492433 -0.007666804 -0.05208579 0.01661715
0.027743053 -0.0024606753 0.048691574 0.028675117 0.04876671 0.02766307 -0.031957746 0.006991145
0.008156605 0.006529073 -0.018181745 0.016500378 -0.027982369 -0.005579521 -0.015728442 0.03166643
0.009236476 -0.03177739 0.023514621 0.02377262 -0.008950978 -0.011988074 0.05014901 -0.030761322
-0.0275875 0.036332704 -0.011622899 -0.009707064 0.03273213 -0.020459304 0.01958541 -0.003988931
0.04815843 0.03736096 -0.028154813 0.00192618 0.041424368 0.013439914 0.02659129 -0.0049429843
0.0021423437 -0.00053409766 0.031964518 0.042783983 0.012559058 0.044319358 -0.011130846 0.006696567
0.0014536856 -0.024628218 0.035020705 0.029558627 -0.0107400855 -0.010826279 -0.020797614 0.018753551
-0.010108101 -0.031881474 0.027785048 -0.030766135 -0.030658843 -0.022036165 -0.005835018 0.04587099
-0.024690062 0.021656293 0.022756826 0.021743365 -0.008824267 0.042277265 0.017336192 -0.031950407
-0.022362217 -0.011834988 0.026278738 -0.025105463 0.049688373 0.051536407 -0.014943656 0.02954489
0.013035938 0.0023120092 0.0035709813 -0.018469334 0.025425827 0.042897288 -0.0068480084 0.001720096
-0.004186523 0.037662797 0.017833855 0.049533833 -0.0065799793 -0.0074993195 0.053988636 -0.028956369
0.008617454 0.05416056 -0.028736608 0.050819006 -0.000310326 -0.008115105 0.036385436 0.015252333
-0.014294289 -0.0056144465 0.023621438 0.027068226 -0.0059571527 -0.018444743 0.00013383571 -0.016247798
0.017108047 -0.02204917 -0.02220458 -0.020605177 -0.02748117 -0.02095237 -0.033375856 -0.022266358
0.033396743 0.012713881 0.03460358 -0.027340166 -0.021684974 0.020131892 -0.044944797 -0.02132363
0.015271539 0.022098232 -0.016433984 0.040693015 -0.019129371 0.005503118 0.0039179767 -0.0004883781
-0.0053461557 0.025056832 0.043120172 0.027914891 0.04491315 -0.021015838 0.026959995 -0.031046178
0.017858172 0.039905414 0.019539423 -0.007257656 0.0026821322 0.019339522 0.030303644 0.04617864
0.0023840526 -0.021940958 0.043798726 -0.029643677 -0.02186675 -0.006114046 0.030275421 -0.021416474
0.04340946 -0.015895538 0.036849286 -0.032609753 -0.0128748305 0.034406573 0.00874035 0.016345264
0.0016336823 -0.029707514 0.013403119 0.053298596 -0.010603258 0.04054091 0.0033574225 0.021627272
-0.0053958697 0.029073915 0.043661937 0.04868327 -0.02030386 -0.005325798 0.007353076 0.047768675
0.009020333 -0.025357537 0.016196746 -0.0072333533 0.04403858 -0.0096228 0.051051922 0.038802158
0.007418869 -0.02175305 -0.008063029 -0.013552971 -0.031338118 0.022250209 0.04011462 -0.026042067
-0.0026812619 -0.014772852 0.040328875 -0.0077816034 -0.004461309 0.046828665 -0.00906018 0.020403102
0.021289745 -0.033835903 0.03274881 0.021176916 -0.023819845 0.04782221 -0.022554636 -0.010578304
0.014010565 0.05020213 0.008493665 0.042574234 0.03439217 -0.015332298 0.053797256 -0.021233272
00000000: 9ccc 183d e7fa 423d 6d2a 4f3c 1295 303c
00000010: a3e1 e03c 56a0 4d3d b773 5b3d b68f 533d
00000020: 60f9 54bb ffcd 073d 82f7 c9bc c69b 073d
00000030: 2a57 37bd d1fc 5fbc d1ee be3c 9876 31bb
00000040: 5c03 8cbc 8693 fabb ae02 433d 9334 973c
00000050: d02b 263d 3ea7 b23c 7650 4fbc 1cf8 303d
00000060: be4f 253c 2744 b03b 1ab1 fbbc f4fb 9e3c
00000070: 1f25 323d d039 fbbb e957 55bd b020 883c
00000080: 6645 e33c 4843 21bb d170 473d 14e8 ea3c
00000090: 9abf 473d aa9d e23c 20e6 02bd fa15 e53b
000000a0: 48a3 053c d6f1 d53b e2f1 94bc cd2b 873c
000000b0: 483b e5bc 6ad4 b6bb efd8 80bc a9b4 013d
000000c0: 9754 173c 0229 02bd bca1 c03c ccbe c23c
000000d0: 1fa7 12bc a069 44bc 0c69 4d3d 2bff fbbc
000000e0: 2eff e1bc 9ad1 143d f96d 3ebc 610a 1fbc
000000f0: 2012 063d 459a a7bc 9571 a03c 94b5 82bb
00000100: c641 453d ce07 193d eca4 e6bc e077 fc3a
00000110: 99ac 293d 1633 5c3c fad5 d93c c2f8 a1bb
00000120: 9066 0c3b b002 0cba 3aed 023d 423e 2f3d
00000130: 82c4 4d3c 3788 353d 275e 36bc e06e db3b
00000140: 9889 be3a 1ec1 c9bc df71 0f3d ef24 f23c
00000150: 2ff7 2fbc b560 31bc c25f aabc 0ca1 993c
00000160: 739c 25bc 2696 02bd 789d e33c 4309 fcbc
00000170: 4128 fbbc 3085 b4bc ae33 bfbb 38e3 3b3d
00000180: d042 cabc 8a68 b13c 866c ba3c 241f b23c
00000190: a993 10bc ed2a 2d3d a104 8e3c 6ede 02bd
000001a0: f830 b7bc 8ae7 41bc 8246 d73c f9a9 cdbc
000001b0: 0986 4b3d d717 533d 3cd6 74bc 2008 f23c
000001c0: b094 553c 1485 173b 2007 6a3b 004d 97bc
000001d0: d349 d03c 11b5 2f3d 4265 e0bb d874 e13a
000001e0: 1a2f 89bb 4e44 1a3d 4e18 923c fde3 4a3d
000001f0: de9c d7bb dabc f5bb 3023 5d3d e835 edbc
00000200: 3930 0d3c 77d7 5d3d 0969 ebbc 9727 503d
00000210: 40b3 a2b9 38f5 04bc e508 153d ece4 793c
00000220: 9832 6abc 64f9 b7bb bf81 c13c 2fbe dd3c
00000230: 3834 c3bb 6e19 97bc 4056 0c39 1a1a 85bc
00000240: 2d26 8c3c 76a0 b4bc 61e6 b5bc 30cc a8bc
00000250: 3120 e1bc 4ea4 abbc 1fb5 08bd f067 b6bc
00000260: 06cb 083d e24d 503c 7cbc 0d3d 7cf8 dfbc
00000270: b0a4 b1bc a3eb a43c 0918 38bd e5ae aebc
00000280: 7a35 7a3c 5a07 b53c 90a0 86bc b8ad 263d
00000290: 33b5 9cbc 8053 b43b 5f62 803b 8006 00ba
000002a0: ce2e afbb fc43 cd3c c79e 303d c5ad e43c
000002b0: daf6 373d 6829 acbc 35db dc3c 8e54 febc
000002c0: 4d4b 923c dc73 233d 2411 a03c a2d1 edbb
000002d0: b6c6 2f3b eb6d 9e3c 593f f83c d025 3d3d
000002e0: c43d 1c3b 86bd b3bc 4b66 333d 4cd7 f2bc
000002f0: e621 b3bc 5658 c8bb 2904 f83c 9a71 afbc
00000300: 1ece 313d 5c37 82bc 47ef 163d ce91 05bd
00000310: f4f0 52bc e8ed 0c3d af33 0f3c 81e6 853c
00000320: 4821 d63a 2c5d f3bc c198 5b3c a14f 5a3d
00000330: 4ab9 2dbc 3a0e 263d 3408 5c3b ad2b b13c
00000340: d6cf b0bb 6b2c ee3c dcd6 323d 1c68 473d
00000350: 4854 a6bc 0884 aebb 12f2 f03b 16a9 433d
00000360: 05ca 133c 9cba cfbc 0aaf 843c c405 edbb
00000370: cc61 343d f3a8 1dbc d21b 513d 03ef 1e3d
00000380: fc19 f33b 7433 b2bc cb1a 04bc 480d 5ebc
00000390: 665c 00bd 1246 b63c 3a4f 243d 2c56 d5bc
000003a0: 1cb8 2fbb d509 72bc e42f 253d d2fc febb
000003b0: 2c30 92bb 6acf 3f3d 2671 14bc 6824 a73c
000003c0: d567 ae3c 8497 0abd 9e23 063d 367b ad3c
000003d0: d621 c3bc 39e1 433d 80c4 b8bc 9f50 2dbc
000003e0: 928c 653c c0a0 4d3d 0329 0b3c 5262 2e3d
000003f0: cede 0c3d 5234 7bbc 835a 5c3d 66f1 adbc

bias f4 [128]
0.025225315 0.042282723 0.02415932 -0.020419447 -0.028581485 0.0045831543 -0.015289424 0.0065870835
0.028783388 -0.01987916 0.036098674 0.015966067 0.03129005 -0.032359585 -0.017602721 -0.025090517
-0.02156897 -0.026418615 -0.004996648 0.0029733856 0.05102368 -0.021857383 -0.0013015587 0.012005037
0.013888645 0.020103049 -0.025360197 -0.021302208 -0.04151996 0.047785588 0.048778698 0.033297256
0.043966826 -0.026111523 0.041287255 0.047586244 0.03152866 0.033950306 -0.016801301 0.00024342537
-0.00349727 0.0007074941 -0.025305476 -0.026238207 0.011119405 -0.02967871 0.00039493106 0.026515748
-0.043249298 -0.02160622 -0.021168187 -0.02702915 0.0038050683 0.028169503 0.029177802 0.009957759
0.009606288 -0.027490102 0.011544612 0.010052725 -0.013442443 0.020395342 0.021031244 0.03322633
0.04962959 0.002138256 0.023730103 0.007511326 -0.00022975635 0.0007257471 0.0066527054 0.02599315
-0.015154899 -0.028515184 0.020224204 0.041384872 -0.021463364 -0.021696227 -0.001487677 0.048452266
-0.032185264 0.041565154 -0.016296556 -0.040120173 -0.021445863 0.021915814 -0.029072637 -0.02874007
-0.024370857 0.003185683 0.025425477 -0.042674735 0.048748873 -0.026856089 0.003635529 0.052924845
0.01930072 -0.038317777 -0.0241618 -0.017896987 -0.024327543 0.041170735 0.013417074 -0.028094692
0.04491431 -0.029192967 -0.024718666 0.006837275 0.030547284 0.03160299 -0.0025590253 -0.023149304
0.032251425 0.007161258 -0.0021808436 -0.017991014 0.026026044 -0.01718147 0.04843829 -0.028844856
-0.031462204 -0.0059670107 -0.016944421 0.021286234 -0.0014990894 0.007754842 0.017062161 0.014689069
00000000: 52a5 ce3c a630 2d3d c4e9 c53c af46 a7bc
00000010: b823 eabc 492e 963b 7e80 7abc 76d8 d73b
00000020: 24cb eb3c 9fd9 a2bc 34dc 133d 45cb 823c
00000030: ff29 003d 7c8b 04bd 9533 90bc a18a cdbc
00000040: 69b1 b0bc da6b d8bc ecba a3bb 22dd 423b
00000050: 35fe 503d 410e b3bc 1099 aaba c6b0 443c
00000060: 338d 633c 26af a43c 30c0 cfbc f881 aebc
00000070: d510 2abd d2ba 433d 2ccc 473d b462 083d
00000080: 8f16 343d d5e7 d5bc d31c 293d cbe9 423d
00000090: 3224 013d 7a0f 0b3d e2a2 89bc 0040 7f39
000000a0: 7432 65bb 2077 393a 6e4d cfbc 82f1 d6bc
000000b0: 2a2e 363c c420 f3bc c00e cf39 8e37 d93c
000000c0: 2d26 31bd 87ff b0bc e868 adbc 3c6c ddbc
000000d0: 745e 793b bbc3 e63c 4906 ef3c de25 233c
000000e0: b163 1d3c ec32 e1bc 9d25 3d3c 2fb4 243c
000000f0: b13d 5cbc 2214 a73c b749 ac3c 5518 083d
00000100: 6648 4b3d fc21 0c3b a265 c23c 9221 f63b
00000110: c0ea 70b9 1040 3e3a f0fe d93b 96ef d43c
00000120: 414c 78bc ad98 e9bc 3bad a53c 2f83 293d
00000130: f0d3 afbc 49bc b1bc 28fe c2ba e275 463d
00000140: b2d4 03bd 3940 2a3d 5b80 85bc 0d55 24bd
00000150: 3caf afbc cb88 b33c bd29 eebc 4c70 ebbc
00000160: 64a5 c7bc e4c6 503b 1749 d03c b4cb 2ebd
00000170: e6ac 473d 4d01 dcbc 0e42 6e3b b9c7 583d
00000180: 8b1c 9e3c 1af3 1cbd f8ee c5bc b49c 92bc
00000190: 8e4a c7bc a5a2 283d 4ad3 5b3c d726 e6bc
000001a0: 11f8 373d 1726 efbc cd7e cabc 380b e03b
000001b0: 4c3e fa3c 2372 013d 52b5 27bb 9ca3 bdbc
000001c0: 121a 043d fca8 ea3b 7cec 0ebb e461 93bc
000001d0: 9234 d53c 27c0 8cbc 3a67 463d 0c4c ecbc
000001e0: 83de 00bd ea86 c3bb 07cf 8abc 7860 ae3c
000001f0: 187d c4ba 541c fe3b f2c5 8b3c 6caa 703c

weight f4 [128, 128]
-0.09005755 0.0030147657 -0.056550264 0.0044609807 -0.08725234 0.070363924 -0.036897853 -0.06716173
0.020415442 0.043878123 -0.01899417 -0.039790522 -0.031803522 -0.016069971 -0.012101519 -0.04767765
-0.046412636 -0.0048383 -0.059492823 8.765049e-05 -0.04479788 0.0007771668 -0.05698705 -0.05276124
-0.054553643 0.04231871 0.07185747 0.067181095 -0.0005509963 -0.024665117 -0.042313278 -0.007205963
-0.06886927 -0.0234603 0.07156374 0.053438656 -0.04759022 -0.032268874 -0.024308395 0.015544541
0.022719923 0.058926858 0.064259425 0.053110108 -0.051506273 -0.07284255 -0.036994603 0.05518855
0.07000042 0.015097103 0.043187838 -0.052533157 -0.04987857 -0.07855407 0.02110729 0.010345804
0.0023838067 0.031030122 -0.092580825 -0.0013835756 0.07028679 0.042070813 -0.00086894445 -0.060822405
0.053124256 0.01428419 -0.06052787 0.060142994 -0.07231574 -0.0384178 -0.05133108 -0.00536096
0.004383167 0.05844201 0.06839583 -0.00015103165 0.035808783 -0.034407664 -0.024635572 -0.030824725
0.0009163673 -0.054078516 -0.034560047 0.07808509 0.0813227 0.04185891 -0.06264075 0.075064234
-0.014668696 0.06348157 0.042247314 0.023024792 -0.0617825 0.013146708 0.071898274 0.039798196
-0.06857036 0.03872013 -0.051303 -0.027537558 -0.05246166 0.010376985 0.057513744 -0.028621418
0.05698255 -0.016090233 0.028998844 0.021994036 0.01320086 -0.003676348 -0.031004805 0.006606877
0.04559999 0.050513655 -0.008758129 0.029098753 -0.093655415 -0.009580389 -0.07735816 -0.07785471
-0.012040406 -0.05764944 -0.07810469 -0.037037868 -0.07653261 -0.0027091564 -0.08558372 -0.053429168
-0.0410214 0.02095427 -0.0047207107 -0.044020813 -0.029181458 -0.06867777 -0.08250079 0.012206088
0.05994522 -0.05655383 0.052580774 -0.092722565 0.049447797 0.06708394 -0.06880078 -0.074879885
0.019909844 -0.038066655 -0.015336497 -0.09198972 -0.018757485 0.057039164 -0.06825736 0.069706865
0.011225131 0.009526825 -0.021399735 0.08513006 -0.075789265 -0.05736071 -0.029256014 0.008406026
-0.07384702 -0.05314613 -0.024809875 0.016667703 -0.037504844 0.045530334 0.012701558 -0.09233664
-0.010081741 -0.07641061 -0.03661022 0.02890708 -0.086196415 -0.075973466 0.040893648 0.03759117
-0.078498684 0.024901811 -0.031867884 -0.063608326 0.0202094 -0.007508292 0.03227164 -0.077223435
-0.05067118 0.08204064 -0.042094655 -0.007945014 0.012153882 0.074574925 0.06729553 -0.07725252
-0.006655598 -0.05427417 -0.07111559 -0.02307133 0.06859441 0.009581635 0.003267169 0.023694474
0.048007723 0.064174645 -0.02568621 -0.04590904 0.030740153 0.070766926 0.011488607 -0.089037664
-0.051428426 -0.04366546 0.0566504 0.014270523 0.011367732 0.017991897 0.03140856 -0.053301845
0.001599485 0.019728512 0.03412109 0.057130273 -0.09405284 0.057707887 0.005913766 -0.0439217
-0.047008857 0.08001557 -0.020693112 -0.038314648 0.037293445 0.02394576 0.017483655 -0.026386192
-0.08092781 -0.015942425 -0.077280365 0.066742495 0.005162282 -0.06373073 -0.040353373 -0.0121887
-0.053403303 0.07563722 -0.080354124 0.055319056 -0.053326134 0.020759426 -0.038907845 0.03815788
-0.0836747 0.046795115 -0.08325406 -0.0074763983 0.0649962 0.031094812 -0.05077106 0.057709903
00000000: 1870 b8bd 6093 453b 40a1 67bd 6b2d 923b
00000010: 5bb1 b2bd f61a 903d 3422 17bd 178c 89bd
00000020: 493e a73c 8cb9 333d a999 9bbc 63fb 22bd
00000030: 6944 02bd 2ca5 83bc 7345 46bc a449 43bd
00000040: 2d1b 3ebd 9a8a 9ebb bfae 73bd 00d1 b738
00000050: fb7d 37bd c8ba 4b3a 416b 69bd 2c1c 58bd
00000060: a473 5fbd 6256 2d3d 022a 933d 3e96 893d
00000070: bc70 10ba 800e cabc b050 2dbd 0020 ecbb
00000080: 550b 8dbd d12f c0bc 0390 923d 7ee2 5a3d
00000090: f6ed 42bd 5e2c 04bd 6622 c7bc 88ae 7e3c
000000a0: 221f ba3c 4a5d 713d 729a 833d fc89 593d
000000b0: 3ef8 52bd 7a2e 95bd a787 17bd 640d 623d
000000c0: 615c 8f3d d759 773c bbe5 303d 022d 57bd
000000d0: 794d 4cbd f5e0 a0bd 32e9 ac3c 7281 293c
000000e0: a439 1c3b e232 fe3c 049b bdbd 1859 b5ba
000000f0: 85f2 8f3d 7252 2c3d e0c9 63ba ea20 79bd
00000100: d298 593d 3c08 6a3c 12ec 77bd 8058 763d
00000110: 461a 94bd fc5b 1dbd 8a40 52bd feaa afbb
00000120: aba0 8f3b e460 6f3d 1d13 8c3d 405e 1eb9
00000130: 3bac 123d 0def 0cbd 8ad0 c9bc 2284 fcbc
00000140: 5e38 703a 6f81 5dbd d68e 0dbd 13eb 9f3d
00000150: 848c a63d 4074 2b3d cb49 80bd 47bb 993d
00000160: f854 70bc a002 823d 850b 2d3d 7d9e bc3c
00000170: a60f 7dbd 4a65 573c 673f 933d 6f03 233d
00000180: 9e6e 8cbd 0099 1e3d 1823 52bd 7296 e1bc
00000190: 0ae2 56bd 3b04 2a3c 8893 6b3d 7777 eabc
000001a0: 8966 693d aacf 83bc fc8e ed3c d62c b43c
000001b0: 6b48 583c e2ee 70bb cafd fdbc 807e d83b
000001c0: 0ec7 3a3d 68e7 4e3d 417e 0fbc 8260 ee3c
000001d0: 69ce bfbd 10f7 1cbc f46d 9ebd 4a72 9fbd
000001e0: 2045 45bc d221 6cbd 5af5 9fbd 05b5 17bd
000001f0: 21bd 9cbd 1a8c 31bb 8446 afbd 8bd8 5abd
00000200: 0e06 28bd 4aa8 ab3c 31b0 9abb 2b4f 34bd
00000210: f40d efbc eea6 8cbd 2df6 a8bd 0bfc 473c
00000220: 1e89 753d fda4 67bd f05e 573d 54e5 bdbd
00000230: c689 4a3d 4e63 893d 6ce7 8cbd a05a 99bd
00000240: f819 a33c c8eb 1bbd ee45 7bbc 1b65 bcbd
00000250: 4ca9 99bc e6a1 693d 84ca 8bbd 79c2 8e3d
00000260: 9de9 373c 6616 1c3c 7f4e afbc ab58 ae3d
00000270: 6737 9bbd 10f3 6abd 4faa efbc 6eb9 093c
00000280: 1b3d 97bd c2af 59bd 143e cbbc b58a 883c
00000290: ae9e 19bd 047e 3a3d 321a 503c fe1a bdbd
000002a0: e32d 25bc 2a7d 9cbd 99f4 15bd 8ace ec3c
000002b0: bf87 b0bd fa97 9bbd 1980 273d 33f9 193d
000002c0: ebc3 a0bd e2fe cb3c e687 02bd 1545 82bd
000002d0: 2f8e a53c 1e08 f6bb 442f 043d 5227 9ebd
000002e0: 958c 4fbd ec04 a83d 726b 2cbd ce2b 02bc
000002f0: 1321 473c bdba 983d 3dd2 893d 9236 9ebd
00000300: 3417 dabb 984e 5ebd 0da5 91bd 1600 bdbc
00000310: 3a7b 8c3d 4afc 1c3c 001e 563b ea1a c23c
00000320: bfa3 443d ff6d 833d e36b d2bc 1e0b 3cbd
00000330: c6d2 fb3c 40ee 903d b63a 3c3c 6159 b6bd
00000340: 9da6 52bd 8eda 32bd 400a 683d e9ce 693c
00000350: b93f 3a3c be63 933c 43a6 003d 0953 5abd
00000360: d0a5 d13a b09d a13c 8ec2 0b3d 6f01 6a3d
00000370: c69e c0bd 1b5f 6c3d 44c8 c13b 3ee7 33bd
00000380: 5c8c 40bd 34df a33d 9a84 a9bc d2ef 1cbd
00000390: 03c1 183d e629 c43c e239 8f3c db27 d8bc
000003a0: 7bbd a5bd b099 82bc 2b45 9ebd 4ab0 883d
000003b0: 5c28 a93b 4285 82bd 9449 25bd 1db3 47bc
000003c0: 6cbd 5abd b0e7 9a3d b490 a4bd 3c96 623d
000003d0: 816c 5abd ac0f aa3c d55d 1fbd 704b 1c3d
000003e0: a45d abbd 3cac 3f3d 1b81 aabd 93fc f4bb
000003f0: ba1c 853d 8cba fe3c 51f5 4fbd 3861 6c3d

bias f4 [128]
-0.013529973 0.007180147 0.06462021 -0.0006524483 0.0020714067 -0.08853297 -0.008886757 -0.09478102
-0.057360362 0.022202566 0.064798415 0.00846077 -0.072138056 -0.094276406 0.085808806 -0.03333144
0.0808257 -0.0030996501 0.04187105 0.019404305 0.054538846 0.0061675305 -0.041623577 -0.09689585
0.053911164 -0.04118114 -0.053506956 0.025312707 0.013803755 -0.05195103 0.079966344 -0.041981373
-0.082512066 -0.01700759 0.04846632 0.023108467 0.058702894 -0.076548874 -0.084696375 -0.0091062775
0.04225789 0.03679216 0.09103766 0.04306613 -0.080880366 -0.03965357 -0.071151786 0.085691825
-0.02130397 0.07796847 0.044704694 0.078521036 0.03823734 0.095321655 0.09179358 0.012333332
-0.04041422 0.08910052 -0.051540695 0.031147081 0.03649176 0.0070277434 -0.032657027 -0.06304864
0.031036682 0.04865916 0.00472314 -0.07429265 0.06476978 0.012296099 0.04316198 -0.06205703
-0.057175092 0.081919946 -0.03616006 -0.08106441 -0.09503128 -0.07951324 -0.041401096 -0.018342145
0.06922275 -0.037607998 -0.09233084 -0.04451209 0.09095832 -0.09126688 0.07021756 -0.07165371
-0.0777701 0.07863145 0.07223109 0.029699244 -0.03777706 0.06301884 0.012275608 -0.071064055
-0.033649772 -0.08763976 0.048862632 -0.082127266 -0.054087408 0.044397525 -0.06360885 -0.034343425
-0.06573911 0.024657257 -0.041114777 -0.06493341 0.08721983 0.08850653 -0.08910538 -0.02544092
-0.016353797 -0.02269178 0.009748405 -0.016781013 -0.05098372 0.024979904 0.07397198 -0.014750966
-0.013234732 -0.0131541565 0.014376849 0.05959548 -0.058900457 -0.013780506 -0.044577617 -0.03384705
00000000: d2ac 5dbc 7047 eb3b 9a57 843d 1009 2bba
00000010: 70c0 073b c650 b5bd c399 11bc 8d1c c2bd
00000020: b3f2 6abd 28e2 b53c 08b5 843d 0b9f 0a3c
00000030: 1ebd 93bd fd13 c1bd 87bc af3d 8c86 08bd
00000040: f287 a53d 8023 4bbb fa80 2b3d c7f5 9e3c
00000050: 2064 5f3d ff18 ca3b 7c7d 2abd 5571 c6bd
00000060: f4d1 5c3d 8ead 28bd 1c2a 5bbd 985c cf3c
00000070: 2529 623c 9aca 54bd 65c5 a33d a9f4 2bbd
00000080: 16fc a8bd 8053 8bbc 9f84 463d f84d bd3c
00000090: 7272 703d a8c5 9cbd 4b75 adbd 7f32 15bc
000000a0: 9c16 2d3d 60b3 163d f471 ba3d 1c66 303d
000000b0: 9ba4 a5bd c86b 22bd 07b8 91bd 327f af3d
000000c0: aa85 aebc efad 9f3d 451c 373d a3cf a03d
000000d0: c29e 1c3d 0038 c33d 46fe bb3d be11 4a3c
000000e0: 6289 25bd 557a b63d 561c 53bd 2a28 ff3c
000000f0: 6278 153d fc48 e63b 60c3 05bd a51f 81bd
00000100: a440 fe3c d44e 473d 92c4 9a3b bf26 98bd
00000110: 05a6 843d 9475 493c 9eca 303d 832f 7ebd
00000120: 6e30 6abd a5c5 a73d 921c 14bd 1905 a6bd
00000130: c29f c2bd d6d7 a2bd 3294 29bd 4442 96bc
00000140: a8c4 8d3d d80a 1abd f417 bdbd 4f52 36bd
00000150: 5b48 ba3d 21ea babd 39ce 8f3d 2ebf 92bd
00000160: ee45 9fbd 8709 a13d e5ed 933d d44b f33c
00000170: 1ebc 1abd 0610 813d a21f 493c 088a 91bd
00000180: 58d4 09bd 797c b3bd 2f24 483d 5732 a8bd
00000190: c28a 5dbd 2eda 353d 5b45 82bd b1ab 0cbd
000001a0: 3aa2 86bd 04fe c93c f867 28bd cffb 84bd
000001b0: 4fa0 b23d e942 b53d e27c b6bd 7a69 d0bc
000001c0: 66f8 85bc 1de4 b9bc c6b7 1f3c 5678 89bc
000001d0: 4ed4 50bd a8a2 cc3c 9f7e 973d 09ae 71bc
000001e0: 7dd6 58bc 8884 57bc e08c 6b3c 641a 743d
000001f0: 9b41 71bd a2c7 61bc 0597 36bd 34a3 0abd

weight f4 [128, 128]
0.051998653 0.037639916 0.06015161 0.04221347 -0.058639955 -0.015435664 0.074772276 -0.049525335
0.0675843 -0.028378747 -0.032781556 0.008208812 -0.043142434 0.076948404 -0.005538844 0.064981095
0.0085078785 -0.02815558 0.07740528 0.041150823 0.058793385 -0.012702965 -0.042172693 0.036414742
0.043665167 -0.021935388 0.056758422 0.00079363567 -0.027904816 -0.09100881 -0.01839254 0.060639594
0.058362164 -0.0063304785 -0.00902169 0.03747794 0.053309456 -0.07849584 -0.08054911 -0.041651044
0.07802675 -0.06528601 -0.03123314 -0.07906532 -0.0111264195 0.06429291 0.002500142 0.028207343
-0.05182997 0.0038064215 -0.0063124476 -0.0672688 -0.052430592 -0.02653407 -0.041172817 -0.065821946
-0.054602284 -0.072738856 0.024399009 -0.012158358 -0.078745544 -0.08690658 -0.024594868 -0.03707681
0.02553913 0.011166159 -0.025533358 0.035748184 0.04408592 -0.017018244 -0.013148368 -0.019896075
-0.016789908 -0.015791845 0.031172536 -0.08980717 -0.04343242 0.022349672 -0.048486948 0.06609414
0.07362748 -0.06991174 0.04499646 -0.06717766 0.0065205386 -0.07031784 -0.07996629 0.081884526
-0.075463966 0.005088195 -0.09568602 -0.047136035 -0.016575031 -0.058311913 0.009755271 -0.091430694
0.056094766 -0.07562862 0.0681556 0.046625547 0.04555187 -0.0073463945 -0.0040079234 0.033639885
-0.09221333 -0.05076434 -0.0382071 -0.003473835 -0.021940049 0.02609647 -0.010140419 0.021109723
-0.08427209 0.0141906 -0.027411057 -0.039331112 -0.07720663 -0.094477616 -0.08191735 0.04486282
0.06456208 -0.08511066 0.018461425 0.04820631 -0.0366131 0.020279031 0.046630263 0.04517603
0.023241337 0.0036483472 -0.033624873 0.017804494 -0.032913893 0.023394128 -0.08776236 -0.005192176
0.057901368 0.024542015 0.009458683 -0.0026973411 0.07075842 0.056428224 -0.028171068 0.082676426
0.021967538 0.030709626 -0.0035078418 -0.0020689797 -0.002431666 -0.053669784 -0.063032284 -0.0048636594
-0.08671557 0.062009722 0.055730365 -0.077543624 -0.0023158428 0.07193882 -0.08697212 -0.08020551
-0.07284359 0.06108048 0.07737126 -0.017517507 -0.07781018 0.017442446 -0.03331978 0.033827096
-0.013967694 0.025589138 0.062163323 -0.030140359 -0.05119914 0.042382523 -0.010673111 -0.0156180635
-0.018823087 -0.0027808268 -0.045735348 -0.00037731967 0.07335104 0.04763004 0.05543396 0.050810628
-0.05875439 -0.052471235 0.031594098 -0.034215212 0.05289699 0.050941624 0.023675455 0.061876107
0.05803235 -0.009774996 -0.058029868 -0.0029062456 0.0576388 -0.043365747 -0.023532074 0.057131022
0.0051601436 -0.067434944 0.020428885 -0.0661655 -0.064922675 -0.08059662 0.027610172 0.003850259
-0.021403708 0.064618975 -0.024954263 0.04401467 0.08438816 -0.089410074 0.01499921 0.044537406
0.044949867 -0.08418713 -0.024133101 0.058069464 -0.004908562 0.041115146 0.04827746 -0.0511899
-0.015938895 0.034467217 -0.06424599 -0.05684313 0.02569878 0.010625634 -0.018284766 -0.028030604
-0.07315807 0.020248083 -0.05073625 9.716768e-05 0.057247918 -0.036766417 -0.003680218 0.0031526263
-0.027677499 0.060460653 0.06592228 -0.037040293 -0.0694133 0.0124533875 -0.086343504 -0.034191556
0.06862176 0.06326129 -0.023946732 0.0019162605 0.0501379 -0.014161306 0.053200383 0.031228159
00000000: 8afc 543d 502c 1a3d 8961 763d 08e8 2c3d
00000010: 7330 70bd dee5 7cbc 3522 993d 14db 4abd
00000020: a369 8a3d 8c7a e8bc f445 06bd 417e 063c
00000030: 1fb6 30bd 2097 9d3d 317f b5bb cf14 853d
00000040: a164 0b3c 88a6 e6bc a986 9e3d c48d 283d
00000050: 55d1 703d 1920 50bc 46bd 2cbd a027 153d
00000060: 3fda 323d d8b1 b3bc 857b 683d fd0b 503a
00000070: a498 e4bc d462 babd f4ab 96bc 3961 783d
00000080: 2a0d 6f3d e76f cfbb b6cf 13bc 7882 193d
00000090: 045b 5a3d 6dc2 a0bd eff6 a4bd 499a 2abd
000000a0: 7dcc 9f3d acb4 85bd a4dc ffbc 00ed a1bd
000000b0: 964b 36bc 00ac 833d 6cd9 233b 1613 e73c
000000c0: aa4b 54bd 2875 793b a6d8 cebb 3ac4 89bd
000000d0: 76c1 56bd fa5d d9bc d4a4 28bd a8cd 86bd
000000e0: a5a6 5fbd 1cf8 94bd 6ee0 c73c d933 47bc
000000f0: 5845 a1bd 14fc b1bd 2d7b c9bc dadd 17bd
00000100: 7037 d13c 44f2 363c 552b d1bc b06c 123d
00000110: 7093 343d d869 8bbc 416c 57bc 18fd a2bc
00000120: fd8a 89bc e65d 81bc 8c5d ff3c d2ec b7bd
00000130: 31e6 31bd a916 b73c 409a 46bd 5d5c 873d
00000140: 01ca 963d e32d 8fbd 354e 383d 7194 89bd
00000150: 3eaa d53b cd02 90bd 5ec5 a3bd 13b3 a73d
00000160: da8c 9abd e0ba a63b 08f7 c3bd b711 41bd
00000170: 5cc8 87bc 79d8 6ebd 92d4 1f3c 0440 bbbd
00000180: a0c3 653d 2ee3 9abd 2a95 8b3d 6efa 3e3d
00000190: 9994 3a3d 06ba f0bb e654 83bb fac9 093d
000001a0: 58da bcbd 45ee 4fbd 0c7f 1cbd 48a9 63bb
000001b0: 9ebb b3bc 44c8 d53c 0024 26bc 4cee ac3c
000001c0: d896 acbd b17f 683c 278d e0bc a919 21bd
000001d0: 821e 9ebd 7b7d c1bd 49c4 a7bd 14c2 373d
000001e0: 2039 843d 7f4e aebd 6a3c 973c fb73 453d
000001f0: 9ef7 15bd 3620 a63c 60ff 3e3d 800a 393d
00000200: 9e64 be3c 1c19 6f3b 3cba 09bd bbda 913c
00000210: b8d0 06bd 0ba5 bf3c c1bc b3bd 2123 aabb
00000220: fc29 6d3d 560c c93c 98f8 1a3c e0c5 30bb
00000230: cae9 903d 4821 673d 03c7 e6bc 4252 a93d
00000240: 44f5 b33c c192 fb3c d2e3 65bb b897 07bb
00000250: 965c 1fbb d9d4 5bbd 1217 81bd 555f 9fbb
00000260: ef97 b1bd e8fd 7d3d 8645 643d 31cf 9ebd
00000270: 65c5 17bb a954 933d 701e b2bd c942 a4bd
00000280: 052f 95bd 872f 7a3d d374 9e3d e080 8fbc
00000290: f25a 9fbd 76e3 8e3c 527a 08bd 488e 0a3d
000002a0: c1d8 64bc 50a0 d13c f89e 7e3d eae8 f6bc
000002b0: 30b6 51bd 4c99 2d3d 46de 2ebc e8e2 7fbc
000002c0: e032 9abc 883e 36bb fd54 3bbd fdd2 c5b9
000002d0: 1239 963d b817 433d b80e 633d ce1e 503d
000002e0: 71a8 70bd 14ec 56bd d068 013d 4025 0cbd
000002f0: 84aa 583d 2aa8 503d 07f3 c13c cd71 7d3d
00000300: 54b3 6d3d 4e27 20bc bab0 6dbd b676 3ebb
00000310: aa16 6c3d 48a0 31bd 56c6 c0bc 3802 6a3d
00000320: 6c16 a93b 551b 8abd 7a5a a73c c781 87bd
00000330: 2ef6 84bd d70f a5bd ba2e e23c a054 7c3b
00000340: d456 afbc f456 843d e26c ccbc ba48 343d
00000350: b3d3 ac3d a11c b7bd 3fbf 753c db6c 363d
00000360: 5a1d 383d 4d6a acbd c8b2 c5bc 3fda 6d3d
00000370: 01d8 a0bb 5b68 283d 96be 453d 80ac 51bd
00000380: 4992 82bc 7f2d 0d3d 6793 83bd 58d4 68bd
00000390: 3f86 d23c 2417 2e3c efc9 95bc 70a0 e5bc
000003a0: e6d3 95bd 4fdf a53c d0d0 4fbd 80c6 cb38
000003b0: cb7c 6a3d 6298 16bd d02f 71bb 4b9c 4e3b
000003c0: ecbb e2bc 97a5 773d 4302 873d 90b7 17bd
000003d0: 8f28 8ebd 4b09 4c3c ddd4 b0bd 720c 0cbd
000003e0: 9189 8c3d 238f 813d f02b c4bc 082b fb3a
000003f0: 665d 4d3d d304 68bc a5e8 593d 32d2 ff3c

bias f4 [128]
0.04154605 0.028303646 -0.046571176 -0.096852794 -0.04373007 -0.046251502 -0.05737549 -0.0054311645
0.04614285 -0.08843872 -0.08516853 0.057342075 -0.054413944 -0.059116133 -0.06219909 -0.08272589
0.051223174 0.026980035 0.05187464 0.03530688 0.06414434 0.052484367 -0.027352214 0.04914359
0.06848992 -0.090377375 -0.07768364 0.008311416 0.021223776 0.0211985 0.025030142 0.039767295
0.032110814 0.041971907 -0.097739935 0.010308524 0.030464854 -0.020545382 -0.011818603 -0.07524016
-0.06247369 -0.01305399 -0.05014805 0.0614101 -0.0315402 -0.016285505 -0.012498115 0.04875418
0.035898477 0.009096919 0.00014670752 -0.031960193 0.0064212456 -0.054129012 -0.04326443 0.054395504
0.059998423 0.058989175 -0.009327609 -0.027979212 -0.080299795 0.069805354 0.027902957 0.033895977
0.0680226 -0.023309413 0.0436516 0.065625064 -0.042205237 0.07184332 -0.0146794375 -0.031489506
-0.06552 0.018351112 -0.002658334 -0.056186095 0.059403278 -0.015027317 -0.08491052 -0.088836096
-0.09133735 0.0523246 0.03390863 -0.09249264 -0.09756217 0.06492807 0.044401057 0.07836365
0.039697353 0.04150684 0.05109173 -0.058963247 -0.0054886215 0.033875894 0.061818726 -0.007832913
0.066016406 -0.079495095 -0.017277304 0.05645945 0.027469002 0.033544324 -0.06279382 0.024789665
0.070422344 -0.00045743585 -0.014176941 -0.011962862 0.017765395 -0.0017845351 -0.06538031 0.015406869
0.076574735 -0.06016047 0.030328877 0.05086458 -0.07354208 -0.05806137 -0.034000564 0.02627904
-0.078607425 -0.0409121 0.044956014 -0.02833334 -0.004218231 -0.0025501745 0.051438093 -0.07430188
00000000: 312c 2a3d 0cdd e73c 6bc1 3ebd c25a c6bd
00000010: 4d1e 33bd 3772 3dbd 9002 6bbd e9f7 b1bb
00000020: 4900 3d3d 5c1f b5bd d76c aebd 86df 6a3d
00000030: 28e1 5ebd c223 72bd 79c4 7ebd 316c a9bd
00000040: 64cf 513d 3c05 dd3c 817a 543d f29d 103d
00000050: 1c5e 833d d9f9 563d c011 e0bc ca4a 493d
00000060: 7144 8c3d c617 b9bd 9a18 9fbd 9b2c 083c
00000070: 7cdd ad3c 7aa8 ad3c 030c cd3c 08e3 223d
00000080: a186 033d bcea 2b3d e02b c8bd 15e5 283c
00000090: 6e91 f93c ca4e a8bc d0a2 41bc 8317 9abd
000000a0: 69e4 7fbd 67e0 55bc 0b68 4dbd 2889 7b3d
000000b0: 4c30 01bd 2e69 85bc e5c4 4cbc 77b2 473d
000000c0: 480a 133d 3e0b 153c 80d5 1939 b1e8 02bd
000000d0: 5069 d23b 62b6 5dbd 0b36 31bd d2cd 5e3d
000000e0: e8c0 753d a29e 713d d4d2 18bc a934 e5bc
000000f0: 3874 a4bd 1cf6 8e3d be94 e43c 82d6 0a3d
00000100: 6f4f 8b3d 62f3 bebc 05cc 323d 6f66 863d
00000110: 66df 2cbd 9722 933d 0682 70bc 24fb 00bd
00000120: 5a2f 86bd 1255 963c 7237 2ebb 6423 66bd
00000130: da50 733d 2335 76bc 91e5 adbd b3ef b5bd
00000140: 140f bbbd 5252 563d c7e3 0a3d c86c bdbd
00000150: adce c7bd 02f9 843d e2dd 353d 1f7d a03d
00000160: b199 223d 1403 2a3d 9045 513d 7283 71bd
00000170: e5d9 b3bb 73c1 0a3d a235 7d3d 9e55 00bc
00000180: 9c33 873d 53ce a2bd 2289 8dbc 0642 673d
00000190: ac06 e13c c665 093d 0c9a 80bd b213 cb3c
000001a0: 9739 903d 00d4 efb9 6646 68bc e1ff 43bc
000001b0: bc88 913c 10e7 e9ba 1de6 85bd 186d 7c3c
000001c0: 37d3 9c3d d36a 76bd 4474 f83c 6157 503d
000001d0: 3b9d 96bd c2d1 6dbd 2d44 0bbd 2447 d73c
000001e0: eefc a0bd 7293 27bd cc23 383d 521b e8bc
000001f0: 1639 8abb d420 27bb c0b0 523d 962b 98bd
